src/k_clustering/output/Twitch/model.pkl (torch, 134983 bytes, 6 tensors)

conv0.weight f4 [128, 128]
0.17961244 -0.09486773 0.034420267 -0.18694173 0.02030679 0.10908473 0.107938685 -0.003304763
0.17506437 -0.014331648 -0.023346758 0.09176125 0.118691176 0.18733564 -0.08768538 0.1265125
0.015300568 -0.06658261 -0.032195773 0.033498883 -0.05270249 -0.1757159 0.11024503 -0.07257011
0.019425567 0.047962382 -0.2530303 0.15814668 -0.07785146 -0.14999679 -0.020117452 -0.100728475
0.15175092 -0.0465292 0.16243057 0.10547762 -0.18934143 0.0784759 0.15591462 -0.08547995
-0.1573585 0.006922201 -0.061935816 -0.05308171 0.09093195 -0.016464023 -0.16169448 0.019904729
-0.018701455 0.14848194 0.025420656 -0.008056479 -0.08903012 0.021669226 -0.029576723 -0.13426355
-0.2417152 0.041851304 -0.03283805 0.19922307 0.043689348 0.20161422 0.038954195 -0.04949868
-0.014385364 0.07407117 0.10653746 0.17445387 0.21398832 -0.13763843 0.15157598 0.035716586
0.1146614 0.15514916 0.06220271 0.05364118 0.03998449 -0.0064326 -0.065501556 0.1178906
-0.11738628 0.014856792 -0.005656906 -0.15696082 0.004911282 -0.10485185 0.1699026 -0.1582485
0.085396126 -0.042254798 -0.06571459 -0.13188446 -0.19307187 0.06268482 -0.11254379 -0.07119913
0.028449865 0.03870665 0.21964769 -0.09254576 -0.18979286 0.019901376 -0.11081646 0.018467305
0.16948858 -0.03600338 -0.1305713 -0.08116423 -0.14712374 0.12045865 -0.19744892 -0.062330265
0.08609595 -0.06667551 0.13841185 -0.16581565 -0.064265616 -0.14811265 0.18936299 0.17529581
0.048464183 0.07599157 -0.2549091 0.18439189 -0.11124717 -0.22000484 0.05162747 -0.0038060274
0.13729542 0.13790074 -0.041742563 0.037787355 -0.136955 -0.117195025 0.039116822 -0.018558312
0.09940469 0.12912446 -0.052262783 -0.1517266 -0.096824944 -0.21226494 0.052359637 -0.20929068
0.033223905 0.18089539 0.09744112 -0.17468567 0.023056462 -0.0036717309 -0.02433783 0.08791863
-0.11694442 -0.17046499 -0.21643524 -0.08631337 -0.054757986 0.024346186 0.19108425 -0.03539159
-0.2592449 -0.17286749 0.13690926 -0.06851443 -0.024569703 0.005949962 0.08062549 -0.14329235
0.08125644 -0.10558701 0.19023521 -0.03178103 0.038289696 -0.17387474 0.1710056 -0.17659958
0.1330126 -0.062366854 -0.09381108 -0.036614433 0.05804757 0.00015607616 0.14992483 0.15738197
0.0409056 0.091385745 0.13499701 0.12516089 -0.2088885 -0.13866125 -0.053375274 -0.09053467
-0.16177084 0.22236745 -0.14545472 -0.18816169 -0.08444357 0.021194886 -0.10778949 0.08163911
0.19569129 -0.12179794 -0.03923005 0.03678654 -0.06365132 -0.08878155 -0.22843531 -0.10652093
0.14767416 -0.16006403 0.08628952 -0.09438055 0.11158365 0.04008696 0.08667863 -0.09784553
-0.18822007 -0.17877679 -0.021351095 0.1887777 -0.15573616 0.16856213 -0.12534226 0.15424539
-0.029047944 0.22319308 -0.03449784 -0.18258321 0.002250183 -0.13107632 -0.10000196 0.06901133
-0.0743363 0.05166974 -0.16984187 -0.029861424 -0.038594443 -0.014206534 -0.09516948 0.019081807
0.10659056 0.07726455 -0.17144479 -0.11039912 0.0698438 0.08476572 -0.101416565 0.06143518
0.064770505 -0.19190982 0.050251525 -0.021245655 -0.14401041 -0.005161156 -0.073628075 -0.16718943
00000000: 53ec 373e 034a c2bd 44fc 0c3d a76d 3fbe
00000010: 6d5a a63c d167 df3d f50e dd3d b994 58bb
00000020: 1344 333e 4acf 6abc b341 bfbc 52ed bb3d
00000030: 5c14 f33d ead4 3f3e 6494 b3bd 7e8c 013e
00000040: 3caf 7a3c 775c 88bd b7df 03bd 2036 093d
00000050: 91de 57bd deee 33be 25c8 e13d a39f 94bd
00000060: 5e22 9f3c 3474 443d 308d 81be 34f1 213e
00000070: 9670 9fbd c298 19be 5bcd a4bc bb4a cebd
00000080: 9864 1b3e 6795 3ebd 3354 263e a704 d83d
00000090: b8e2 41be f9b7 a03d 15a8 1f3e 1d10 afbd
000000a0: 9622 21be a1d3 e23b 69b0 7dbd 356c 59bd
000000b0: 883a ba3d 8fdf 86bc 3d93 25be 3e0f a33c
000000c0: cb33 99bc a60b 183e fb3e d03c 52ff 03bc
000000d0: 6c55 b6bd a983 b13c e24a f2bc 627c 09be
000000e0: 3084 77be 466c 2b3d 3181 06bd 2201 4c3e
000000f0: 9af3 323d f573 4e3e 6f8e 1f3d 21bf 4abd
00000100: 97b0 6bbc a0b2 973d 5030 da3d 09a4 323e
00000110: c11f 5b3e 17f1 0cbe bc36 1b3e 8e4b 123d
00000120: 99d3 ea3d 6cdf 1e3e 45c8 7e3d dbb6 5b3d
00000130: c7c6 233d 8fc8 d2bb ae25 86bd a070 f13d
00000140: 3868 f0bd e769 733c 915d b9bb 56ba 20be
00000150: d2ee a03b 91bc d6bd f2fa 2d3e e50b 22be
00000160: 2ae4 ae3d 5e13 2dbd 5f95 86bd b80c 07be
00000170: a2b4 45be e660 803d 5c7d e6bd d9d0 91bd
00000180: b10f e93c dd8a 1e3d 53eb 603e a288 bdbd
00000190: 0f59 42be 3608 a33c bdf3 e2bd bf48 973c
000001a0: 6a8e 2d3e 4878 13bd 7cb4 05be 6f39 a6bd
000001b0: 9ba7 16be 06b3 f63d 0d30 4abe 054e 7fbd
000001c0: 1353 b03d 2b8d 88bd d6bb 0d3e 94cb 29be
000001d0: b19d 83bd d8aa 17be 5fe8 413e bf80 333e
000001e0: 6182 463d 78a1 9b3d 7283 82be 3ad1 3c3e
000001f0: 8ed5 e3bd f348 61be 5377 533d 8b6e 79bb
00000200: 2c97 0c3e da35 0d3e 40fa 2abd eac6 1a3d
00000210: ee3d 0cbe f203 f0bd f638 203d 9a07 98bc
00000220: b094 cb3d 3439 043e 8011 56bd 385e 1bbe
00000230: 284c c6bd fb5b 59be 0f77 563d 4c50 56be
00000240: ca15 083d a43c 393e 368f c73d cde0 32be
00000250: e8e0 bc3c 6ca1 70bb 2160 c7bc af0e b43d
00000260: 8e80 efbd 608e 2ebe 33a1 5dbe 10c5 b0bd
00000270: e949 60bd a771 c73c 97ab 433e c6f6 10bd
00000280: bfbb 84be 2d04 31be f131 0c3e 4b51 8cbd
00000290: 6746 c9bc e6f7 c23b fa1e a53d 3bbb 12be
000002a0: c769 a63d 013e d8bd 05cd 423e d32c 02bd
000002b0: a8d5 1c3d 380c 32be 181c 2f3e 85d6 34be
000002c0: 7434 083e 6374 7fbd 0620 c0bd 04f9 15bd
000002d0: 4ac3 6d3d 60a8 2339 e585 193e bd28 213e
000002e0: a18c 273d 7328 bb3d a83c 0a3e 2d2a 003e
000002f0: dee6 55be 37fd 0dbe 08a0 5abd 3e6a b9bd
00000300: 41a7 25be 4bb4 633e 15f2 14be 75ad 40be
00000310: c0f0 acbd e6a0 ad3c bcc0 dcbd 6832 a73d
00000320: 4c63 483e 3371 f9bd b0af 20bd 7cad 163d
00000330: a05b 82bd 1ad3 b5bd f2ea 69be a527 dabd
00000340: e537 173e d3e7 23be 8fb8 b03d 974a c1bd
00000350: f885 e43d 3932 243d 9184 b13d 3d63 c8bd
00000360: c3bc 40be 4311 37be 7ee8 aebc f14e 413e
00000370: 4d79 1fbe 8d9b 2c3e b959 00be 81f2 1d3e
00000380: f4f5 edbc ba8c 643e 9b4d 0dbd 18f7 3abe
00000390: ce77 133b df38 06be d4cd ccbd d055 8d3d
000003a0: a13d 98bd a6a3 533d 07eb 2dbe f29f f4bc
000003b0: 3515 1ebd 86c2 68bc 37e8 c2bd 7351 9c3c
000003c0: 274c da3d e03c 9e3d 398f 2fbe ef18 e2bd
000003d0: 440a 8f3d a699 ad3d 7db3 cfbd 75a3 7b3d
000003e0: 66a6 843d 0284 44be 8bd4 4d3d 5e0b aebc
000003f0: 7777 13be ea1e a9bb 51ca 96bd b533 2bbe

conv0.bias f4 [128]
0.57883465 0.4461884 0.6321249 0.094244376 0.03415464 0.6384549 0.07758028 0.540189
0.12240271 0.9258821 0.455368 0.5180788 0.17834602 0.66865283 0.13968424 0.5441327
0.71153474 0.71542835 0.1528022 0.08332942 0.64669335 0.7584311 0.9376623 0.8177191
0.9582725 0.2524703 0.29338297 0.072277725 0.6273585 0.93647623 0.046701632 0.0841218
0.6959351 0.24685806 0.6574374 0.19683543 0.6322667 0.15586783 0.26508436 0.35688892
0.5150368 0.5173285 0.017680613 0.6070333 0.7949923 0.63641244 0.8367813 0.5801985
0.21254481 0.2698475 0.39733097 0.839548 0.9675487 0.41441733 0.8262208 0.6098491
0.61006933 0.36464873 0.35448086 0.4627372 0.4657395 0.75184333 0.1136875 0.89963907
0.33571452 0.87338084 0.16436467 0.13114616 0.46141943 0.5603303 0.01729395 0.4961257
0.8232053 0.8606481 0.39815503 0.31234625 0.0911314 0.357968 0.9893006 0.4396493
0.28349566 0.8237081 0.118601754 0.98959905 0.15653966 0.29106298 0.1934533 0.8005939
0.17324167 0.51340216 0.6659943 0.21457905 0.716855 0.8513242 0.043914977 0.794613
0.67825913 0.5892086 0.7504913 0.9847113 0.78370583 0.096084245 0.92613745 0.24495672
0.35221705 0.030513495 0.11082205 0.89023584 0.55826616 0.67881984 0.70612353 0.42812198
0.10713426 0.8399832 0.5325758 0.238871 0.2210929 0.87663543 0.44372916 0.4066879
0.04936508 0.7216243 0.13882661 0.54860055 0.66879946 0.8053501 0.5387254 0.91987956
00000000: 822e 143f ce72 e43e f0d2 213f 3203 c13d
00000010: bce5 0b3d c871 233f 69e2 9e3d d449 0a3f
00000020: 46ae fa3d 9c06 6d3f ff25 e93e d0a0 043f
00000030: 57a0 363e d52c 2b3f 6309 0f3e 484c 0b3f
00000040: 2427 363f 5026 373f 2e78 1c3e 9da8 aa3d
00000050: b28d 253f 8a28 423f a30a 703f 0a56 513f
00000060: 5951 753f ca43 813e 4b36 963e 5806 943d
00000070: 919a 203f e8bc 6f3f 364a 3f3d 0d48 ac3d
00000080: cd28 323f 5cc8 7c3e d14d 283f 3a8f 493e
00000090: 3bdc 213f d19b 1f3e 23b9 873e 25ba b63e
000000a0: 74d9 033f a46f 043f efd6 903c 8966 1b3f
000000b0: 9e84 4b3f edeb 223f 4d37 563f e487 143f
000000c0: 59a5 593e 7429 8a3e f76e cb3e 9eec 563f
000000d0: 46b1 773f 822e d43e 3583 533f 121f 1c3f
000000e0: 812d 1c3f 3db3 ba3e 847e b53e e4eb ec3e
000000f0: 6875 ee3e ce78 403f fed4 e83d bf4e 663f
00000100: c6e2 ab3e e395 5f3f 364f 283e 2e4b 063e
00000110: 2b3f ec3e ce71 0f3f 0bac 8d3c 3004 fe3e
00000120: 95bd 523f 6f53 5c3f fada cb3e d9eb 9f3e
00000130: 19a3 ba3d 9547 b73e ce42 7d3f b719 e13e
00000140: 5826 913e 89de 523f 7ae5 f23d 5d56 7d3f
00000150: ef4b 203e 3506 953e 9f18 463e b9f3 4c3f
00000160: 4466 313e 536e 033f 9a7e 2a3f 9cba 5b3e
00000170: cf83 373f 62f0 593f 31e0 333d c26b 4b3f
00000180: 64a2 2d3f 60d6 163f 3320 403f 0a16 7c3f
00000190: f2a0 483f d1c7 c43d 5817 6d3f efd5 7a3e
000001a0: cb55 b43e 70f7 f93c acf6 e23d 7fe6 633f
000001b0: 88ea 0e3f 23c7 2d3f 83c4 343f ce32 db3e
000001c0: 3569 db3d 2409 573f e356 083f 999a 743e
000001d0: 2d66 623e 2e6b 603f 7830 e33e 6539 d03e
000001e0: 0a33 4a3d 5fbc 383f 9028 0e3e 1671 0c3f
000001f0: 7136 2b3f 6d2b 4e3f e8e9 093f 3a7d 6b3f

conv1.weight f4 [128, 128]
0.18699679 0.0529331 -0.017173415 -0.21304992 -0.06506608 -0.04371048 0.12770686 -0.03487451
-0.014844958 -0.008379415 -0.09032107 0.034778174 0.09063947 -0.11221254 0.024586838 -0.21291883
-0.20128496 0.04185959 -0.18782891 -0.1517878 -0.1784936 0.056542337 -0.18372786 -0.17967135
-0.1402156 -0.13539663 -0.19548146 0.012971733 0.13677901 -0.13161638 -0.0011031954 -0.0034043414
0.08057723 0.10356737 -0.061240006 0.00012446195 0.14332664 0.10894201 -0.06463777 0.21202548
0.21400641 -0.06264931 0.104315706 0.19837569 -0.15177299 -0.08263502 -0.06415539 0.18016843
-0.041350674 0.03781684 -0.02340026 -0.04605744 -0.1933454 0.09892324 -0.061244506 -0.07828629
-0.19766274 -0.0008710085 -0.17910399 -0.05935866 -0.13581161 -0.028682115 -0.06803496 0.16585585
-0.06434323 -0.08519082 0.06928161 0.076832764 0.1847298 0.021033106 -0.032162484 0.108982146
-0.20163241 -0.07633389 -0.015148283 -0.15652709 0.09699438 -0.17590143 -0.08003769 -0.01461684
0.036471426 -0.15824835 -0.1636075 -0.065200776 -0.19945869 0.0015581886 0.123780414 0.11407483
0.20204957 -0.066145435 0.20208389 -0.05706356 -0.09556629 -0.12853459 -0.0034692104 0.016863028
-0.19218561 0.09721375 0.18442933 -0.0776925 0.008694161 -0.17372783 -0.05242199 0.22020592
-0.17909652 0.09045859 0.043669485 -0.036177356 0.15244682 0.08269728 0.06924959 -0.03211711
0.12675186 0.18193658 0.18956311 -0.08056967 -0.1376715 0.09083837 0.11079067 0.15044898
0.024729112 0.24683799 0.0003673486 0.1899855 0.16782653 -0.039742943 -0.07783275 0.20894948
0.19883391 0.05214575 -0.00508801 0.13646609 -0.09765997 -0.011517532 0.06788718 -0.0656086
-0.055911306 -0.18137062 0.11592357 0.1593929 -0.17028773 0.14563988 0.18395439 0.16293417
0.10567633 0.060812768 -0.01949576 -0.1190617 -0.05857581 0.17336503 0.10744322 -0.07070945
-0.11720356 -0.08237603 -0.013246133 -0.1088449 0.036744587 -0.16129112 0.16688572 -0.18649173
0.15671761 -0.017292906 -0.10159495 -0.084590025 -0.12742156 0.020508131 0.17198631 -0.19674456
-0.03239877 -0.2045343 -0.20376858 0.19588657 0.013597176 0.027000966 -0.06133914 -0.18224339
0.11580505 -0.010464675 0.0038826528 -0.13549039 -0.09347946 -0.21385024 -0.029567922 0.19864129
-0.030805988 -0.075747155 0.17517841 0.097031355 -0.13357492 0.12903363 0.074644625 0.18127091
0.19932078 0.18831696 0.10161607 -0.0907406 -0.11803886 -0.027436031 -0.21597964 0.009373622
0.19096564 0.027384603 -0.019113926 -0.13622782 -0.14003426 -0.19052589 -0.024406273 0.12978552
0.19171542 0.014638379 0.16364901 -0.13801177 -0.19290732 0.18062639 0.034980085 -0.12844841
-0.16356896 0.027672112 -0.074967004 -0.20260687 0.043276306 -0.1488677 0.032436315 -0.027993081
-0.11991019 0.18512213 0.20664342 0.2023223 -0.10169599 0.118639104 -0.17752296 0.1556516
0.14252783 -0.03099186 -0.2185176 -0.04527501 -0.033128854 0.068581484 -0.14805423 0.05385312
0.12319318 0.12476118 0.15529028 0.06318962 -0.16407044 -0.110116564 0.16227028 -0.113043
0.071594715 0.019397207 0.19615161 -0.16718635 0.11779659 -0.057452213 -0.034229815 0.075238
00000000: 167c 3f3e 61d0 583d 43af 8cbc c229 5abe
00000010: 5d41 85bd c309 33bd 96c5 023e 93d8 0ebd
00000020: 4438 73bc d049 09bc 41fa b8bd 8f73 0e3d
00000030: 30a1 b93d b0cf e5bd 566a c93c 6507 5abe
00000040: a51d 4ebe f674 2b3d 3956 40be 436e 1bbe
00000050: 07c7 36be f098 673d 2823 3cbe c4fb 37be
00000060: ae94 0fbe 6aa5 0abe 4b2c 48be 6487 543c
00000070: cc0f 0c3e 72c6 06be 1899 90ba 5f1b 5fbb
00000080: ad05 a53d 211b d43d cdd6 7abd 0082 0239
00000090: 38c4 123e fd1c df3d cf60 84bd 351d 593e
000000a0: 7f24 5b3e 484e 80bd 79a3 d53d ff22 4b3e
000000b0: 616a 1bbe 8d3c a9bd e763 83bd 137e 383e
000000c0: 535f 29bd d5e5 1a3d e7b1 bfbc baa6 3cbd
000000d0: 56fc 45be 4598 ca3d 85db 7abd 9054 a0bd
000000e0: 1a68 4abe 6454 64ba 0967 37be 1122 73bd
000000f0: 3312 0bbe c1f6 eabc ea55 8bbd 1ed6 293e
00000100: 62c6 83bd 8678 aebd 84e3 8d3d 7f5a 9d3d
00000110: cf29 3d3e 9f4d ac3c cfbc 03bd 0832 df3d
00000120: ba78 4ebe f154 9cbd 8130 78bc a348 20be
00000130: fda4 c63d 811f 34be cdea a3bd 787b 6fbc
00000140: 1063 153d db0b 22be b988 27be fc87 85bd
00000150: e63e 4cbe 223c cc3a 9680 fd3d 11a0 e93d
00000160: 15e6 4e3e 4277 87bd 14ef 4e3e 7bbb 69bd
00000170: 42b8 c3bd 929e 03be b15b 63bb 5524 8a3c
00000180: 4ecc 44be 0118 c73d 0bdb 3c3e 3f1d 9fbd
00000190: f471 0e3c b5e5 31be 71b8 56bd a97d 613e
000001a0: 1465 37be 5a42 b93d c6de 323d b52e 14bd
000001b0: 051b 1c3e 315d a93d bbd2 8d3d 3b8d 03bd
000001c0: 3dcb 013e 954d 3a3e d51c 423e b601 a5bd
000001d0: c2f9 0cbe 7809 ba3d 38e6 e23d 4c0f 1a3e
000001e0: b594 ca3c 19c3 7c3e b298 c039 8f8b 423e
000001f0: b8da 2b3e 7fc9 22bd c766 9fbd daf6 553e
00000200: 1e9b 4b3e c896 553d 52b9 a6bb c4bd 0b3e
00000210: f301 c8bd 08b4 3cbc 6f08 8b3d cd5d 86bd
00000220: 4103 65bd 38b9 39be 5669 ed3d e437 233e
00000230: e85f 2ebe 9f22 153e 8a5e 3c3e 37d8 263e
00000240: d56c d83d cf16 793d 92b5 9fbc 9fd6 f3bd
00000250: 30ed 6fbd 9a86 313e 310b dc3d 1ed0 90bd
00000260: 6c08 f0bd c4b4 a8bd 4f06 59bc 13ea debd
00000270: 7e81 163d 8029 25be 17e4 2a3e b0f7 3ebe
00000280: 957a 203e daa9 8dbc 0311 d0bd 893d adbd
00000290: cc7a 02be ab00 a83c 2e1d 303e 6877 49be
000002a0: 93b4 04bd 7171 51be b6a8 50be 7d96 483e
000002b0: b1c6 5e3c 2131 dd3c c03e 7bbd 039e 3abe
000002c0: 332b ed3d 0774 2bbc 1b74 7e3b febd 0abe
000002d0: 2972 bfbd 8ffb 5abe 6d38 f2bc 9f68 4b3e
000002e0: d75c fcbc 5321 9bbd f861 333e 60b8 c63d
000002f0: ddc7 08be 6421 043e 48df 983d 159f 393e
00000300: bf1a 4c3e 29d6 403e 161c d03d 35d6 b9bd
00000310: 5cbe f1bd 87c1 e0bc c429 5dbe d293 193c
00000320: 7f8c 433e ad55 e03c cf94 9cbc 4e7f 0bbe
00000330: 2465 0fbe 3819 43be aaef c7bc 7fe6 043e
00000340: 0c51 443e d0d5 6f3c 9b93 273e f552 0dbe
00000350: 7f89 45be 20f6 383e 4747 0f3d fb87 03be
00000360: 9f7e 27be a0b0 e23c 4d88 99bd 2d78 4fbe
00000370: 7f42 313d c670 18be f1db 043d bf51 e5bc
00000380: 7993 f5bd a890 3d3e 559a 533e 942d 4f3e
00000390: fd45 d0bd 0ff9 f23d 94c8 35be 2263 1f3e
000003a0: d1f2 113e a4e2 fdbc 14c3 5fbe 4a72 39bd
000003b0: 1fb2 07bd 7374 8c3d 879b 17be 1795 5c3d
000003c0: b54c fc3d ca82 ff3d 6a04 1f3e 8f69 813d
000003d0: 1502 28be cb84 e1bd 2e2a 263e 1783 e7bd
000003e0: 40a0 923d e4e6 9e3c f8db 483e e632 2bbe
000003f0: 573f f13d 0353 6bbd 9034 0cbd 6116 9a3d

conv1.bias f4 [128]
0.17109016 0.55234873 0.76281154 0.7262298 0.37355083 0.94107944 0.4924574 0.69993705
0.29825526 0.16966186 0.014487349 0.012099647 0.21240915 0.57987446 0.6815527 0.15738562
0.2926813 0.85321087 0.28252143 0.1665828 0.06640603 0.61762816 0.6951324 0.45390227
0.9221231 0.55357254 0.44026637 0.1331954 0.5395945 0.32240388 0.68103194 0.70258015
0.44558647 0.03890641 0.64966226 0.45759884 0.755549 0.33979613 0.16395053 0.76714784
0.5748617 0.45612043 0.15068838 0.0987681 0.8588183 0.17135926 0.7510289 0.6388608
0.1886364 0.76328135 0.510001 0.18480381 0.9116473 0.9121336 0.48488897 0.5598881
0.10593566 0.60868895 0.73401 0.023489304 0.82280403 0.050343975 0.000694603 0.24169376
0.71603495 0.36920196 0.46821088 0.96194804 0.85403377 0.3312805 0.3233992 0.36779746
0.7376495 0.34527442 0.8690036 0.55616534 0.97880924 0.25605556 0.056067377 0.6249896
0.40467647 0.539308 0.54011863 0.34290835 0.42169875 0.22699094 0.2065652 0.9480109
0.49959248 0.9174109 0.25677207 0.8975963 0.72818196 0.6218497 0.53805137 0.74422497
0.5820052 0.4183939 0.6271307 0.74617726 0.38590166 0.7508685 0.50705856 0.1841223
0.3839578 0.30218598 0.6284215 0.32585114 0.21894963 0.93428415 0.67672884 0.36923394
0.06467385 0.26991084 0.8235635 0.032534663 0.10079395 0.88562876 0.50552726 0.76920587
0.74485886 0.61228997 0.33312026 0.7020384 0.96408534 0.27245343 0.7589856 0.89672613
00000000: 4232 2f3e ba66 0d3f 9e47 433f 32ea 393f
00000010: 0e42 bf3e 95ea 703f 6023 fc3e 132f 333f
00000020: eab4 983e d7bb 2d3e 595c 6d3c 993d 463c
00000030: c981 593e a772 143f 3d7a 2e3f b229 213e
00000040: 53da 953e 076c 5a3f a6a6 903e ae94 2a3e
00000050: e2ff 873d e11c 1e3f 32f4 313f e165 e83e
00000060: 4210 6c3f eeb6 0d3f 986a e13e 6064 083e
00000070: dd22 0a3f 1f12 a53e 1c58 2e3f 4bdc 333f
00000080: e923 e43e 545c 1f3d 4450 263f 654a ea3e
00000090: a96b 413f c2f9 ad3e a6e2 273e cd63 443f
000000a0: 232a 133f 9e88 e93e 0e4e 1a3e ee46 ca3d
000000b0: 84db 5b3f cd78 2f3e 6e43 403f 628c 233f
000000c0: e729 413e 6866 433f 6d8f 023f 363d 3d3e
000000d0: b861 693f 9681 693f 5e43 f83e d454 0f3f
000000e0: ccf4 d83d 0ad3 1b3f 14e8 3b3f a46c c03c
000000f0: 49a3 523f 7c35 4e3d 0516 363a 927e 773e
00000100: 114e 373f 0a08 bd3e 56b9 ef3e 3a42 763f
00000110: f5a1 5a3f 999d a93e 9494 a53e f34f bc3e
00000120: 99d6 3c3f cfc7 b03e 0577 5e3f da60 0e3f
00000130: 3e93 7a3f b719 833e e8a6 653d 52ff 1f3f
00000140: c131 cf3e 1710 0a3f 3745 0a3f af91 af3e
00000150: e6e8 d73e 5070 683e d485 533e d8b0 723f
00000160: 96ca ff3e 71db 6a3f a177 833e dfc8 653f
00000170: 226a 3a3f 8b31 1f3f bcbd 093f 8785 3e3f
00000180: 4bfe 143f ba37 d63e a38b 203f 7905 3f3f
00000190: e794 c53e eb38 403f 97ce 013f 8e8a 3c3e
000001a0: 1e96 c43e 1fb8 9a3e 3be0 203f f6d5 a63e
000001b0: 5534 603e 3f2d 6f3f 1a3e 2d3f 3b0c bd3e
000001c0: b973 843d c131 8a3e 0fd5 523f 1143 053d
000001d0: 0f6d ce3d 91b8 623f 3c6a 013f adea 443f
000001e0: 12af 3e3f 09bf 1c3f bd8e aa3e cab8 333f
000001f0: 4cce 763f 047f 8b3e e14c 423f d88f 653f

linear.weight f4 [2, 128]
0.028646795 -0.05097289 0.05990667 0.072770745 0.091502875 0.08395729 0.0027018073 0.06905143
-0.027401883 -0.07735764 -0.022404248 0.03691648 0.018997284 -0.084176324 -0.044306885 0.0069507007
0.113532364 -0.070673026 -0.03014468 -0.02306005 0.05546492 -0.044027984 -0.05127525 -0.08962828
0.044939432 -0.066894814 -0.047300126 0.09227613 0.060127307 -0.009635209 0.043115575 0.036856305
0.018427057 -0.016388675 0.03186962 0.0757773 -0.0866889 -0.08020339 -0.07382794 -0.038659677
-0.048916902 -0.003186237 0.073002554 0.06767943 0.021401523 0.11337342 0.04636572 -0.088866115
0.035841737 0.07420343 0.008365735 -0.081543796 -0.051638268 0.0066967164 0.16105777 0.022946887
-0.07693335 -0.083833516 0.08395627 -0.0236366 -0.014105115 -0.116237834 0.06898253 0.012210572
0.035226624 0.063896395 0.036293406 -0.053233072 0.100052014 -0.13011913 -0.06878703 0.06266346
-0.014824296 0.04332149 -0.060726125 0.01318063 0.074861914 0.02452891 0.080850974 0.035821475
-0.03638877 0.073265366 -0.057847958 0.18039134 -0.054817095 0.028526982 0.0044624293 0.079120666
0.06835888 0.043725222 -0.042541783 0.08817217 0.06884244 0.10908791 0.016473548 -0.01490943
0.021071423 0.06750018 -0.0577019 -0.04056819 -0.03336822 0.07411699 0.061271895 0.017744942
0.012816969 -0.069565535 -0.016868722 -0.022261636 0.18545559 0.021702612 -0.060705315 -0.060671806
0.027704645 -0.11012581 0.07481383 0.047271732 -0.03695729 0.07129999 0.07592183 -0.08172613
0.00907544 0.015497024 -0.13780323 -0.07162777 0.043231532 -0.04623745 0.051613286 -0.010354571
0.044683803 -0.026677528 -0.07342503 -0.060829926 -0.027180953 0.08045443 -0.07376144 0.08154403
0.009420406 -0.07296299 -0.0075010546 0.042884 0.042357314 -0.08462268 -0.029166939 0.02411081
-0.014553379 -0.008943684 -0.072376154 -0.023580546 -0.036424804 -0.022621753 -0.0038174808 -0.0388103
-0.0837174 0.005343691 0.099519335 -0.05268321 0.09532648 0.05775149 0.063828975 0.028267402
-0.010912746 -0.017004428 0.015221546 -0.057772346 0.035004508 0.049077824 0.0001162844 -0.06978328
-0.033236265 -0.06294802 0.06270862 -0.057946034 0.062946394 -0.004940551 0.00693401 0.027172254
0.030400421 0.049999673 -0.084201634 0.08368575 0.07623742 -0.027676992 -0.07499292 0.028820537
-0.057215635 0.05336682 0.07765946 -0.029096778 -0.0182495 0.11162374 -0.010493585 -0.063910946
-0.058844306 0.07573889 0.06439398 -0.005441349 -0.03770423 0.08536698 -0.07301616 0.08531335
-0.05996436 -0.03227856 -0.0043733376 0.051997244 -0.055606928 -0.02065197 -0.070436135 -0.012917772
0.040438782 0.060241397 0.02156309 -0.1594668 0.086295895 -0.035793815 -0.00032578662 0.05855562
0.08788727 -0.016490357 -0.032769706 -0.043186385 0.01952598 0.031661168 0.06256799 0.065464295
-0.043769285 0.042708173 -0.01008163 -0.02708299 0.02421866 0.014459768 0.06138248 0.10509357
0.019579424 -0.07848078 -0.019204494 0.05016251 -0.15667899 0.0031194594 0.057437375 0.098561995
-0.018784909 0.05644535 0.012464912 0.034892663 0.025080128 0.053825196 -0.037314698 0.071139105
-0.014612355 -0.13053933 0.1281701 0.13327079 -0.018566843 0.02508652 -0.06521051 0.06828869
00000000: afac ea3c f3c8 50bd b260 753d d408 953d
00000010: dc65 bb3d cdf1 ab3d ce10 313b d66a 8d3d
00000020: ea79 e0bc af6d 9ebd 1d89 b7bc bc35 173d
00000030: 31a0 9b3c a364 acbd 237b 35bd b4c2 e33b
00000040: a883 e83d 05bd 90bd faf1 f6bc 6ee8 bcbc
00000050: 2f2f 633d b056 34bd ff05 52bd 088f b7bd
00000060: 6912 383d 2600 89bd c7bd 41bd 45fb bc3d
00000070: 0d48 763d ffdc 1dbc f599 303d a3f6 163d
00000080: 57f4 963c 8b41 86bc b889 023d 2131 9b3d
00000090: f389 b1bd ad41 a4bd 1a33 97bd 9c59 1ebd
000000a0: 175d 48bd 30d0 50bb 5d82 953d 839b 8a3d
000000b0: 3f52 af3c 5330 e83d fbe9 3d3d 70ff b5bd
000000c0: c9ce 123d f8f7 973d 7010 093c 6f00 a7bd
000000d0: a682 53bd 2170 db3b 54ec 243e 1cfb bb3c
000000e0: 3b8f 9dbd e8b0 abbd 44f1 ab3d 8ba1 c1bc
000000f0: 2419 67bc 1a0e eebd b646 8d3d da0e 483c
00000100: cb49 103d 1ddc 823d 65a8 143d ec0a 5abd
00000110: 12e8 cc3d f33d 05be 37e0 8cbd b355 803d
00000120: 9be1 72bc e071 313d f5bb 78bd 92f3 573c
00000130: 3451 993d daf0 c83c 3295 a53d 8ab9 123d
00000140: 640c 15bd 270c 963d fbf1 6cbd 82b8 383e
00000150: e487 60bd 6bb1 e93c 9239 923b 040a a23d
00000160: beff 8b3d 3819 333d 4b40 2ebd 9c93 b43d
00000170: 44fd 8c3d 7b69 df3d 89f3 863c af46 74bc
00000180: fa9d ac3c 893d 8a3d d458 6cbd d52a 26bd
00000190: 1dad 08bd a6ca 973d 3df8 7a3d d75d 913c
000001a0: 44fe 513c 6078 8ebd 4630 8abc 095e b6bc
000001b0: 12e8 3d3e adc9 b13c 23a6 78bd 0083 78bd
000001c0: daf4 e23c a489 e1bd fe37 993d 01a0 413d
000001d0: 8760 17bd bb05 923d e87c 9b3d 0760 a7bd
000001e0: 27b1 143c 3be7 7d3c 4a1c 0dbe 95b1 92bd
000001f0: 8c13 313d 7b63 3dbd 7468 533d 38a6 29bc
00000200: 5d06 373d d58a dabc dd5f 96bd cd28 79bd
00000210: 97aa debc 4bc5 a43d 3d10 97bd 8e00 a73d
00000220: 0c58 1a3c 9f6d 95bd 68cb f5bb 22a7 2f3d
00000230: dd7e 2d3d a84e adbd 81ef eebc 0984 c53c
00000240: 4c71 6ebc 8888 12bc f339 94bd fd2b c1bc
00000250: 2d32 15bd 4151 b9bc b32e 7abb 8df7 1ebd
00000260: 0774 abbd 211a af3b cbd0 cb3d 59ca 57bd
00000270: 883a c33d d48c 6c3d c4b8 823d 0a91 e73c
00000280: 60cb 32bc df4c 8bbc cb63 793c b2a2 6cbd
00000290: e360 0f3d d405 493d b6dd f338 89ea 8ebd
000002a0: c022 08bd e4ea 80bd 616d 803d d258 6dbd
000002b0: 0aea 803d 58e4 a1bb b136 e33b 5998 de3c
000002c0: 4e0a f93c 75cc 4c3d e871 acbd 6f63 ab3d
000002d0: 5d22 9c3d dcba e2bc e395 99bd 0c19 ec3c
000002e0: f15a 6abd 2b97 5a3d ec0b 9f3d 5e5c eebc
000002f0: fa7f 95bc fd9a e43d 49ed 2bbc bee3 82bd
00000300: ba06 71bd fe1c 9b3d fee0 833d 584d b2bb
00000310: c06f 1abd e2d4 ae3d 7f89 95bd c4b8 ae3d
00000320: 309d 75bd 8636 04bd 374e 8fbb 10fb 543d
00000330: 17c4 63bd 522e a9bc d240 90bd 10a5 53bc
00000340: 23a3 253d afbf 763d 14a5 b03c 444b 23be
00000350: e7bb b03d 899c 12bd 57ce aab9 05d8 6f3d
00000360: 3efe b33d c916 87bc 8739 06bd 35e4 30bd
00000370: f3f4 9f3c 24af 013d a523 803d 2512 863d
00000380: 6c47 33bd c4ee 2e3d 6c2d 25bc 26dd ddbc
00000390: 3666 c63c aae8 6c3c 326c 7b3d 4c3b d73d
000003a0: 0765 a03c 88ba a0bd be52 9dbc 3477 4d3d
000003b0: 7570 20be d86f 4c3b 7443 6b3d dfda c93d
000003c0: cfe2 99bc 3d33 673d a139 4c3c 9ceb 0e3d
000003d0: d774 cd3c cf77 5c3d 4cd7 18bd 61b1 913d
000003e0: a968 6fbc 1aac 05be 063f 033e 2378 083e
000003f0: 7e19 98bc 3f82 cd3c 168d 85bd f1da 8b3d

linear.bias f4 [2]
-0.019729365 -0.06796297
00000000: 7a9f a1bc 2b30 8bbd
