src/k_clustering/output/cora/model.pkl (torch, 183343 bytes, 8 tensors)

conv0.weight f4 [1433, 30]
-0.027817443 0.28958243 -0.12460441 -0.077010475 -0.073585786 -0.14693233 0.23316641 -0.21233097
-0.1171018 0.10015102 -0.12411318 -0.07451782 0.33170456 0.08651744 -0.045876224 -0.20506984
-0.28873134 0.011522461 0.047079198 -0.052594848 -0.11521319 0.3256769 0.117556155 -0.2084677
0.21714102 -0.29726475 0.17049187 0.06153542 0.032617807 0.09806118 -0.09380847 0.036808886
-0.05322232 0.100130446 -0.06309478 -0.06923617 -0.0019260823 -0.10121327 -0.0016402954 -0.06598313
0.041084614 0.29624397 -0.036650293 -0.07951525 -0.0042849304 0.073173046 -0.15955296 0.35189298
0.035789132 -0.044066 -0.007375472 -0.06074339 0.02405569 -0.15385902 0.033135183 -0.03883338
0.0075766924 0.14370531 -0.045650855 -0.116607726 -0.1218891 0.057594843 -0.11419547 0.057981387
-0.010253291 -0.05501836 0.0028573386 -0.05378753 -0.029796718 0.059941366 -0.0472432 -0.1056748
-0.026864123 -0.005384544 -0.10945426 -0.04284581 -0.13638125 0.0545313 -0.11287234 -0.044991624
-0.066331044 0.10956351 -0.04403922 -0.16674338 0.091744676 -0.13760173 0.031057982 -0.08648516
-0.010229862 0.08368159 -0.10532808 0.13302284 -0.19195534 0.25402808 -0.059477516 -0.0910523
0.24349053 -0.011124228 -0.092365645 -0.010661627 -0.0789296 -0.057889763 -0.09030176 0.022137756
-0.03726551 -0.21482196 -0.1504773 0.1503321 -0.10238592 -0.12001282 -0.045712806 0.2107817
-0.034069154 -0.44301605 0.36950868 -0.40165922 0.04994555 0.07822702 -0.011135042 0.3282194
-0.10299535 0.09821401 -0.04845878 0.15561667 0.0019067788 -0.103550985 -0.0015728202 -0.0717311
-0.0149634555 -0.20344839 -0.09483481 -0.29887226 0.21844392 -0.14921786 -0.052576855 0.17242944
-0.24581851 0.11364409 -0.060735162 -0.08869627 -0.094477 -0.38249275 0.06279716 -0.041767087
-0.084352836 0.049304806 -0.061065573 0.104846366 0.006439942 -0.24332856 -0.028856367 -0.7780956
-0.29383737 0.42600212 -0.075296745 -0.08518095 -0.05379725 0.34877992 -0.24446028 -0.12876895
0.017626336 2.2138314 -0.6764538 -0.33471563 -0.14831594 0.07665335 1.544401 0.07854928
0.11727196 0.48123866 0.04111315 -0.50958365 -0.53696644 0.03625796 -0.54622644 1.0364621
-0.57949835 -0.3911607 -0.010475271 0.3941943 -0.16554378 0.055463426 -0.2014572 -0.03833512
-0.11616065 -0.17518032 -0.26942834 -0.16441163 -0.036619496 -0.10462633 0.0018080414 0.04890622
0.08807392 -0.071875334 -0.052293252 0.19269317 -0.023207419 0.37264198 0.12654561 -0.04897075
-0.15725012 -0.021057898 0.19243908 0.16420622 -0.16345112 0.35433468 -0.004756034 0.108863086
-0.024479773 -0.21262243 -0.15028623 -0.109096445 -0.09197618 0.08317094 -0.10647049 -0.033796024
0.12547866 -0.27125898 -0.16777465 0.05667912 0.10262004 -0.31027383 -0.010280816 0.19440763
-0.043161303 -0.5462528 -0.41603556 -0.67007434 -0.66363794 -0.09332469 -0.03352058 1.029706
-0.45025745 -0.6835108 0.15603404 -0.3791501 0.03431313 -0.38101557 -0.10638618 0.58799344
-0.083664946 -0.23990828 -0.055621784 0.18886685 -0.095933676 -0.10732408 0.3041498 -0.13767171
-0.120179825 0.24259761 0.105165325 0.70508045 -0.36323985 0.046373915 -0.032755427 0.023873523
00000000: 68e1 e3bc 2644 943e 9930 ffbd abb7 9dbd
00000010: 25b4 96bd 6e75 16be 2dc3 6e3e 4a6d 59be
00000020: 12d3 efbd fa1b cd3d 0d2f febd cc9c 98bd
00000030: 2ed5 a93e 0e30 b13d b5e8 3bbd d4fd 51be
00000040: 98d4 93be b4c8 3c3c 1ed6 403d b26d 57bd
00000050: e5f4 ebbd 1fbf a63e 48c1 f03d 8f78 55be
00000060: 375a 5e3e 1633 98be 6c95 2e3e 910c 7c3d
00000070: 409a 053d 4dd4 c83d a81e c0bd eac4 163d
00000080: a6ff 59bd 3111 cd3d d637 81bd b1cb 8dbd
00000090: 9974 fcba e748 cfbd 2eff d6ba 2a22 87bd
000000a0: 5748 283d 4aad 973e 9e1e 16bd e4d8 a2bd
000000b0: 9a68 8cbb c0db 953d da61 23be 512b b43e
000000c0: a097 123d 8d7e 34bd f2ad f1bb 10ce 78bd
000000d0: 7010 c53c 388d 1dbe c2b8 073d c00f 1fbd
000000e0: e745 f83b 7c27 133e 64fc 3abd 08d0 eebd
000000f0: fea0 f9bd 92e8 6b3d 51df e9bd e47d 6d3d
00000100: 6bfd 27bc ef5a 61bd 3042 3b3b 5050 5cbd
00000110: 3f18 f4bc 1485 753d 1682 41bd 086c d8bd
00000120: 2612 dcbc d470 b0bb 8e29 e0bd 177f 2fbd
00000130: 87a7 0bbe 365c 5f3d 9d29 e7bd 2349 38bd
00000140: 92d8 87bd d562 e03d 7862 34bd c7be 2abe
00000150: a2e4 bb3d 78e7 0cbe 4f6d fe3c 221f b1bd
00000160: 279b 27bc 4161 ab3d 40b6 d7bd 2437 083e
00000170: f18f 44be f80f 823e b29e 73bd a179 babd
00000180: 9555 793e 6542 36bc 332a bdbd 1bae 2ebc
00000190: d8a5 a1bd d11d 6dbd 21f0 b8bd 3d5a b53c
000001a0: b8a3 18bd 4afa 5bbe b916 1abe a8f0 193e
000001b0: b6af d1bd 48c9 f5bd 5a3d 3bbd 28d7 573e
000001c0: 198c 0bbd 00d3 e2be 3e30 bd3e 47a6 cdbe
000001d0: b493 4c3d 7d35 a03d c06f 36bc 600c a83e
000001e0: 3aef d2bd 6d24 c93d b77c 46bd fa59 1f3e
000001f0: e1ec f93a 8a12 d4bd 1727 ceba c1e7 92bd
00000200: 4829 75bc c654 50be c138 c2bd c905 99be
00000210: c3af 5f3e 91cc 18be d45a 57bd 5891 303e
00000220: d9b7 7bbe 3cbe e83d 6fc5 78bd 64a6 b5bd
00000230: 287d c1bd 17d6 c3be cc9b 803d f713 2bbd
00000240: 2ec1 acbd d6f3 493d e51f 7abd b1b9 d63d
00000250: 2606 d33b 1f2b 79be 3064 ecbc 4631 47bf
00000260: da71 96be f31c da3e 2e35 9abd 5a73 aebd
00000270: 815a 5cbd 4893 b23e cc53 7abe 02dc 03be
00000280: 1b65 903c 6aaf 0d40 142c 2dbf d95f abbe
00000290: 22e0 17be 6efc 9c3d efae c53f 72de a03d
000002a0: 482c f03d ea64 f63e 4366 283d 1374 02bf
000002b0: a276 09bf 3a83 143d 7fd5 0bbf caaa 843f
000002c0: 015a 14bf 3746 c8be 79a0 2bbc d6d3 c93e
000002d0: 4f84 29be 9e2d 633d cc4a 4ebe 4905 1dbd
000002e0: a3e5 edbd 7862 33be 83f2 89be 865b 28be
000002f0: 53fe 15bd 5446 d6bd cdfb ec3a e351 483d
00000300: 1960 b43d 6033 93bd 7331 56bd 5c51 453e
00000310: 7c1d bebc eeca be3e 2c95 013e 8e95 48bd
00000320: 2d06 21be 9d81 acbc c00e 453e ad25 283e
00000330: bb5f 27be 5b6b b53e 81d8 9bbb 9cf3 de3d
00000340: ce89 c8bc b2b9 59be a2e4 19be f56d dfbd
00000350: 025e bcbd 8755 aa3d 330d dabd b36d 0abd
00000360: 7a7d 003e 75e2 8abe 1ecd 2bbe 5d28 683d
00000370: 752a d23d 36dc 9ebe de70 28bc cb12 473e
00000380: e8c9 30bd 39d7 0bbf 9d02 d5be fe89 2bbf
00000390: 2de4 29bf 0421 bfbd e04c 09bd 68cd 833f
000003a0: 2588 e6be 90fa 2ebf 63c7 1f3e f61f c2be
000003b0: ed8b 0c3d 7914 c3be ffe0 d9bd bd86 163f
000003c0: 8758 abbd 84aa 75be abd3 63bd 5066 413e
000003d0: e078 c4bd bacc dbbd 86b9 9b3e d0f9 0cbe
000003e0: d720 f6bd 826b 783e eb60 d73d 2780 343f
000003f0: 93fa b9be 93f2 3d3d 8e2a 06bd 6892 c33c

conv0.bias f4 [30]
0.292611 0.38223156 0.7417319 0.64503616 0.32483312 0.48824465 0.8623811 0.47820568
0.51853955 0.9101927 0.5024199 0.84295124 0.07287991 0.7730609 0.17426045 0.85256857
0.6785307 0.9014738 0.24730286 0.672621 0.87471545 0.16401508 0.8416666 0.562531
0.7911942 0.5865522 0.61279416 0.9460436 0.34483546 0.17813459
00000000: 1cd1 953e dbb3 c33e 24e2 3d3f 1721 253f
00000010: 8750 a63e 34fb f93e 02c5 5c3f 60d7 f43e
00000020: 02bf 043f 6402 693f 979e 003f a7cb 573f
00000030: 1042 953d 52e7 453f 5571 323e ef41 5a3f
00000040: 30b4 2d3f fdc6 663f f63c 7d3e e430 2c3f
00000050: 5aed 5f3f 92f3 273e 7677 573f 0802 103f
00000060: b48b 4a3f 4928 163f 14e0 1c3f ea2f 723f
00000070: 468e b03e ea68 363e

conv1.weight f4 [30, 30]
0.18870614 0.3676259 -0.15192646 -0.10200777 -0.08854917 -0.09490649 0.41644385 -0.06682102
0.33038586 -0.3197493 -0.02867643 -0.047368478 0.37383607 -0.06693922 -0.078422874 -0.19068323
0.14720443 -0.48059228 -0.1431656 0.13988715 0.26964426 0.26375356 -0.3060947 0.0345315
0.095639005 0.0978311 -0.1547706 -0.3527239 0.17417584 -0.3968405 -0.35287246 0.2157233
0.41409776 -0.21020468 -0.31894928 0.11421536 0.098433785 -0.169135 -0.2937103 0.4283166
0.28077012 0.2751421 -0.24272712 0.23480436 0.41005054 -0.030136645 0.3343153 -0.14123844
-0.18372922 0.38072303 -0.0955706 -0.29597944 -0.1330083 0.31228116 -0.33548272 -0.028437747
-0.3885063 -0.3132407 -0.07598153 0.0327344 0.3274845 -0.24021535 -0.38400197 -0.01858887
0.3213982 0.19622913 0.0295671 -0.12668097 -0.030825714 0.018281225 -0.24710776 -0.178488
0.0860578 0.06216169 0.2821852 0.2831652 -0.26861045 -0.3588228 0.06497824 -0.18532492
-0.30599004 0.13117947 0.29437572 -0.14462969 0.27176923 -0.17824808 0.098545186 0.053041752
-0.08877633 0.19561183 0.214642 0.22594921 -0.3824544 0.32746604 -0.023315432 -0.122356474
-0.12667237 0.0146815805 0.02817755 -0.08206578 -0.08545759 -0.24633038 -0.31726927 -0.060832474
0.2336101 0.120063 -0.12603979 0.11934845 0.29977605 -0.0015731291 -0.30637068 0.004602465
-0.12467057 -0.07841358 -0.5083798 0.06842614 -0.5162698 0.17111763 -0.36514872 -0.4692977
-0.34561017 -0.36426744 0.26742747 0.33549213 -0.06434385 -0.13115145 0.39904043 -0.37400997
0.1583554 0.3688674 -0.23217097 0.257247 -0.20333341 -0.043791458 -0.2681351 0.30122414
-0.38055593 -0.007415801 -0.1529104 -0.27045107 0.38993007 -0.008306671 0.30461076 0.27307993
-0.003419626 0.2564101 0.23401144 -0.17279182 0.4197303 -0.18519312 -0.2877376 0.20544584
0.08722062 -0.017398125 -0.083066806 0.23191082 -0.009819057 -0.32591447 -0.11778937 0.21000457
-0.31223723 0.30308035 0.29779857 0.44726935 -0.44525477 -0.2871356 -0.14896293 -0.12621894
-0.24882513 -0.05228474 -0.32648 0.26748973 0.12622584 -0.32031554 0.02775359 -0.2840616
-0.2844724 0.28107974 0.2821902 -0.0042132023 0.06539509 -0.05291185 -0.38666168 0.07606397
-0.07294513 0.17632936 -0.12500806 -0.16184668 0.1627983 -0.21943636 0.27645907 -0.15885466
0.056669418 -0.36594114 0.4320437 -0.027980205 0.027838778 0.18482763 0.4942152 -0.1691637
-0.09917836 -0.22435534 -0.10121906 -0.018611193 -0.3498447 0.39544517 0.00438196 0.18996172
0.025372982 -0.10265043 -0.20078263 0.2325573 0.3971566 -0.23726492 0.28446004 -0.10028501
0.17407556 -0.38241673 -0.33531234 -0.0938543 0.11286913 -0.42367294 -0.20100592 0.11547915
0.28187957 -0.012223826 -0.2858902 0.28074673 -0.34507897 0.48364523 -0.1611993 -0.44688767
0.086364694 0.20097671 -0.42927003 0.2858378 0.098589815 0.18663403 0.33977816 0.43941504
-0.14239849 -0.22242095 -0.22697079 0.06534184 -0.066079415 0.177314 0.11743026 0.07707731
-0.36026758 0.1689604 -0.26163742 -0.22083658 0.3538913 0.02887612 -0.39300486 -0.14670955
00000000: 2f3c 413e 7639 bc3e 9c92 1bbe 73e9 d0bd
00000010: 4459 b5bd 555e c2bd 2138 d53e 75d9 88bd
00000020: 5628 a93e 2eb6 a3be d5ea eabc 7305 42bd
00000030: 7167 bf3e 6e17 89bd 2c9c a0bd 7742 43be
00000040: c2bc 163e 3110 f6be 019a 12be 943e 0f3e
00000050: d00e 8a3e b50a 873e 72b8 9cbe e770 0d3d
00000060: 62de c33d ac5b c83d 2f7c 1ebe 3a98 b4be
00000070: 275b 323e ae2e cbbe b3ab b4be 92e6 5c3e
00000080: 9f04 d43e e53f 57be 524d a3be bee9 e93d
00000090: a797 c93d ba31 2dbe 3261 96be 504c db3e
000000a0: 1ac1 8f3e 6ddf 8c3e 758d 78be 8e70 703e
000000b0: 25f2 d13e 20e1 f6bc 602b ab3e cfa0 10be
000000c0: 8323 3cbe 21ee c23e 85ba c3bd 9e8a 97be
000000d0: 5433 08be 51e3 9f3e 64c4 abbe 47f6 e8bc
000000e0: 4cea c6be 1661 a0be 349c 9bbd 8214 063d
000000f0: 0cac a73e 03fb 75be e89b c4be b047 98bc
00000100: 4e8e a43e 4af0 483e b436 f23c a8b8 01be
00000110: 3586 fcbc 82c2 953c d109 7dbe 8fc5 36be
00000120: 123f b03d 429d 7e3d 947a 903e 07fb 903e
00000130: 4f87 89be 9fb7 b7be 5013 853d d1c5 3dbe
00000140: baaa 9cbe e953 063e 6ab8 963e ce19 14be
00000150: 5625 8b3e aa86 36be 0fd2 c93d 4f42 593d
00000160: 5dd0 b5bd 784e 483e 1dcb 5b3e 3b5f 673e
00000170: 10d1 c3be a1a9 a73e 0100 bfbc 0896 fabd
00000180: 67b6 01be 038b 703c 9bd4 e63c 1b12 a8bd
00000190: 6404 afbd 083e 7cbe 1e71 a2be 792b 79bd
000001a0: 7c37 6f3e 97e3 f53d 9310 01be f66c f43d
000001b0: 3f7c 993e 7431 ceba 9edc 9cbe 46d0 963b
000001c0: 4953 ffbd 4d97 a0bd 2e25 02bf 0123 8c3d
000001d0: 422a 04bf 7639 2f3e c6f4 babe ca47 f0be
000001e0: d1f3 b0be 4381 babe 41ec 883e a0c5 ab3e
000001f0: b5c6 83bd 914c 06be 074f cc3e 3c7e bfbe
00000200: eb27 223e 30dc bc3e 3abe 6dbe e1b5 833e
00000210: a236 50be ac5e 33bd 0149 89be 0d3a 9a3e
00000220: 3ad8 c2be 3f00 f3bb 8b94 1cbe 9078 8abe
00000230: eaa4 c73e b418 08bc f1f5 9b3e 22d1 8b3e
00000240: ce1b 60bb 2f48 833e b2a0 6f3e 57f0 30be
00000250: e4e6 d63e 44a3 3dbe 5852 93be 6560 523e
00000260: b9a0 b23d 8386 8ebc ee1e aabd 087a 6d3e
00000270: 1ce0 20bc 43de a6be 8e3b f1bd 700b 573e
00000280: 8fdd 9fbe 592d 9b3e 0e79 983e 7d00 e53e
00000290: 6ff8 e3be 7003 93be bd89 18be 8a3f 01be
000002a0: 04cc 7ebe 8628 56bd 6328 a7be 6af4 883e
000002b0: 5941 013e 6600 a4be 7f5b e33c 8670 91be
000002c0: 5ea6 91be afe9 8f3e 3c7b 903e e70e 8abb
000002d0: dced 853d 19ba 58bd 85f8 c5be 6dc7 9b3d
000002e0: 4264 95bd af8f 343e 1d02 00be 23bb 25be
000002f0: 99b4 263e edb3 60be 0b8c 8d3e ccaa 22be
00000300: 311e 683d a35c bbbe d534 dd3e be36 e5bc
00000310: 260e e43c 7443 3d3e c609 fd3e 4039 2dbe
00000320: 061e cbbd 68bd 65be f04b cfbd 8076 98bc
00000330: d81e b3be ca77 ca3e 8b96 8f3b 5385 423e
00000340: 00db cf3c 633a d2bd f699 4dbe 8023 6e3e
00000350: 1c58 cb3e 93f5 72be bfa4 913e 3a62 cdbd
00000360: dd40 323e 20cc c3be 0fae abbe af36 c0bd
00000370: ee27 e73d a9eb d8be 7fd4 4dbe 5580 ec3d
00000380: 8552 903e 7146 48bc 3360 92be 09be 8f3e
00000390: 31ae b0be 59a0 f73e 6e11 25be 76ce e4be
000003a0: f9df b03d d7cc 4d3e 48c9 dbbe 5559 923e
000003b0: 75e9 c93d fe1c 3f3e 67f7 ad3e 02fb e03e
000003c0: e9d0 11be 51c2 63be 086b 68be f1d1 853d
000003d0: a554 87bd cd91 353e 477f f03d b5da 9d3d
000003e0: fe74 b8be f503 2d3e 57f5 85be fc22 62be
000003f0: 3e31 b53e 9d8d ec3c ef37 c9be 073b 16be

conv1.bias f4 [30]
0.14271694 -0.034331057 0.39452666 0.4702337 0.09168216 0.8891337 0.31525224 0.86554605
0.43958354 0.048916463 0.80620325 0.3101637 0.45269057 0.06701143 0.23213363 0.5411766
0.19091906 0.5341204 0.79797125 0.5479329 0.26587555 0.3545392 0.7552435 0.14946033
0.24357474 0.8337108 0.6022682 0.38539785 0.58514285 0.14352092
00000000: 6424 123e b99e 0cbd 66ff c93e 79c2 f03e
00000010: dbc3 bb3d 449e 633f be68 a13e 6d94 5d3f
00000020: 1811 e13e a15c 483d 5663 4e3f c7cd 9e3e
00000030: 0fc7 e73e 4a3d 893d 70b4 6d3e 8d8a 0a3f
00000040: 4980 433e 1dbc 083f d847 4c3f 5545 0c3f
00000050: d720 883e 2986 b53e a357 413f 210c 193e
00000060: a86b 793e 126e 553f 402e 1a3f de52 c53e
00000070: eccb 153f 26f7 123e

linear.0.weight f4 [30, 30]
-0.065166906 0.108359754 0.057057604 0.12418568 -0.004709497 0.08751929 0.12779513 0.11145896
-0.06417838 0.15266266 0.08758682 -0.04241486 0.056334764 0.11888161 -0.06687712 0.10397279
-0.091950275 -0.0768821 0.07461342 0.014983758 0.18027356 -0.053060308 -0.006501943 -0.011612549
-0.01639697 -0.1075331 0.049258262 0.04707323 0.037149325 -0.06866993 -0.03089832 -0.5627171
-0.22253266 0.25942117 0.04993932 -0.021257354 -0.3328538 0.13221607 -0.026749173 -0.5901765
-0.06359339 -0.035482742 -0.024567477 -0.17774822 -0.40348879 0.051489174 -0.11085334 -0.27349487
-0.15320951 -0.39200625 0.3498305 0.25340334 -0.07755512 -0.23192689 0.2945535 -0.07032972
0.1442666 0.2473065 -0.013667835 -0.054164723 -0.09406977 0.084195405 0.035985906 0.030438645
-0.05179382 -0.1383019 -0.0050034253 0.21584082 -0.019318372 0.008051412 0.13626523 0.18499674
0.026178544 -0.08450111 -0.32510078 0.08937961 0.11350202 -0.20878507 0.1416787 0.034780655
-0.15842953 0.2766754 0.117635325 0.12826963 0.08157669 -0.12965968 0.06774404 0.11268403
-0.033001658 -0.008323586 -0.1629765 -0.14503218 -0.06155041 0.1839745 -0.010229581 0.03696529
-0.17862704 -0.10744206 -0.21766587 0.0014128535 -0.16784425 0.08682132 0.12139181 -0.09151737
0.17214261 0.1839021 -0.17616174 -0.18943614 0.0652363 0.025101079 0.0013370065 0.12844872
0.14329141 -0.016217297 0.16822276 0.08903802 0.15811495 0.016797679 0.13281786 0.029398477
0.40074083 0.38174137 0.6955561 -0.35712114 0.10624137 -0.098476075 0.074527025 -0.39701697
-0.20129539 0.1369423 0.037026092 0.22436532 -0.057397023 0.09789277 0.8559692 0.047834758
-0.048118055 0.038411252 -0.16992582 -0.19304565 -0.17820473 -0.6709277 -0.052023232 -0.032511182
-0.22035766 -0.03253126 -0.15373866 0.25051183 -0.1621771 -0.34786448 -0.09718828 -0.060130004
-0.23553485 0.20692033 -0.35293332 -0.19806036 -0.23996006 -0.16225131 -0.18703668 -0.03302126
-0.5131475 -0.056402765 0.41629183 -0.011895349 -0.05643601 0.21266244 0.09619882 -0.25329572
-0.345712 0.03452538 0.119722 0.23992755 0.16345195 0.037906338 0.40852693 -0.48448828
-0.16785625 -0.03268767 -0.21735765 0.116099216 -0.21616945 -1.9625685 -0.6717845 1.0496619
0.09021951 -0.68671995 -0.95055866 0.05321526 0.08609857 -0.91595745 -0.5159974 0.13790768
0.6357279 -0.99572015 -0.8047343 2.048459 -1.0654367 -0.74267703 0.7547678 -2.1478808
1.4583881 0.81964713 0.82876754 -1.1843123 0.6044438 -0.71592 -0.26011494 0.54349345
-0.12749018 -1.0612608 0.103008114 -0.1162146 -0.03442598 -0.09900995 0.030972404 -0.19751444
-0.10797119 -0.056504894 -0.2180011 -0.15139368 -0.17375444 0.1965294 -0.00658919 -0.17535745
0.27670813 -0.0898042 -0.018622816 0.08502751 -0.055528942 0.024255643 -0.097003974 -0.08488512
0.0852615 -0.09780215 0.07835209 0.109635726 -0.11113748 -0.038304586 -0.21216825 0.00078798167
-0.06684781 0.048688956 -0.08108827 0.05526388 0.11660155 -0.2445503 -0.25778633 -0.3488228
-0.5516784 -0.08206943 -0.45198256 0.1702133 0.19733989 -0.04923371 0.14854039 -0.20407297
00000000: 3a76 85bd b8eb dd3d 3cb5 693d 1055 fe3d
00000010: 2052 9abb 503d b33d badc 023e 9844 e43d
00000020: f46f 83bd 9a53 1c3e b860 b33d 34bb 2dbd
00000030: 48bf 663d 3478 f33d dff6 88bd b0ef d43d
00000040: 6d50 bcbd 5d74 9dbd ecce 983d 707e 753c
00000050: a299 383e c455 59bd 400e d5bb 9042 3ebc
00000060: f052 86bc 503a dcbd 08c3 493d dccf 403d
00000070: e429 183d d2a2 8cbd 791e fdbc 3a0e 10bf
00000080: 9adf 63be dad2 843e 2c8d 4c3d e723 aebc
00000090: d06b aabe a663 073e 1521 dbbc cf15 17bf
000000a0: 403d 82bd 5a56 11bd bc41 c9bc a103 36be
000000b0: 1596 cebe 50e6 523d 1307 e3bd 8507 8cbe
000000c0: f4e2 1cbe 0bb5 c8be fc1c b33e 15be 813e
000000d0: 38d5 9ebd 3e7e 6dbe b7cf 963e 0709 90bd
000000e0: a0ba 133e ea3d 7d3e 0eef 5fbc d4db 5dbd
000000f0: a7a7 c0bd a46e ac3d f565 133d 775a f93c
00000100: c225 54bd 039f 0dbe c6f3 a3bb 6005 5d3e
00000110: 9041 9ebc 12ea 033c 1d89 0b3e c96f 3d3e
00000120: 6374 d63c eb0e adbd 9c73 a6be a80c b73d
00000130: bf73 e83d c1cb 55be 3914 113e 2976 0e3d
00000140: 5a3b 22be 66a8 8d3e caea f03d 1d59 033e
00000150: ae11 a73d 82c5 04be 63bd 8a3d e2c6 e63d
00000160: bf2c 07bd a65f 08bc 50e3 26be 5183 14be
00000170: 481c 7cbd d063 3c3e f999 27bc ea68 173d
00000180: 02ea 36be 950a dcbd cde3 5ebe 7f2f b93a
00000190: 5ddf 2bbe 60cf b13d 459c f83d 756d bbbd
000001a0: 2746 303e d550 3c3e be63 34be 8cfb 41be
000001b0: 9c9a 853d c7a0 cd3c 7e3e af3a 1088 033e
000001c0: fcba 123e 23da 84bc 9642 2c3e 9159 b63d
000001d0: e3e8 213e 499b 893c 6801 083e 13d5 f03c
000001e0: e72d cd3e 9b73 c33e f70f 323f 95d8 b6be
000001f0: 1395 d93d d3ad c9bd a0a1 983d cf45 cbbe
00000200: 6120 4ebe 9a3a 0c3e aca8 173d 06c0 653e
00000210: 2419 6bbd 017c c83d cc20 5b3f 61ee 433d
00000220: 7017 45bd 1e55 1d3d 0901 2ebe c2ad 45be
00000230: 4d7b 36be ebc1 2bbf 5016 55bd 722a 05bd
00000240: 70a5 61be 803f 05bd ab6d 1dbe 1643 803e
00000250: c111 26be 4b1b b2be a60a c7bd e14a 76bd
00000260: 0c30 71be ece2 533e adb3 b4be 56d0 4abe
00000270: 17b8 75be 3525 26be 8b86 3fbe 4d41 07bd
00000280: a25d 03bf 9606 67bd 3424 d53e b6e4 42bc
00000290: 7229 67bd 2fc4 593e e303 c53d faaf 81be
000002a0: 2a01 b1be 7c6a 0d3d cf30 f53d 91af 753e
000002b0: f35f 273e ad43 1b3d 712a d13e d90e f8be
000002c0: 82e2 2bbe 82e3 05bd 0193 5ebe 6dc5 ed3d
000002d0: 865b 5dbe 7235 fbbf 12fa 2bbf 525b 863f
000002e0: 02c5 b83d e1cc 2fbf d057 73bf 3ff8 593d
000002f0: 7254 b03d 307c 6abf 6818 04bf ac37 0d3e
00000300: 10bf 223f 84e7 7ebf 1103 4ebf f419 0340
00000310: 3b60 88bf 1520 3ebf 7638 413f e176 09c0
00000320: 76ac ba3f 65d4 513f 1c2a 543f 8c97 97bf
00000330: d4bc 1a3f 8846 37bf c92d 85be 6322 0b3f
00000340: c98c 02be 65d7 87bf ebf5 d23d ec01 eebd
00000350: 4202 0dbd bbc5 cabd d7b9 fd3c 3a41 4abe
00000360: 0020 ddbd ad71 67bd ae3b 5fbe f206 1bbe
00000370: afec 31be 013f 493e 22ea d7bb e790 33be
00000380: b0ac 8d3e 44eb b7bd e08e 98bc e722 ae3d
00000390: 5172 63bd c5b3 c63c 05aa c6bd 40d8 adbd
000003a0: 959d ae3d 7e4c c8bd 1077 a03d b288 e03d
000003b0: 0c9c e3bd 45e5 1cbd a242 59be 8e90 4e3a
000003c0: 81e7 88bd 126e 473d 9b11 a6bd 615c 623d
000003d0: cbcc ee3d 656b 7abe 92fc 83be e798 b2be
000003e0: cc3a 0dbf 0414 a8bd 426a e7be 654c 2e3e
000003f0: 7813 4a3e 49a9 49bd f91a 183e 81f8 50be

linear.0.bias f4 [30]
-0.16584988 -0.036258753 0.008944604 -0.07319783 0.14747351 -0.3685851 -0.060879424 0.090545096
-0.30507076 0.07366981 0.14749464 0.0015161876 0.19752511 -0.14989063 0.01486259 -0.15777445
-0.36815608 0.057593696 -0.12076875 -0.17676003 0.028809125 -0.022255642 0.07339719 -0.20133516
0.2043742 -0.11978354 -0.5060223 -0.09170471 0.10768359 0.04391726
00000000: 8dd4 29be 0f84 14bd 638c 123c bee8 95bd
00000010: 4c03 173e 30b7 bcbe b45c 79bd b56f b93d
00000020: 3c32 9cbe 33e0 963d d608 173e d0ba c63a
00000030: 0644 4a3e ee7c 19be 3882 733c a08f 21be
00000040: f47e bcbe 5ee7 6b3d 9b55 f7bd 9500 35be
00000050: 1d01 ec3c 7751 b6bc 4451 963d ce2a 4ebe
00000060: 7847 513e 1351 f5bd ad8a 01bf aecf bbbd
00000070: 3789 dc3d 96e2 333d

linear.2.weight f4 [7, 30]
-0.019797742 -0.15222646 0.009545529 0.0098811155 -0.13291566 -0.08803271 -1.9552903 0.11346227
-0.009702318 -0.1037527 0.21225376 0.13635285 0.21081512 0.21235773 0.55453366 -0.04172854
-0.12785168 -0.07099162 0.07925027 -0.0974441 -0.052226037 0.149894 0.10483992 0.009583206
-0.15397684 -0.7096875 -0.0003824578 -0.0017743207 0.079907015 -0.00063607004 0.09691629 -0.7000259
-0.17690703 0.12292248 0.6639444 -0.18356366 -2.3296652 0.0703819 0.05281038 -0.12095925
-0.94881743 -0.065989055 0.24112947 0.054617368 -0.9305894 0.060707957 0.07361699 -0.025885815
0.012781019 -0.043110564 0.1512693 0.19052246 0.016183143 -0.058724802 -0.5301067 -1.2848101
-0.07274541 0.049604658 -0.09161516 -0.010405577 -0.0070177615 -0.34874257 0.22844988 0.13089167
-1.2730894 -0.47346723 0.6727669 -0.1268714 0.2213978 -0.018887553 0.781857 0.1563835
-0.07091017 0.225127 -0.53139544 -0.14795674 -0.1422169 0.13783105 0.24253267 0.046136737
0.031103544 0.09545088 0.037424274 -0.005197685 0.24763256 0.73847127 -0.018907472 0.2286399
0.08643905 0.17134607 0.038233876 0.77845985 -0.10396544 0.03306162 0.10114229 -0.051848285
0.90119845 -0.04565131 -0.02752701 0.14721063 -0.98438036 -0.029670913 0.12694605 0.10794523
0.42310977 0.133982 -0.085886315 -0.015200399 0.024112187 0.15255263 0.1343705 -0.08476703
0.021884587 -0.036279384 0.7099532 0.55946565 -0.23985116 -0.063910894 -0.07540241 -0.09734227
0.061845347 -0.6056038 -0.016508386 0.012043654 0.13385238 -0.2823803 1.0558314 0.10924502
0.10775716 -0.15309624 0.5279292 0.048853982 0.0054031643 0.031975538 -1.7143312 -0.026020199
-0.15774336 -0.10450257 0.07386158 0.13691536 -0.07910949 0.07400015 0.05603354 0.003000763
-1.5718379 -1.9949082 -0.0112029975 -0.093922 0.037936587 -0.0050273445 -0.12736957 0.025312807
-0.015131543 0.017114483 -0.4619726 -0.07911289 -0.6182756 -0.13013047 0.021047207 0.091286264
0.6465625 0.12992647 -0.08427902 -0.009124205 -0.06443807 -0.084458575 -0.10053228 -0.075332224
-0.154036 -0.11214281 -0.105313286 -0.115063734 -0.09940616 0.16954646 0.061064016 -0.15099487
-0.29558134 -0.016159425 -0.11473356 -0.14672753 0.12290284 0.54368067 0.02534997 0.2146064
-0.39843392 0.4414411 0.5213362 -0.038996227 0.5671355 -0.063787885 -0.112393476 0.13926318
0.02738666 -0.07777599 0.34246698 -0.122064516 0.30272305 0.18922397 0.1916584 0.04139176
-0.037829846 0.07016204 -0.06323563 0.15794793 0.35046008 0.96562797 -0.068329714 -0.044092614
0.06077253 -0.08028191
00000000: e02e a2bc 41e1 1bbe da64 1c3c 67e4 213c
00000010: 0b1b 08be 7e4a b4bd f446 fabf e85e e83d
00000020: 79f6 1ebc 4c7c d4bd 0d59 593e 15a0 0b3e
00000030: ebdf 573e 4e74 593e ebf5 0d3f 8ceb 2abd
00000040: 8deb 02be 0e64 91bd f74d a23d c690 c7bd
00000050: f8ea 55bd d07d 193e 50b6 d63d e102 1d3c
00000060: 1bac 1dbe 14ae 35bf 9e84 c8b9 5390 e8ba
00000070: 4aa6 a33d f0bd 26ba 0c7c c63d e634 33bf
00000080: 1e27 35be c8be fb3d 43f8 293f 1df8 3bbe
00000090: 3c19 15c0 6324 903d b24f 583d 7cb9 f7bd
000000a0: b3e5 72bf 4525 87bd a5ea 763e 76b6 5f3d
000000b0: 1b3b 6ebf e8a8 783d 81c4 963d 7d0e d4bc
000000c0: 7b67 513c b494 30bd 57e6 1a3e 5218 433e
000000d0: 8392 843c 6b89 70bd 13b5 07bf a874 a4bf
000000e0: 8cfb 94bd 412e 4b3d bba0 bbbd 277c 2abc
000000f0: 40f5 e5bb 638e b2be c4ee 693e 7708 063e
00000100: 98f4 a2bf 4c6a f2be 743a 2c3f 94ea 01be
00000110: 1bb6 623e 12ba 9abc c827 483f ff22 203e
00000120: 5a39 91bd b187 663e 8809 08bf f981 17be
00000130: 4fa1 11be 9523 0d3e 7c5a 783e e0f9 3c3d
00000140: dccc fe3c c07b c33d 324a 193d 5851 aabb
00000150: 6493 7d3e 740c 3d3f d8e3 9abc 9420 6a3e
00000160: f506 b13d 5875 2f3e 209b 1c3d 2549 473f
00000170: d5eb d4bd 9f6b 073d b023 cf3d de5e 54bd
00000180: f1b4 663f defc 3abd 5380 e1bc 62be 163e
00000190: 5a00 7cbf 6a10 f3bc 25fe 013e 6412 dd3d
000001a0: d8a1 d83e 9432 093e 2ae5 afbd 180b 79bc
000001b0: ec86 c53c c236 1c3e 6c98 093e 569a adbd
000001c0: 4e47 b33c b199 14bd 7ebf 353f 2439 0f3f
000001d0: 8b9b 75be b7e3 82bd 946c 9abd 625b c7bd
000001e0: 8c51 7d3d da08 1bbf 983c 87bc bf52 453c
000001f0: 9910 093e 2794 90be 7c25 873f dabb df3d
00000200: c9af dc3d 43c5 1cbe 5e26 073f 1d1b 483d
00000210: 070d b13b c8f8 023d 346f dbbf 5028 d5bc
00000220: 7a87 21be 7205 d6bd bd44 973d 8a33 0c3e
00000230: 2804 a2bd 648d 973d 6d83 653d 73a8 443b
00000240: fc31 c9bf 2759 ffbf c78c 37bc 2d5a c0bd
00000250: 6563 1b3d 6cbc a4bb 2b6d 02be ce5c cf3c
00000260: 4bea 77bc ac33 8c3c ac87 ecbe f005 a2bd
00000270: 4f47 1ebf ec40 05be 316b ac3c 4bf4 ba3d
00000280: 1f85 253f 720b 053e 7b9a acbd b17d 15bc
00000290: 1bf8 83bd 9ef8 acbd dee3 cdbd c847 9abd
000002a0: 9dbb 1dbe 21ab e5bd 7eae d7bd 89a6 ebbd
000002b0: 7595 cbbd 969d 2d3e 431e 7a3d 669e 1abe
000002c0: 7056 97be c560 84bc 6ef9 eabd be3f 16be
000002d0: 7cb4 fb3d a82e 0b3f beaa cf3c c8c1 5b3e
000002e0: 88ff cbbe 9104 e23e 4a76 053f 82ba 1fbd
000002f0: cb2f 113f 39a3 82bd 8d2e e6bd 029b 0e3e
00000300: fd59 e03c 0549 9fbd d557 af3e f6fc f9bd
00000310: 84fe 9a3e eec3 413e 1a42 443e 688a 293d
00000320: 78f3 1abd 1eb1 8f3d af81 81bd 1abd 213e
00000330: 816f b33e 6533 773f 73f0 8bbd 759a 34bd
00000340: 9eec 783d d86a a4bd

linear.2.bias f4 [7]
0.037568077 0.07646967 -0.17498773 0.041684072 0.15053605 0.047172792 -0.063120656
00000000: fce0 193d 219c 9c3d fc2f 33be ebbc 2a3d
00000010: 1f26 1a3e 4238 413d 6745 81bd
