src/k_clustering/output/cora/model.pkl (torch, 311727 bytes, 8 tensors)

conv0.weight f4 [1433, 50]
000000 03 bb 98 bd 70 45 0d 3f a9 f3 96 3c 69 25 29 be
       -0.07457545 0.5518408 0.018426733 -0.16518177
000010 af bf 76 3d ce 00 f0 be 64 d8 ee bd 35 29 a9 3e
       0.060241397 -0.46875614 -0.11662367 0.3303925
000020 55 f3 17 3d 9a f0 64 3e 0f b4 cf 3e de 05 a9 bd
       0.037097294 0.22357407 0.4056706 -0.08253072
000030 c7 71 01 3d a2 03 21 3f 2f 59 29 3d 3d dc 15 be
       0.031602647 0.6289617 0.041344818 -0.14634795
000040 18 f3 90 3e f7 8b 96 be 5f 7a ca 3e a8 c9 b1 be
       0.28310466 -0.2940366 0.39546487 -0.34724164
000050 4a b5 d2 be 1e 4b 0c bd a2 8c 69 bf fd a4 c0 be
       -0.41153938 -0.034251325 -0.91230214 -0.37625876
000060 0d fe a1 bd 7a 05 e8 3d 5e c1 10 be 4e df 7b bd
       -0.079097845 0.113291696 -0.14136264 -0.061492257
000070 6f e2 8b be 3c ef 68 3e 81 8c 3c be b9 3b bd bd
       -0.27321193 0.2274751 -0.18412973 -0.09239907
000080 f5 bc a3 3e 25 79 21 3e 66 f0 54 bd 75 8c 39 be
       0.319801 0.15768869 -0.051987074 -0.18119986
000090 00 f4 95 be 96 e0 7e 3e 9b c2 15 bd 6a a1 f6 bc
       -0.2928772 0.2489036 -0.036562543 -0.030106265
0000a0 d7 bb 0f be 68 cc 13 bd e8 f2 95 bd 3b cc 17 3e
       -0.14036499 -0.03608361 -0.07321721 0.14824001
0000b0 09 f5 ba be 9c 94 82 bd 9c f6 0b bc e4 69 1d bb
       -0.36515072 -0.06376001 -0.008542683 -0.0024019415
0000c0 cd 75 b5 3d 57 68 ea be 94 43 50 be 5d d4 f7 3d
       0.08860359 -0.4578273 -0.20338279 0.12101052
0000d0 26 08 50 be 6b 4b 26 be 31 38 35 3d 0a be 27 bd
       -0.20315608 -0.16239707 0.04424304 -0.04095272
0000e0 01 11 74 be 3d 2c da 3d ee bf ca 3b 1f c6 c1 3d
       -0.23834611 0.10652969 0.0061874306 0.09461617
0000f0 a8 41 68 bd 00 8a dd 3c 5c 13 cc 3e 65 28 44 bd
       -0.05670324 0.027043343 0.3985852 -0.047890086
000100 99 d7 c1 be 58 66 b4 3e 8e e3 a2 bd f2 fa 0c be
       -0.378598 0.35234332 -0.07953559 -0.13767603
000110 a4 e7 88 bc 20 41 e8 3d 98 e1 a8 be b8 e3 9f 3d
       -0.016712017 0.113405466 -0.32984614 0.07807106
000120 01 c4 9d bf 09 e0 b8 bd fa 0c 34 3d 5d ca 4f 3d
       -1.2325441 -0.09027106 0.043957688 0.050730098
000130 bd 49 ba 3e ba 64 c3 be c3 d9 ba 3c 63 cd fa 3d
       0.36384383 -0.38162786 0.022808915 0.12246206
000140 66 2b 00 bf e0 77 a4 be d3 27 99 3e f0 49 4f be
       -0.5006622 -0.32122707 0.29913196 -0.20243049
000150 a5 68 46 bf 25 c0 97 3d 28 53 e0 bd 1e 9b 65 3e
       -0.77503425 0.074096955 -0.10953361 0.22422454
000160 82 b4 90 3e ee d1 a9 3d c5 03 0c bf 88 8a 0e be
       0.28262717 0.08291994 -0.5469325 -0.13920033
000170 bb 96 8e 3e cb 0b 8b be 12 72 9a bd 19 3b dd 3d
       0.27849373 -0.27157435 -0.075412884 0.108022876
000180 8b 1c 93 be 94 0b 2b 3e e9 94 1f 3d f1 0b af be
       -0.28732714 0.16703635 0.03896037 -0.34188798
000190 66 31 da bc 0d eb 00 bc 36 5e 0a 3e 29 e7 49 3d
       -0.026634883 -0.0078685405 0.13512501 0.049292717
0001a0 0c 31 34 be 6c 06 45 3d ad 3b b5 3d d9 09 03 be
       -0.17596835 0.048101828 0.08849273 -0.12796725
0001b0 17 5d dc be 31 99 cf 3d 6c cf 7b be eb 4f 02 3e
       -0.43039772 0.10136641 -0.24590844 0.12725799
0001c0 25 c0 1d bb 57 af 5a be e5 8e 01 3e 1b c4 17 bc
       -0.0024070826 -0.2135595 0.12652166 -0.009263064
0001d0 2f 73 4c be 90 e1 1a be ae 0e 94 be f5 d7 4f be
       -0.19965814 -0.15125108 -0.2891745 -0.20297225
0001e0 cc d8 3c be 6c ec 12 3d 37 66 e9 3e c2 ba 97 bd
       -0.18442076 0.03587 0.45585796 -0.07408668
0001f0 b2 09 b9 be a8 ef c8 be 95 18 49 bc c6 97 84 3d
       -0.3614021 -0.39245343 -0.012273927 0.06474261
000200 c7 24 0f bf f8 f3 20 be f0 d5 14 be 09 99 58 3d
       -0.5591549 -0.15718067 -0.14534736 0.05288032
000210 f9 c4 dd bd e9 e6 c1 3d 97 0b cc 3e da 37 b9 38
       -0.10828585 0.09467871 0.39852592 8.8318906e-05
000220 02 73 40 bd 31 75 26 be 93 87 9f bd 14 60 9a be
       -0.04698468 -0.16255642 -0.077895306 -0.30151427
000230 c2 f3 9b be a7 d4 8f bc 1b 86 fe bd 09 ba 19 3e
       -0.3045941 -0.017557455 -0.12427922 0.15012373
000240 98 a2 c9 be 26 63 a8 3d da 38 f1 be b9 64 a3 be
       -0.39381862 0.08222036 -0.47113687 -0.31912783
000250 76 6b b9 bd b8 19 b8 be 4f f3 29 3d 7e 64 a0 bc
       -0.090537 -0.35957122 0.041491803 -0.019579168
000260 34 fc 31 bd 5d 21 13 be 38 9d 59 3e 2d 90 3f 3e
       -0.04345341 -0.14368196 0.2125138 0.18707342
000270 c6 2e 9f be 7d bb 77 be f3 39 54 be 87 9d 6b be
       -0.31090373 -0.24192615 -0.20725231 -0.2300931
000280 29 2f 7f 3e 73 7d 79 3d dc 28 3c be 49 eb 7a 3e
       0.24920334 0.060910653 -0.18374962 0.24503817
000290 6b c5 c8 3d b7 1f 2d 3e b0 5b 77 be 4a fa 20 bd
       0.098032795 0.1690663 -0.2415607 -0.039301194
0002a0 cb e9 70 be 28 6b 7f be e7 ec b4 3e cb aa 02 bc
       -0.23526685 -0.2494322 0.35336992 -0.0079752905
0002b0 30 79 f0 3e a9 72 ac 3d 2c ac 06 3f f2 dd 8d be
       0.4696746 0.08420307 0.52606463 -0.27708393
0002c0 24 df de 3d 37 a8 d2 3d 5e 93 0e bf f7 6d 75 be
       0.108824044 0.10285991 -0.55693614 -0.2396773
0002d0 d4 87 2b be 73 9d 40 bd 21 a8 62 bd c0 22 94 bd
       -0.16751033 -0.047025155 -0.05533612 -0.072331905
0002e0 b1 30 f8 3e 0e 11 f1 be c0 21 bf bd 95 23 6d 3d
       0.4847465 -0.47083324 -0.09332609 0.05789526
0002f0 ed 11 2b 3b 02 f7 a9 be 32 72 ce be 09 b4 93 bd
       0.0026103214 -0.33196265 -0.403215 -0.07212073
000300 7a 03 fc 3e 50 32 81 3d e2 cd 9f 3e cf 18 96 3e
       0.49221402 0.063084245 0.31211764 0.29315802
000310 71 47 0c be 69 4a 16 be 5c 7e ee bd c3 b7 f3 be
       -0.13699128 -0.14676823 -0.11645195 -0.47601137
000320 7d 73 aa 3c 8e 9b be bd e6 91 c7 3d d2 80 04 3c
       0.020807022 -0.093070135 0.09744625 0.008087354
000330 9c 96 04 bf 22 d3 a2 be 5b 20 41 3e 50 77 b0 3e
       -0.5179231 -0.31801707 0.18859999 0.34466028
000340 7a 59 a1 be 46 7e 25 bd 52 14 1e bf fd 7a ae 3e
       -0.31513578 -0.040403627 -0.61749756 0.34078208
000350 e2 bd dc 3e 26 09 09 3e dc d0 cf 3d fd 95 ab be
       0.4311362 0.13382396 0.10147259 -0.3351287
000360 dd 1a f3 3c c4 97 99 3d 1e dd 0d be e5 2e b2 3e
       0.029675895 0.0749965 -0.13853881 0.34801403
000370 6b 90 47 be 49 36 85 3e 8c fd 74 bd a5 35 67 3e
       -0.19488685 0.2601798 -0.059812114 0.22579058
000380 f1 a9 46 bd 6f a9 e3 be aa 65 3a bf 63 79 e9 bd
       -0.048501913 -0.44465205 -0.7281138 -0.11400106
000390 08 97 c0 be 4e e4 02 bc ab 40 78 3e 61 de fd bd
       -0.37615228 -0.007989002 0.24243419 -0.12395931
0003a0 a9 ec da 3e 96 06 b7 bd f3 3b fb be c2 bd eb be
       0.42758682 -0.08936803 -0.49069175 -0.4604321
0003b0 44 26 94 bd 0a ac 12 3f 50 2a 50 3e cb 91 6d 3e
       -0.07233861 0.5729376 0.20328641 0.23200147
0003c0 db 0c 88 bc 74 15 5c be 25 82 3b bf 72 f6 86 3d
       -0.016607692 -0.21492559 -0.7324546 0.065899745
0003d0 25 67 ce be d4 c5 95 be 41 40 9c be a3 46 aa 3e
       -0.40313068 -0.29252493 -0.30517772 0.33257017
0003e0 e3 1c be 3e 7d 34 14 bf 1e 7a e1 be 0b d9 4b 3e
       0.37131414 -0.5789259 -0.4403848 0.19907014
0003f0 c5 52 88 3d bc 6b 29 3d dc 91 bc bd 01 f9 99 be
       0.06656412 0.04136251 -0.09207508 -0.30072787

conv0.bias f4 [50]
000000 06 e6 45 3f a6 15 e2 3d 79 9f 83 3e b6 4c 26 3f
       0.7730411 0.11039285 0.25707605 0.649608
000010 2e d4 51 3f 3d 3e 2d 3f 63 89 96 3e 36 28 eb bd
       0.81964386 0.67673093 0.29401693 -0.11482279
000020 4d 3e a5 3d 77 86 c2 3e 92 9b 06 3f 10 c1 b6 3c
       0.080685236 0.37993214 0.5258113 0.022308856
000030 4d fc 4e 3e 0b 44 52 3e 71 e3 19 3f 0a a9 06 3d
       0.20213433 0.20533769 0.60112673 0.032876052
000040 2f d6 28 3f 87 06 ca 3e 5e 93 9f bd 32 bb 50 3f
       0.6595182 0.39458105 -0.0779178 0.8153564
000050 ca 2c 88 3e de 87 28 3f 53 ac 1a 3f 54 43 67 3d
       0.2659667 0.65832317 0.60419196 0.056460693
000060 67 0d 45 3f 11 0f 0a 3f 21 fe 39 3f 02 3a f0 3e
       0.76973575 0.5392924 0.72653395 0.46919256
000070 f3 b5 30 3f db 84 a7 3c 36 9b c6 3e 64 be 35 3f
       0.6902763 0.020449093 0.38790292 0.7099364
000080 e6 ed 33 be 07 61 f1 3e 84 15 8a 3e 9f be 13 3f
       -0.1757122 0.47144338 0.2696954 0.5771274
000090 07 f0 4f 3f 69 e0 4d be 1a 7f 54 3f 2d 89 27 3e
       0.8122563 -0.20105137 0.8300644 0.16360922
0000a0 98 be 29 3f 1a 3f 41 3e d4 c9 4f 3f 3c 8e b4 3e
       0.6630645 0.18871728 0.8116734 0.35264766
0000b0 ff 7f d0 3e cf db cc 3e 45 86 c6 3e c3 1c e6 3e
       0.40722653 0.4001145 0.38774315 0.44943818
0000c0 b6 8c 25 3f 26 22 a2 3e
       0.6466783 0.31666678

conv1.weight f4 [50, 50]
000000 cc 4d c8 be f5 49 9b be 70 6b 98 be 9b 92 13 3f
       -0.39121854 -0.30329862 -0.29769468 0.5764558
000010 95 f4 4c 3e a4 a2 cb be c9 e9 f5 3d dc 1a 3f 3d
       0.20015176 -0.39772522 0.120074816 0.046656474
000020 17 a7 8f be 1d cb 0b 3f d2 3e d3 3e 13 69 df be
       -0.28057167 0.546068 0.41258866 -0.43634853
000030 f1 b1 71 be 51 e9 07 3f 96 cc 22 3e 21 99 bb be
       -0.23603036 0.5309039 0.15898356 -0.36640266
000040 2c a0 15 3e 13 c7 88 3d f9 44 b0 bd b5 fe a5 be
       0.14611882 0.066785954 -0.086069055 -0.3242089
000050 21 eb 2c 3e 0c 06 40 3f 90 3d a6 be 5a 1d 4d 3e
       0.1688657 0.75009227 -0.32468843 0.20030728
000060 7a a4 fb 3e 44 5e 29 3f 5a ae 07 3f 67 0a 61 3e
       0.49148923 0.6615946 0.53000414 0.21976624
000070 82 39 40 3f fe 55 85 bc 99 03 8d 3d c7 ff 1c bc
       0.7508775 -0.016276356 0.06885452 -0.009582466
000080 a4 7e d9 3e 5b ed b6 3e 54 e2 0c be 75 de 6c 3e
       0.42479432 0.35727963 -0.13758212 0.23131736
000090 88 47 f0 be 37 c3 7a bd 13 16 b1 3e 39 ae dd 3e
       -0.46929574 -0.061221328 0.34587154 0.43296984
0000a0 ab b8 d5 be a3 59 69 3e a4 75 fe bd 98 9a 03 3f
       -0.41742453 0.227881 -0.12424782 0.51407766
0000b0 38 6d c6 3e 46 81 af 3e 64 00 92 3d 27 d6 33 3f
       0.38755202 0.34278315 0.07128981 0.70248646
0000c0 94 36 98 bc 46 15 62 3e a5 10 2c 3e 54 75 13 3f
       -0.018580712 0.22078428 0.16803224 0.57600904
0000d0 b6 0d dc be 7c 9a 26 be aa 88 0a 3f c2 ce e5 3e
       -0.4297921 -0.16269869 0.5411478 0.44884306
0000e0 31 10 fb 3e ff 1f 98 be e3 b9 b3 3e ec 72 80 be
       0.4903579 -0.2971191 0.35102758 -0.25087678
0000f0 11 f1 01 bf 4f 88 d0 3e 33 39 cb be 52 52 44 bf
       -0.50758463 0.40728995 -0.39692077 -0.7668811
000100 d3 19 ef 3d ad aa e0 bd 4c 11 b2 be 9c c3 17 3f
       0.116748475 -0.10970054 -0.3477882 0.5928285
000110 79 d2 22 3f 6c 1f d7 3e 90 c2 30 3d 29 ec 22 bf
       0.63602406 0.4201616 0.0431543 -0.636416
000120 fd 32 8f be 53 30 0e be b9 62 0e bf d3 c1 38 bf
       -0.27968588 -0.13885622 -0.5561939 -0.7217075
000130 26 80 0e bf 0f e5 14 bf ab a4 3c bf fa 7c 98 be
       -0.5566429 -0.58162016 -0.73688763 -0.2978285
000140 8b 7c d7 bd 7a 4d 16 bf 8a ae 9e be cd 64 c5 be
       -0.105218016 -0.5871197 -0.30992538 -0.38553467
000150 2e d9 6f 3d cc da 8a be 3f 14 35 3f 7e ce d8 be
       0.058556728 -0.27120054 0.7073402 -0.4234504
000160 44 54 16 bf fe ab a7 be 5a bf 9c be b5 a8 c9 be
       -0.5872233 -0.32748407 -0.3061474 -0.39386526
000170 28 8d 1b bf f7 cd 36 bf ba 03 61 3e 8a d8 30 bf
       -0.6076226 -0.7140803 0.21974078 -0.6908041
000180 a6 ae 95 3e 66 5b 5d bf 16 b8 a2 bd 8e 5f 1d bf
       0.2923481 -0.8646759 -0.07945268 -0.6147393
000190 75 dd b0 be 83 25 f8 be da b1 dc 3e 7c 06 81 3e
       -0.34543958 -0.4846612 0.4310444 0.2520026
0001a0 a3 09 dd be 87 6d 83 be 36 64 8d be 72 fe 74 3e
       -0.43171415 -0.256695 -0.27615517 0.23925188
0001b0 92 5a bf be c4 75 1c 3e 70 e2 95 3e e6 76 b6 be
       -0.37373787 0.15279299 0.2927432 -0.35637587
0001c0 31 3e a2 3e 34 ed a6 3c 94 d4 cf be bd cc e9 bd
       0.31688073 0.02037678 -0.40591872 -0.11416004
0001d0 14 0b 3f 3e 67 a8 72 be b0 63 f1 be 1e 96 9a be
       0.1865657 -0.23697053 -0.47146368 -0.30192655
0001e0 01 1f 5a be 5c 0f 5b 3e f3 6e 0f 3f f6 71 46 3e
       -0.2130089 0.21392578 0.5602867 0.1937941
0001f0 1d a6 af 3e fa 64 c5 3e 79 c0 5e 3e 54 6d ad 3e
       0.34306422 0.38553602 0.2175311 0.33872473
000200 c5 11 b3 3e 23 2f 76 3e 38 db a0 be ba 07 d6 3e
       0.34974495 0.24041419 -0.3141725 0.4180277
000210 33 64 6b bb 95 3e c0 3e cd 95 92 be 69 b2 77 be
       -0.0035917878 0.37547746 -0.28629914 -0.24189152
000220 25 6a bd be a5 1a 67 3e 2c c5 c5 3e 00 cd b0 3e
       -0.36995044 0.22568758 0.38626993 0.34531403
000230 5c 40 57 3e 2d ed 13 be 11 3d a3 3e 37 b5 e8 3e
       0.21020645 -0.14445944 0.31882527 0.45450756
000240 bb c4 bc be 49 44 18 3e 7d ec 0a bf 14 eb b4 3e
       -0.36868843 0.14869799 -0.542671 0.353356
000250 68 5c 40 be c9 45 05 3f ff 7e 60 3e 3a fd 7e bd
       -0.1878525 0.5205961 0.21923445 -0.062253214
000260 59 c3 14 3e 48 8f fc bc eb b0 12 be 10 6b a4 bd
       0.14527644 -0.03083004 -0.14325301 -0.08028233
000270 38 25 4c 3c c6 52 85 be 27 f2 a5 3c 05 e2 a8 be
       0.0124600455 -0.26039714 0.020257069 -0.3298494
000280 c4 e3 c8 3d e2 e1 0d bd 33 0c c2 3d 85 04 44 3d
       0.09809068 -0.034639247 0.09474983 0.047855873
000290 23 5a 8c be 67 59 23 3e af 23 4e 3e 83 2e ee 3d
       -0.2741252 0.15952073 0.201308 0.11629965
0002a0 7d 98 0a 3e 94 32 c5 3e f2 a5 35 be e6 a8 24 3e
       0.13534732 0.3851515 -0.17739084 0.16080055
0002b0 7f 9d fa 3d b3 39 f1 bd 9f 09 e1 3e 8a 69 ef 3c
       0.12237071 -0.117785834 0.43952653 0.02922513
0002c0 e4 a6 eb be 7b b7 79 3e 87 19 7d 3e f4 c4 40 3e
       -0.46025765 0.24386398 0.24716769 0.18825132
0002d0 54 eb c2 3e b9 ee 30 3d d7 1f b7 3d 47 a8 a7 be
       0.38070166 0.043196414 0.0894162 -0.32745573
0002e0 7d a7 97 3e d9 2c b2 3e ea 9b 72 be ad c5 ca bc
       0.2961997 0.3479984 -0.23692289 -0.024752462
0002f0 39 6e 10 3e 46 e2 7f be f8 c7 9b be c5 35 97 3e
       0.14104547 -0.2498866 -0.30426002 0.2953321
000300 06 53 ea be 8f 99 88 3e ff 2d 49 3e 7a ad 3a 3d
       -0.45766467 0.26679656 0.19646452 0.045575596
000310 45 d2 8d 3e 53 44 6b 3e 5c de a0 3e 10 57 8c bd
       0.27699485 0.22975282 0.31419647 -0.06852543
000320 4d 77 1c bf 1e 93 98 3e 30 47 3e bf 0e 99 1f 3f
       -0.6111954 0.29799742 -0.74327374 0.6234292
000330 80 fc b7 3d e4 f9 f7 be 39 35 ec 3e 96 eb ac 3d
       0.089837074 -0.4843284 0.46134356 0.08443372
000340 2c 5e 4e 3e 33 e5 64 3d dd bb 58 3e b6 ab 5f bf
       0.20153111 0.055882644 0.21165414 -0.87371385
000350 d5 94 2e bf f7 59 b7 3e c7 89 2d 3f 60 b6 26 bf
       -0.6819585 0.35810825 0.67788357 -0.6512203
000360 68 4e f8 be 70 79 d7 3e 62 e1 9d 3d 7e 8c 2d 3e
       -0.4849732 0.42084837 0.07709004 0.16948125
000370 35 cd bd 3e 97 97 04 3f 5e e1 81 be 27 1f 95 be
       0.37070623 0.5179381 -0.25367254 -0.2912533
000380 2c 49 1a 3f 6a 8f e5 3c d1 e5 e4 3e 60 35 e6 bd
       0.602679 0.028022487 0.44706586 -0.11240649
000390 56 d2 1e 3f c8 49 4d bf e1 7f 35 3f ee c6 78 be
       0.620397 -0.80190706 0.7089825 -0.24294636
0003a0 eb df 9a bd 14 fc 2a 3d 6b ae 75 3e a1 b4 c6 3e
       -0.0756224 0.041744307 0.23992316 0.38809684
0003b0 1e 16 fd be eb 13 44 3e 9f ef be be 25 6f 91 3e
       -0.49430937 0.19148223 -0.3729219 0.2840511
0003c0 f1 fd 89 bf 82 34 91 be 57 48 2d bf 98 61 55 3e
       -1.0780622 -0.28360373 -0.67688507 0.2083801
0003d0 62 63 97 3e 1f c5 b3 3c 6c 8a da 3d ba 56 4c 3e
       0.2956801 0.02194458 0.10670933 0.19954959
0003e0 66 1c ba 3e f4 2a 1e bf c6 cc 0b 3d bb 16 b8 bd
       0.3634979 -0.6178429 0.034130834 -0.089887105
0003f0 71 82 9b be 0c 7e 5d 3d 47 24 fd 3e 73 2a 16 bf
       -0.30372956 0.054075286 0.4944174 -0.5865852

conv1.bias f4 [50]
000000 b0 92 f6 3e 51 e5 07 3f 6b 1e 01 3f 0a 46 19 3e
       0.4815879 0.53084284 0.5043704 0.14968124
000010 63 c6 92 3e 5d 34 2d 3f d6 0d 72 3b c8 6b d1 3e
       0.28666982 0.67658025 0.0036934516 0.40902543
000020 94 d1 07 3f 2f f6 58 3f 8e 0b 49 3e 58 db 07 3f
       0.53054166 0.84750646 0.19633314 0.53069067
000030 66 7a 6c 3f ea b5 59 3e 32 1f 32 3f f0 20 e9 3e
       0.92374265 0.21260801 0.6957885 0.45532942
000040 11 d8 a7 3e 0f 80 15 3f a6 bb 84 3e 78 43 23 3f
       0.32782033 0.58398527 0.25924414 0.63774824
000050 b9 88 4a 3d ce bf d1 3e 0a 57 4f 3e eb 19 36 3f
       0.049446795 0.40966648 0.20248047 0.711333
000060 bc 7d 7b 3d 79 a4 28 3d 64 b6 c4 3e 3a a8 de 3d
       0.061399207 0.04117248 0.38420403 0.108719304
000070 46 9d 4e 3d 4e ff 29 3f a0 da bc 3e cd 41 3b 3f
       0.050442956 0.6640519 0.36885548 0.7314728
000080 56 fd 51 3e bf 73 a1 3b 9a 60 b3 3e b9 b8 80 3e
       0.20506796 0.004927128 0.3503464 0.25140932
000090 60 9e 4a 3f 91 da d7 3e 96 b2 41 3f 4d cf fa 3e
       0.7914791 0.4215894 0.75663126 0.48986283
0000a0 a7 93 71 3f 43 c4 31 3f 1e 6e f0 3e d1 df 4e 3e
       0.94365925 0.69440097 0.46959013 0.20202567
0000b0 f5 95 05 3f b4 18 40 3f 2f 09 b4 3d 18 d6 53 3f
       0.5218194 0.75037694 0.08790814 0.82748556
0000c0 04 f7 46 3f 7a db f0 3d
       0.77720666 0.11760612

linear.0.weight f4 [50, 50]
000000 ad 33 ea bd 66 bb 9b 3c bc 6e a0 bd 7b 9b 34 3b
       -0.114356376 0.019010257 -0.07833621 0.0027558494
000010 4c 2d 22 bd ee f4 c9 bd 22 ef 05 3d 49 e9 d0 3d
       -0.03959398 -0.0986117 0.032698758 0.102007456
000020 9a 65 3b bc f9 33 a9 3d 20 8b 2e bd b9 4b ad bc
       -0.011437798 0.08261866 -0.04261315 -0.021154271
000030 b2 28 5c 3d 96 d3 2c 3d 84 2f 2b bd b2 f2 13 3c
       0.053749748 0.04219397 -0.04179336 0.009030031
000040 f4 26 a4 bd ae 8f dd 3d a9 52 44 bd b4 59 1b 3d
       -0.08015242 0.1081842 -0.047930393 0.037927344
000050 e8 2d 29 bc 7b 1b dc bd a6 3e a5 bd ca 2e a6 bc
       -0.010325886 -0.10747429 -0.0806859 -0.020285983
000060 85 f5 a4 bd 4b 70 87 3d ac 82 b1 bd 5d f6 0a be
       -0.08054642 0.06613215 -0.08667502 -0.13570543
000070 1d cd 1f be f8 6b e4 3d 15 7d 8c 3d 66 2f c0 3d
       -0.15605588 0.11153406 0.06859795 0.093840405
000080 cd cf 33 3d 2c 6b ff 3d 8a 07 52 bd 75 01 3a bd
       0.043899346 0.12471613 -0.05127672 -0.045411546
000090 d3 23 ea 3d 19 36 b2 bc 5f cf 17 3d bf a3 c8 bd
       0.11432614 -0.021754311 0.037063 -0.09796857
0000a0 d6 90 de bd 9d 48 14 be 44 5e d1 bc f9 0c c7 bc
       -0.10867469 -0.14480825 -0.025557645 -0.024298178
0000b0 cb af d3 bd 24 71 06 bc 52 8a c2 bd 3f 11 52 3c
       -0.10336264 -0.008205686 -0.09499039 0.012821495
0000c0 64 8a ad 3d 94 f6 1e 3a 00 00 b1 3e 8e db 31 bf
       0.084736615 0.00060639647 0.34570312 -0.6947564
0000d0 89 79 c0 3e eb d8 dc be bc cb 32 bf 5e c8 31 3d
       0.37592724 -0.43134245 -0.69842124 0.043403976
0000e0 48 36 0a be bb 08 a7 be 77 11 4d bf ca d2 b4 be
       -0.13497269 -0.32623848 -0.80104774 -0.3531707
0000f0 26 11 1a 3f 7e fa 9a 3d 00 d5 1a 3e eb 9d 19 be
       0.60182416 0.07567309 0.15120316 -0.15001647
000100 a4 eb 98 be c9 9b 2e 3f cb 67 b8 3d c6 63 3c bf
       -0.2986728 0.6820646 0.09004172 -0.7358974
000110 d9 3f de be cf b7 07 bf e4 21 dd be e2 e3 59 be
       -0.43408087 -0.53014845 -0.4318992 -0.21278337
000120 ce c0 94 3e 0e 94 0e bf 49 88 cf be 7f 5b 76 3e
       0.29053348 -0.55694664 -0.40533665 0.2405834
000130 2d eb 80 3d f3 a4 ad 3d f7 d1 9a be 49 ea 25 3f
       0.06294856 0.08478727 -0.30238315 0.64810616
000140 9c 15 c2 be ad 80 6e 3e 0a 97 07 3c 54 81 1f 3f
       -0.37907112 0.23291273 0.008275757 0.62306714
000150 09 8c b6 be b3 7b 1b bf ef c0 6c be a4 0e 08 bf
       -0.35653713 -0.60735625 -0.23120473 -0.5314734
000160 5e b7 fc 3d 4c a5 c8 bd 2b cf e2 3e 2b cc 1c 3d
       0.12339662 -0.09797153 0.44298682 0.038280647
000170 96 5e c5 3e cd 37 97 3e 76 7c 49 bf db 00 31 bc
       0.38548726 0.2953476 -0.7870554 -0.010803427
000180 e8 44 1c bf 15 7b 87 be ef d7 5e bf 21 82 0e 3f
       -0.6104264 -0.26461092 -0.8704824 0.5566731
000190 8e 04 f8 be f6 98 03 bf c0 67 92 3e 43 6e e3 3d
       -0.48440975 -0.51405275 0.2859478 0.11105015
0001a0 44 e9 29 bf b6 a1 03 bf 9a 80 89 be df 1b 22 3e
       -0.6637156 -0.51418626 -0.26855928 0.15830944
0001b0 15 d3 e5 be 01 14 47 be 64 c4 39 3f b1 47 d5 be
       -0.44887605 -0.19441225 0.72565293 -0.4165626
0001c0 c1 cb 2f bc 3f 72 12 3f 76 47 83 be e4 1e cd bb
       -0.010729731 0.57205576 -0.25640458 -0.006259786
0001d0 98 71 43 be 94 0d cf be c5 00 a6 be 83 09 eb be
       -0.19086301 -0.40440047 -0.32422462 -0.45905694
0001e0 c0 33 3a 3e 89 f7 b8 3e 9c 65 c7 3e 06 51 30 3d
       0.18183804 0.36126354 0.3894471 0.04304602
0001f0 ea ff b3 3e 15 4c 0e 3f 1f 3d 09 3f 98 6f 01 3f
       0.35156184 0.5558484 0.5360889 0.50560904
000200 4a b4 ad 3e 48 3f a7 3e b7 f6 4f 3e 7b cf 93 3e
       0.33926612 0.32665467 0.20308958 0.28869233
000210 96 cf a5 3e ab f6 05 3f 6d 48 c3 be 02 37 09 3e
       0.32384938 0.5232951 -0.38141194 0.1339989
000220 24 31 20 bf f6 c0 1a be 0e df 8c 3e a0 20 23 3e
       -0.6257498 -0.15112671 0.27513927 0.15930414
000230 9e a3 d1 bc 6f 69 90 3e 3c da 87 3e fa 46 12 3f
       -0.025590714 0.2820544 0.26533687 0.5713955
000240 f4 13 b9 be a3 0a 54 be 70 5d d7 be ca 76 d7 3e
       -0.36148036 -0.20707183 -0.42063475 0.42082816
000250 2c c6 03 be 65 0e e8 3e 93 aa 90 be 42 32 1f be
       -0.12868565 0.45323482 -0.28255138 -0.15546516
000260 be 19 19 3e ac ca 08 bd e4 69 c3 be a8 2f 9c be
       0.14951226 -0.033396408 -0.38166726 -0.3050511
000270 65 32 93 3d 4f 11 0d 3e 28 54 91 bd e4 c0 d9 bd
       0.07187346 0.13776134 -0.0709613 -0.10632494
000280 fc 07 5b 3e a4 18 0c be 7d 90 c4 bd 38 81 50 3e
       0.21389765 -0.13681275 -0.095978715 0.20361793
000290 c4 39 ae bd 37 12 54 bd 0d e3 05 be 03 88 bc be
       -0.08507112 -0.051775184 -0.13074894 -0.3682252
0002a0 c3 a4 53 be f1 75 e4 bd 53 d8 08 3d 10 c1 26 3e
       -0.2066832 -0.11155308 0.033409428 0.16284585
0002b0 d8 60 62 3e bd 8a e6 3d 6f 8b 39 3e 5f 70 6c 3e
       0.22107255 0.11256931 0.18119596 0.23089741
0002c0 12 28 da 3d 59 6e d3 3d b2 32 5f 3e 30 3b 15 3d
       0.10652174 0.103237815 0.21796682 0.0364334
0002d0 b6 0c 62 3d 31 4e 96 bd 39 7d da bc 3d 57 27 3d
       0.055187903 -0.073391326 -0.026671039 0.04085468
0002e0 b5 4b 63 bd a7 e1 ce 3d 3f dc 78 3c 8f 8a 47 3d
       -0.05549212 0.101016335 0.0151892295 0.048716124
0002f0 23 f1 14 be 9b 38 01 bc 24 39 f4 bd 04 61 95 3d
       -0.14545111 -0.007887031 -0.11924961 0.07293895
000300 3f fe 44 3d ea 26 a9 bc 36 4c 0f be 63 9c 3e be
       0.04809403 -0.020648438 -0.13993916 -0.18614344
000310 d9 88 28 be 33 bd 99 bd be 90 ee bd e2 62 ad 3e
       -0.16458453 -0.0750679 -0.11648701 0.33864504
000320 ea 68 0d be b1 60 05 3f 31 9a ea be e2 40 7f be
       -0.13809553 0.52100664 -0.45820764 -0.24927095
000330 63 7a 90 3e 51 cd b0 3d 00 3c 57 3f cd e4 82 be
       0.28218374 0.08632911 0.8407593 -0.25565186
000340 6e 4a bf 3e b4 a9 ad be d5 e3 d4 be 7e b8 e6 bc
       0.37361473 -0.33918536 -0.41580072 -0.028164145
000350 34 6f 91 bf 69 99 04 bf 33 15 83 3d b8 d3 25 be
       -1.1362062 -0.51796585 0.06400528 -0.16194046
000360 1c a8 c2 be 61 fa ae 3e a5 3d ed 3e 9f df 71 3e
       -0.38018882 0.341754 0.46336094 0.23620461
000370 8f 93 61 3c 29 67 dc be 7d 2d 52 be 3b e1 bc be
       0.013768091 -0.43047455 -0.20525165 -0.36890587
000380 d0 ee fc be 96 87 e9 be d3 31 36 be 95 f9 f6 be
       -0.4940095 -0.45611256 -0.17792444 -0.4823729
000390 2d 3d 74 be d6 f0 4d bf 29 c2 37 bd f6 3a 0e bf
       -0.23851462 -0.8044561 -0.0448629 -0.5555872
0003a0 84 25 e1 be 13 9a a8 be 14 67 4d bc 0d 81 f2 bd
       -0.43973935 -0.3293005 -0.012536783 -0.11841021
0003b0 4e 65 ce 3d 99 f1 4f be 6e b6 b2 be ae 18 40 be
       0.10077916 -0.20307006 -0.34904808 -0.18759415
0003c0 ff 68 d8 be c4 b9 f9 bd 7e f5 1d bf 3a b5 1b be
       -0.42267606 -0.12193635 -0.61702716 -0.15205851
0003d0 c4 03 15 bd 38 9f a3 be d2 12 ec 3e c6 80 3c bf
       -0.036380544 -0.31957412 0.4610811 -0.7363399
0003e0 7f 73 0f be 20 75 75 bf 5e 10 08 be 74 91 9a 3e
       -0.14008902 -0.95881844 -0.13287494 0.30189097
0003f0 18 bf 91 be 15 dc 50 be 25 05 a9 3e 90 4a 15 3c
       -0.28466105 -0.20396455 0.33011737 0.009112015

linear.0.bias f4 [50]
000000 ca be 48 be c6 e1 1d 3e ef b1 75 3c 5c 99 19 bd
       -0.1960403 0.15418157 0.014996036 -0.03749977
000010 b9 82 8f bd 3e b3 aa bd e3 ff 07 be 16 33 49 be
       -0.07007355 -0.08334969 -0.13281207 -0.19648394
000020 b0 e0 16 be d4 8a 82 bd ca c3 67 be 75 50 cf be
       -0.14734149 -0.063741356 -0.22633281 -0.4049107
000030 cd b4 57 bd 48 5a a1 be 07 88 aa bc d6 c1 4b bc
       -0.05266266 -0.31514192 -0.020816816 -0.012436351
000040 d4 88 be bd a8 29 63 3e e4 3c 3c 3e 59 d7 9c be
       -0.09303442 0.2218386 0.18382603 -0.30633047
000050 87 34 46 3c 68 ed 57 be 25 ef a4 be 17 92 aa bd
       0.012097484 -0.21086657 -0.32213703 -0.08328646
000060 aa 9f 03 bd 4a 04 14 3e b3 49 62 3e 4a a4 c5 3d
       -0.03213469 0.14454761 0.22098427 0.09650476
000070 de a6 32 be 5e 57 08 be 35 3e e0 3d 1c b0 8b bb
       -0.17446467 -0.13314578 0.10949365 -0.0042629372
000080 f3 ae 13 be ad 73 d0 3c b1 c0 60 be db d6 0d bd
       -0.14422207 0.025445784 -0.21948506 -0.03462873
000090 2e e5 26 bf e9 ab 5e 3d 7a b0 2c bd 13 26 d6 3d
       -0.6519345 0.054363165 -0.04216049 0.10456481
0000a0 76 95 90 be 8e 63 95 3c 54 43 65 bd 19 4b 5f 3d
       -0.2823903 0.018235948 -0.055972412 0.054514978
0000b0 37 69 ba be 89 16 b3 3b 69 7a 9c 3d 28 15 fc bd
       -0.36408398 0.005465333 0.076405354 -0.12308723
0000c0 5a 46 c9 3d 73 75 53 3d
       0.098278716 0.05162568

linear.2.weight f4 [7, 50]
000000 a0 fb c1 3c 41 b8 c2 bd a3 e1 a4 bd 85 ec 5a bd
       0.023679554 -0.095078 -0.08050849 -0.05344822
000010 7b 87 c1 bd 79 78 c8 bb dc 81 33 be 3b ae f7 bd
       -0.09449669 -0.006117877 -0.17530006 -0.12093779
000020 60 96 6c bc 27 c4 3a bd d9 9e 01 be 6b 18 48 be
       -0.014440149 -0.04559722 -0.12658252 -0.19540565
000030 4c fe df bd 71 dc 8f 3c 3a c5 08 bc b9 b6 17 bc
       -0.10937175 0.01756117 -0.008347804 -0.009259873
000040 29 25 ce 3c 98 1a 3b bd 07 ad 0f bd bf 67 2e 3e
       0.025164204 -0.04567966 -0.03507712 0.17031763
000050 bc d9 17 be c2 37 1d be 40 a7 43 3e 40 ce 06 3d
       -0.14829153 -0.15353301 0.1910677 0.03291154
000060 0d 71 ab bc e3 a1 77 3e c3 de c8 bc ff be 20 be
       -0.02092793 0.24182849 -0.024520284 -0.15697859
000070 34 be cb 3c c0 92 75 be f2 69 2f be ef 73 62 39
       0.02487097 -0.23981762 -0.17130259 0.00021596228
000080 64 3b 01 bd f1 8c 3f bd 6d 76 29 3c 68 88 64 bd
       -0.03155078 -0.04676527 0.010343176 -0.05579415
000090 b1 6b 8a 3b 4b 38 c0 bd 74 7a e9 bd 7a 2a 54 3e
       0.0042242636 -0.09385737 -0.11400309 0.20719329
0000a0 d9 eb b5 3d ed 77 b6 ba 69 12 c2 bd 5e 16 64 3c
       0.08882875 -0.0013921239 -0.09476168 0.013921348
0000b0 93 9f 0b 3d e4 7c 69 3e 33 98 e6 3e df e8 07 be
       0.03408773 0.22801548 0.45037994 -0.13272427
0000c0 1c 52 b1 bd 36 9f de 3d 4c 73 b0 3c 01 e6 c6 3e
       -0.08658239 0.10870211 0.021539353 0.38847354
0000d0 eb 9c 25 3e 55 99 a5 3c 4b b6 db bd 05 da d1 bd
       0.1617314 0.020214716 -0.10728129 -0.10246662
0000e0 cb 52 88 bd 12 c6 78 3e 39 b6 82 3b d1 b2 27 be
       -0.066564165 0.24294308 0.003989008 -0.16376807
0000f0 65 cf 10 bd 93 0c 81 bd 81 85 58 3e 6e 9d fa bd
       -0.035354037 -0.063012265 0.21144678 -0.122370586
000100 42 c3 0c 3e 6e 6c c1 3e bd 6e f2 bd 2d 85 49 be
       0.1374636 0.37778038 -0.11837528 -0.19679709
000110 ef 5f 33 be 04 81 12 bd 4b 4c 63 3e 6e bb 1b be
       -0.17517065 -0.03576757 0.22197072 -0.15208218
000120 39 39 0d be 25 1b c6 bb d6 d6 e4 bd 61 c0 de 3b
       -0.1379136 -0.0060457163 -0.11173789 0.0067978357
000130 dc ac 5b be 61 cf ae 3e e3 10 21 be f6 88 09 be
       -0.2145266 0.34142593 -0.15729098 -0.13431153
000140 81 3d 56 be 8a f9 55 3e a5 30 83 bd 74 57 f2 3d
       -0.209219 0.20895973 -0.064057626 0.118330866
000150 ec df 9c bd 5c 8f 19 3e 16 4f 6f be c1 c3 94 3d
       -0.07659897 0.14996094 -0.23370013 0.072638996
000160 1c 79 94 3d c8 08 e6 3d 2b 58 50 3c 00 90 7e be
       0.07249662 0.11232144 0.012716333 -0.24859619
000170 f7 66 c2 3d fc a9 6c be 28 d3 2f 3d 39 c2 93 be
       0.09492295 -0.23111719 0.042925984 -0.28859118
000180 bb 3d 20 be b1 44 94 be 54 78 b7 3e 0d 56 4f 3e
       -0.15648548 -0.28958657 0.3583399 0.2024767
000190 d6 2e 29 3c 64 06 1b bf 0c 20 14 bf 32 5c 39 be
       0.010326108 -0.60556626 -0.578614 -0.18101576
0001a0 db 4d e4 3e b4 e6 c7 3e d1 03 9c 3e fd 29 1e 3e
       0.4459065 0.390432 0.30471662 0.15445705
0001b0 d6 74 9e 3d 8b 09 26 3e 14 49 7f 3d 0e 19 b3 3d
       0.077371284 0.16214578 0.062325552 0.08745013
0001c0 17 4c 4e 3e dd 26 a3 3e 07 f2 82 3e b4 9f 34 bf
       0.20146213 0.31865588 0.25575277 -0.7055619
0001d0 26 0a 9f 3e 05 db 5f 3d 64 d8 66 3e cc f1 47 bb
       0.3106243 0.054652233 0.22543484 -0.0030509112
0001e0 e3 1f 21 bf 01 7e 93 3e 43 3b b4 3e 39 86 28 be
       -0.6293928 0.2880707 0.35201463 -0.16457452
0001f0 94 bf 30 3e 4f 93 aa 3e 8f 63 90 3e 1e 64 40 be
       0.17260581 0.33315513 0.28200957 -0.18788192
000200 30 22 bc 3e 74 bb ae 3e 44 3d b1 3e 4b 38 96 be
       0.36744833 0.3412739 0.34617054 -0.29339823
000210 c8 7b 10 bd 3f 66 f2 3d fe 21 33 3e e3 79 bf 3d
       -0.035274297 0.11835908 0.17493436 0.0934942
000220 7a 0c ce 3e 46 26 ac 3d 9f 95 62 be 8a 0c 09 3e
       0.40243894 0.084057376 -0.22127388 0.1338369
000230 a3 e7 49 3e fa 08 64 3e c6 b7 c1 bd c9 1e eb 3d
       0.19717269 0.2226905 -0.0945888 0.11480481
000240 65 f1 72 3e f4 9d 85 3e 8d d4 37 bf a8 aa a4 3e
       0.23724897 0.2609707 -0.718087 0.3216145
000250 8b 94 43 bf 64 66 9a be 64 15 ad 3d f7 b8 c7 be
       -0.76398534 -0.30156243 0.084513456 -0.39008304
000260 f8 10 ee 3d 08 c5 b9 3d 8c 8a 01 3e 09 56 c9 3d
       0.1162433 0.09070784 0.12650508 0.09830863
000270 11 39 1c 3e 4c ef cf be a9 37 00 3d a4 36 cf 3d
       0.15256144 -0.40612257 0.03130308 0.10117844
000280 6d aa 0d 3d 63 0e 2a 3d 0d c7 37 be 82 63 28 3d
       0.03458636 0.041517626 -0.17947026 0.041110523
000290 09 1b 29 be ea bf ec 3c b7 ce 17 3e 94 46 84 3e
       -0.1651422 0.028900106 0.14824949 0.25835097
0002a0 c4 29 9a 3e 5f 80 7f be c9 51 c5 3c de 18 be 3d
       0.3010999 -0.24951313 0.02408685 0.09282087
0002b0 72 ba e1 3d 91 01 8a 3c 7c 58 85 3e cb 7d da bd
       0.1102189 0.01684645 0.2604407 -0.10668524
0002c0 bf aa a2 3e 5e 85 09 bf 76 3f 0e 3e 0e a5 e6 3d
       0.31770894 -0.5371913 0.13891396 0.112619504
0002d0 93 5a a9 3e a5 ef bf 3d 08 a9 3d bc e0 14 e4 be
       0.33076915 0.093718804 -0.011575945 -0.44547176
0002e0 6a 30 b8 bd 81 18 45 be 7b 7e a8 be 48 a9 c1 be
       -0.08993609 -0.19247629 -0.32908997 -0.37824464
0002f0 58 e1 0d bc 5b 68 55 be ae 35 0a 3d c6 d9 6f 3e
       -0.008659683 -0.2084059 0.0337426 0.23422918
000300 2c f5 28 3d c9 89 22 3e b9 b0 06 bd 62 ca ac 3d
       0.04124944 0.15872873 -0.03288338 0.08437039
000310 ec b7 80 bd be 9d 5e 3e 24 eb d1 3d 46 2c ae be
       -0.0628508 0.21739861 0.10249928 -0.34018153
000320 7c 43 b9 3d aa e9 a9 3e 21 8e e7 3e a8 d4 3f 3e
       0.09046075 0.33186084 0.45225623 0.18733466
000330 cb 6a 46 bf d1 c8 20 bf 25 0c ac be 2f 06 e4 bc
       -0.77506703 -0.6280642 -0.33603016 -0.02783498
000340 30 83 14 3d c3 ca 0b 3e f3 39 cc bb 15 b3 b8 bc
       0.036257923 0.13651566 -0.006232494 -0.02254633
000350 46 27 0e be 46 d7 90 bd 02 31 ff bd ad 84 b2 3e
       -0.13882169 -0.0707231 -0.124605194 0.3486685
000360 a5 5b 8a 3e c4 1d 68 3e ba c4 25 3e 0c ec ae bd
       0.27023044 0.22667605 0.16188326 -0.08541116
000370 6c 48 f1 3e be 6a 22 bf 92 24 3c 3e 41 d2 20 3e
       0.47125566 -0.63444126 0.18373325 0.15705206
000380 e3 e2 28 3e 40 99 00 bf 8a d8 9d 3d bc ba 22 3e
       0.164928 -0.5023384 0.07707317 0.15891546
000390 14 fb 34 bf f9 ec 26 bf fb 09 31 3e 7c ea a4 3e
       -0.70695615 -0.6520534 0.17288963 0.32210147
0003a0 fb f0 d8 3c f4 47 f9 be e0 04 bf 3d ee a6 19 be
       0.026482096 -0.48687708 0.09327102 -0.15005085
0003b0 6b 28 7a be fd 41 b5 be df b9 c2 3d 41 45 d8 be
       -0.2442948 -0.35401908 0.09508108 -0.42240337
0003c0 9c 57 9d 3d 06 27 f5 3d 56 c9 58 3e ce e8 1d 3e
       0.07682726 0.11970334 0.21170554 0.15420839
0003d0 05 4b 3b 3e 6f 4d 52 bf 27 fa 00 3e 72 8f 81 be
       0.18290336 -0.82149404 0.12595426 -0.25304753
0003e0 56 c5 d7 3e 7a ca 35 3e c7 d0 ed bd d8 8e a9 3e
       0.42142743 0.1775302 -0.11612087 0.33116794
0003f0 ed 7d 4b 3d 70 a3 f6 3d c4 8f 41 3e 47 f1 cd 3d
       0.04968064 0.12042892 0.18902498 0.100557856

linear.2.bias f4 [7]
000000 45 5a 1c 3e b1 3e f5 bd e5 49 73 be ec 75 ec 3d
       0.1526881 -0.11974848 -0.23758657 0.11545929
000010 1b 76 56 3d df cc 09 be 74 b5 92 3d
       0.052358728 -0.13457058 0.07163516
