src/k_clustering/output/BA_Shapes/model.pkl (torch, 11744 bytes, 13 tensors)

proto_emb f4 [12, 20]
000000 0a 6c 78 3f 00 6f e4 bf 04 cd 77 bf dc c5 d6 3f
       0.97039855 -1.7846375 -0.96797204 1.6779132
000010 6b 5f 8d 40 c4 5a 1a 3f 8e ad 82 be 10 df f1 be
       4.4178977 0.6029475 -0.25523037 -0.47240496
000020 b4 23 10 be 2e 0f 89 40 40 c8 a5 bd a4 ee 00 40
       -0.1407612 4.283103 -0.08094835 2.0145655
000030 82 d8 1b 3f bd e1 ad bf c0 54 fc bf 22 cd 92 3f
       0.6087724 -1.3584515 -1.9713364 1.1468852
000040 12 21 27 40 7c bd a4 3f 0e a0 f6 bf 48 9f 6f 3f
       2.6113935 1.2870326 -1.9267595 0.9360242
000050 7d 8a 69 3f ca 15 af bf 94 15 36 bf ec 10 ba 3f
       0.9122694 -1.3678524 -0.71126676 1.4536414
000060 e4 9e 73 40 70 94 17 3f 90 b3 d8 bd 94 52 84 be
       3.806573 0.5921087 -0.10581124 -0.25844252
000070 98 de ad 3d 25 45 66 40 38 62 0f 3e b6 a5 ee 3f
       0.08489722 3.5979702 0.14002311 1.8644321
000080 67 c0 0f 3f a3 18 91 bf b6 aa cb bf 0a 0b 6b 3f
       0.5615296 -1.1335644 -1.5911472 0.9181372
000090 fa d8 0f 40 c4 a9 85 3f 00 80 c7 bf c0 67 54 3f
       2.2476182 1.0442433 -1.5585938 0.8297081
0000a0 2a 21 60 3f 5c 1a a1 bf de ac 0f bf 4c 64 ba 3f
       0.87550604 -1.2586169 -0.5612315 1.4561858
0000b0 7e 6a 63 40 2a 4f 0f 3f 04 1c 99 bd 88 a7 34 be
       3.5533748 0.5598017 -0.07476047 -0.17642033
0000c0 b8 f5 f9 3d 33 90 5a 40 e0 cb 1d 3e 12 0c e7 3f
       0.1220507 3.4150512 0.15409803 1.8050559
0000d0 80 66 00 3f 02 9f 84 bf 30 61 bd bf f2 37 54 3f
       0.501564 -1.0361025 -1.4795284 0.82897866
0000e0 4d ed 0a 40 9d 45 75 3f f6 fd ba bf 79 2b 56 3f
       2.1707337 0.95809346 -1.4608753 0.83660084
0000f0 9b a6 3b 3f 05 25 1b bf 90 6c d2 3d 20 a8 a3 3f
       0.73301095 -0.6060336 0.10274613 1.2785683
000100 54 54 19 40 b0 9e ab 3e 20 aa b0 3c 78 28 66 3e
       2.395772 0.33519506 0.021565497 0.22476375
000110 f6 3b b7 3e c0 70 21 40 bc 33 96 3e 3b 34 ae 3f
       0.35787934 2.5225067 0.29336345 1.360969
000120 45 6f 56 3e 7e fa 1a bf 24 51 84 bf aa a9 23 3f
       0.20940883 -0.6053847 -1.0337262 0.6393076
000130 ef 59 d3 3f 91 df 3f 3f 89 d2 5e bf a3 19 2b 3f
       1.651182 0.7495051 -0.8704 0.66835994
000140 54 4d 3c 3f 5d f3 09 bf 20 d0 62 3d 3e 56 99 3f
       0.73555493 -0.5388697 0.055374265 1.1979444
000150 5f 39 18 40 60 33 c8 3e 8c be 96 3d b8 74 74 3e
       2.3785017 0.39101696 0.07360563 0.2387265
000160 f4 e6 d7 3e 92 0b 18 40 44 60 c4 3e 28 4a b1 3f
       0.4216839 2.3757062 0.38354695 1.3850756
000170 92 6c 8c 3e 02 78 17 bf 2d 3e 6e bf a1 24 13 3f
       0.27426583 -0.5916749 -0.9306362 0.57477766
000180 54 b7 ca 3f 3d 94 2d 3f e9 e2 51 bf 06 6d 27 3f
       1.5837197 0.6780432 -0.8198686 0.6540073
000190 f8 e1 3d 3f f5 48 3d bf 00 40 a1 3c 53 85 ae 3f
       0.74172926 -0.7393945 0.019683838 1.3634437
0001a0 3a 26 26 40 34 2f b2 3e 80 77 7f bc c0 91 2b 3e
       2.5960832 0.34801638 -0.015592456 0.16754818
0001b0 0e 65 93 3e d2 0a 30 40 34 c0 60 3e 73 af b3 3f
       0.28788036 2.7506604 0.2194832 1.4037918
0001c0 27 a9 6f 3e 28 d7 2e bf 4c 56 95 bf 3f 2c 39 3f
       0.2340437 -0.6829705 -1.1666961 0.7233314
0001d0 ea ed e1 3f 89 5e 56 3f a6 84 80 bf 20 7a 32 3f
       1.7650731 0.83738 -1.0040481 0.697176
0001e0 e0 2b 4c 3f d1 07 58 bf c0 4a 6f bd 9c aa b4 3f
       0.7975445 -0.84386927 -0.058420897 1.4114566
0001f0 e2 02 33 40 e4 ab a4 3e 30 11 c1 bd 90 7e a3 3d
       2.797051 0.32162392 -0.094271064 0.07983124
000200 2c 4c 68 3e 8e ab 3a 40 80 3d 30 3e ca 09 b9 3f
       0.22685307 2.9167209 0.1721096 1.4456112
000210 e8 d1 85 3e 98 e0 36 bf 74 1e 9c bf 5e ea 47 3f
       0.26136708 -0.7143645 -1.2196794 0.7809199
000220 2a ff f1 3f f3 db 5f 3f 0c f0 88 bf ce 5e 3f 3f
       1.8905995 0.8744499 -1.0698256 0.74754035
000230 77 1f 4a 3f d8 a4 84 bf ac c9 30 be d0 11 c2 3f
       0.7895426 -1.0362806 -0.17264432 1.5161686
000240 2f a6 42 40 57 52 b9 3e 48 fb fb bd 00 b2 7f 3b
       3.041393 0.36195633 -0.123037875 0.0039016008
000250 90 d1 05 3e 1e 20 4e 40 c0 5b 8e 3d 51 53 c3 3f
       0.13068223 3.2207103 0.06951094 1.5259801
000260 58 40 8f 3e 5a d3 55 bf dc bb b4 bf 51 89 5d 3f
       0.27978778 -0.8352562 -1.411983 0.86537653
000270 2f d6 01 40 11 78 7c 3f c6 87 a1 bf 06 40 49 3f
       2.0286977 0.98620707 -1.261956 0.78613317
000280 e0 2b 4c 3f d1 07 58 bf c0 4a 6f bd 9c aa b4 3f
       0.7975445 -0.84386927 -0.058420897 1.4114566
000290 e2 02 33 40 e4 ab a4 3e 30 11 c1 bd 90 7e a3 3d
       2.797051 0.32162392 -0.094271064 0.07983124
0002a0 2c 4c 68 3e 8e ab 3a 40 80 3d 30 3e ca 09 b9 3f
       0.22685307 2.9167209 0.1721096 1.4456112
0002b0 e8 d1 85 3e 98 e0 36 bf 74 1e 9c bf 5e ea 47 3f
       0.26136708 -0.7143645 -1.2196794 0.7809199
0002c0 2a ff f1 3f f3 db 5f 3f 0c f0 88 bf ce 5e 3f 3f
       1.8905995 0.8744499 -1.0698256 0.74754035
0002d0 a8 ef 47 3f 1b bd 78 bf 38 14 d2 bd dc de c2 3f
       0.7810006 -0.9716355 -0.10257763 1.5224261
0002e0 32 6d 3c 40 5e 76 ac 3e b8 32 e0 bd 30 44 53 3d
       2.9441648 0.33684057 -0.10947174 0.0515787
0002f0 2c 56 1f 3e 7b cd 49 40 90 ab 97 3d 68 30 bc 3f
       0.15560216 3.1531665 0.0740577 1.4702272
000300 de 71 85 3e 92 ca 4b bf 32 43 b2 bf 79 60 60 3f
       0.26063436 -0.7960597 -1.3926756 0.87647206
000310 68 4d fe 3f cd a8 7c 3f 90 2a 9c bf 21 f5 41 3f
       1.9867373 0.9869507 -1.2200489 0.7576466
000320 ac 55 4a 3f ac 2f 87 bf 98 5f 5b be 4c d3 c1 3f
       0.79036975 -1.0561423 -0.21423185 1.5142608
000330 24 84 45 40 19 fe c5 3e 90 0c d8 bd 00 f8 42 ba
       3.0861902 0.38670424 -0.10549271 -0.00074374676
000340 b4 53 0b 3e 55 d8 4f 40 e0 0c a3 3d 96 12 c6 3f
       0.13606149 3.2475789 0.0796144 1.5474422
000350 3d 1a 9b 3e 32 ee 5e bf d2 03 b8 bf 15 b2 60 3f
       0.30293456 -0.8708221 -1.4376166 0.8777173
000360 a9 fc 01 40 db ae 80 3f 60 bc a5 bf be 52 47 3f
       2.0310462 1.0053362 -1.2948112 0.7786063
000370 c1 1f 4a 3f fc 3a 82 bf 10 2d 27 be 38 ce c1 3f
       0.789547 -1.0174251 -0.16325784 1.5141058
000380 f8 3d 41 40 0a 9f b7 3e cc b9 e4 bd 00 51 b8 3c
       3.0194073 0.35863525 -0.111682504 0.022499561
000390 3c b7 11 3e c4 4d 4d 40 70 86 9f 3d 80 1a c1 3f
       0.14230055 3.2078714 0.07789314 1.5086212
0003a0 ac a1 8d 3e 5f 8a 56 bf 68 fb b5 bf 9e a7 61 3f
       0.27662408 -0.8380489 -1.4217348 0.8814639
0003b0 13 c0 00 40 42 50 80 3f a8 82 a0 bf 9d 06 44 3f
       2.0117233 1.0024493 -1.2539873 0.7657259

conv0.weight f4 [1, 20]
000000 d0 55 a3 3e bc 80 08 bf 8e 26 45 bf 85 66 b9 3b
       0.31901407 -0.53321433 -0.77011955 0.0056579732
000010 5f 66 58 3e 73 1d 42 bd f3 18 1c 3f 59 df ef 3d
       0.21132801 -0.047391366 0.6097557 0.11712522
000020 bf d6 cf be a9 ba 24 3f 58 6c 1b bf e4 41 cc bc
       -0.40593526 0.6434732 -0.60712194 -0.024933763
000030 9d 8a 47 3f 46 d2 16 3e f7 ae 66 3e 91 f9 45 bf
       0.7794588 0.1472865 0.22527681 -0.77333933
000040 0d 07 de 3e c0 6d 81 be 9b 74 00 bf 9a 81 e4 3e
       0.43364754 -0.25279045 -0.50177926 0.44630128

conv0.bias f4 [20]
000000 44 f2 71 3f c7 23 71 3f 34 22 45 3f c8 39 1c 3f
       0.94510293 0.94195217 0.77005315 0.6102567
000010 1a 41 90 3e b6 8e 5d 3f 84 e1 d5 3e 26 39 a4 3e
       0.2817467 0.86545885 0.41773617 0.3207485
000020 f7 d3 47 3f 04 d5 75 3f cc 82 c9 3e 41 20 ce 3e
       0.7805781 0.9602816 0.39357603 0.40258983
000030 d1 fd 04 3f 10 38 4f 3d 0c 86 86 3e c7 f9 45 3f
       0.51949793 0.050590575 0.26274145 0.77334255
000040 fe 0c 48 3d 25 3a 02 3f 57 0f 1b 3f 4d 0e 50 3f
       0.048840515 0.5086997 0.6057028 0.8127182

conv1.weight f4 [20, 20]
000000 52 c9 4a be 77 76 40 be 2a 70 03 be b6 39 57 be
       -0.1980336 -0.18795191 -0.12835756 -0.21018109
000010 8f 14 bb bd f6 4e 36 bd b9 bb f1 3e ed dc de be
       -0.091347806 -0.044508897 0.47213534 -0.43527928
000020 40 1e fc 3c 99 41 b4 3e ac da 8b bd c7 28 8c be
       0.030776143 0.35206297 -0.06828818 -0.2737486
000030 dc 3c e7 3d bb ff fd 3e 33 78 af be b3 ef a4 3e
       0.11290905 0.4960917 -0.34271392 0.32214126
000040 52 28 a9 be 4a 40 4e bc 5a 0f 09 bf 41 b1 db be
       -0.33038574 -0.01258857 -0.5353905 -0.42908671
000050 ba 82 c0 3e 54 38 44 bd 1f 54 8a bd 60 bc 14 3e
       0.37599736 -0.04790528 -0.06754326 0.14524984
000060 b9 4a 2b 3f b9 89 e8 bc 09 9d a4 be a5 99 11 3f
       0.6691089 -0.028385984 -0.32151058 0.5687507
000070 83 f7 c3 be 7e 72 25 bf c0 44 81 bc 28 99 9c be
       -0.38274774 -0.64627826 -0.015779853 -0.305856
000080 17 24 c2 3e 0d 30 eb 3e 9d d3 ad 3e 46 64 2d 3e
       0.3791816 0.45935097 0.3395051 0.16932783
000090 4a 32 d5 3c 12 1c 06 be 0c a4 0b bf 01 29 be 3e
       0.026024956 -0.13096645 -0.5454719 0.37140658
0000a0 84 31 da 3e 5a 6a 8a 3e 85 cf e1 bd 10 3e ba 3d
       0.42615902 0.27034265 -0.11025909 0.09093869
0000b0 3e 11 bf 3f 1f f4 07 bf 1b f9 fb 3e c3 fa e5 3f
       1.4927137 -0.53106874 0.4921349 1.7967151
0000c0 4c 0b ef 3e 16 70 48 bf c8 79 06 3f c4 bb 92 be
       0.46688306 -0.7829603 0.52529573 -0.2865888
0000d0 71 94 ce 3e ec e9 a1 be 67 d0 ad 3f 17 33 fe 3e
       0.40347627 -0.3162378 1.3579224 0.49648353
0000e0 e9 95 98 3f c1 4b 44 bf f9 00 e5 3e d8 78 95 3f
       1.1920749 -0.7667809 0.44727305 1.1677504
0000f0 f0 31 44 3d b4 bb 4f 3e 47 1f bc bc 50 bc d3 3d
       0.047899187 0.20286447 -0.022964133 0.10338652
000100 c6 e3 7d 3e a2 88 0e bf 1f 4d f6 bc 73 f8 89 3d
       0.2479392 -0.55677235 -0.030066071 0.06736841
000110 be 01 cd be 22 7d 6b 3e a4 78 c0 bd a2 b0 c4 be
       -0.40040392 0.22996953 -0.093980104 -0.3841601
000120 ee d8 34 3e 95 b9 f5 3d 51 97 e4 be b4 09 b0 3d
       0.17660877 0.119982876 -0.44646695 0.08595601
000130 a5 10 6a be b6 00 0e 3f a0 23 ad be 07 d8 b8 3e
       -0.22857912 0.55469835 -0.33816242 0.36102316
000140 f8 6c 2b be e1 6e f3 3e d3 7a ab be ec 20 fa be
       -0.16740787 0.4754553 -0.33492145 -0.48853242
000150 8a ff a3 be 7b d0 15 bf 3b bf 00 3e cc cd 66 be
       -0.32030898 -0.5852124 0.12572949 -0.22539443
000160 88 e7 86 3d 41 66 d1 bd 3c cc a3 be 22 b6 e6 3e
       0.0658713 -0.102245815 -0.31991756 0.4506083
000170 2a 2b b1 3d 52 d5 c0 3e 8c 8d 88 3e cf 96 a4 3e
       0.08650811 0.3766275 0.26670492 0.32146308
000180 14 65 ed 3e 1d 89 05 3f 30 e7 62 be 1f 19 b1 3e
       0.4636618 0.52162343 -0.22158504 0.34589478
000190 f4 1c 87 bd a1 a9 e9 3e a6 42 92 be 47 8d ea be
       -0.06597319 0.4563723 -0.28566474 -0.4581091
0001a0 34 86 e5 bd 59 22 98 bd 78 6e a1 be e0 0c 83 be
       -0.11207238 -0.07428426 -0.31529593 -0.2559576
0001b0 cc 8b 2d be de 1a 18 bc 90 c8 06 bf 94 47 38 3e
       -0.1694786 -0.009283749 -0.52649784 0.17996055
0001c0 d8 f8 02 bf 44 79 03 3f ce ab d5 bd c0 4e 84 be
       -0.51160955 0.5135691 -0.1043316 -0.2584133
0001d0 7a 7d 88 be ab ac 07 3f 2b 69 d7 be 89 cc d1 3d
       -0.2665823 0.52997845 -0.42072424 0.1024409
0001e0 1c c6 56 3e ae c5 85 be f6 e2 c8 bd 84 33 74 be
       0.2097401 -0.2612738 -0.09808914 -0.23847777
0001f0 e2 c2 89 be fe 6d 8c 3e 47 d4 dd 3e 79 91 20 3e
       -0.26906496 0.27427667 0.43326017 0.15680493
000200 1a 60 83 be dd 16 7b 3e e4 1f 98 3e f0 a9 59 bd
       -0.25659257 0.2452044 0.2971183 -0.05314058
000210 c6 aa 8b 3d 9e 1a 03 3f 32 ba 9a be bf 5e ae be
       0.06819682 0.5121249 -0.3022018 -0.3405666
000220 03 02 f2 3e 16 5e 54 3d 81 a1 88 be b6 ec c0 be
       0.4726716 0.05184754 -0.26685718 -0.37680596
000230 2e e5 f0 be c2 c4 f8 be 7d 72 0e bf 04 05 87 be
       -0.4704985 -0.48587614 -0.55643445 -0.26371014
000240 bb 32 a1 3d 3f 8e df be 2f 41 11 3f d4 e4 7b 3e
       0.07871004 -0.43663213 0.5674009 0.2459901
000250 52 61 00 be b4 6d f6 3e 54 b5 65 3e c2 0a ad 3e
       -0.12537125 0.48130572 0.22432452 0.3379727
000260 a2 2d 0d bf af 24 8e 3d 14 aa 11 3f 60 31 6b be
       -0.55147755 0.069405906 0.56900144 -0.22968054
000270 b3 51 98 3e 0a 45 c5 bc 70 0f dc be e9 52 83 bd
       0.29749832 -0.024080772 -0.42980528 -0.06412298
000280 8c 26 15 3e 91 3f da 3e a9 56 82 be f0 fc c3 3e
       0.14565486 0.42626622 -0.2545674 0.38278913
000290 ac c9 14 3f b6 ac cd 3c 9e 90 05 3e 7d 7e fa bd
       0.58120227 0.025106769 0.13043448 -0.12231157
0002a0 0c 33 bd bd c2 11 d1 be 10 ed 19 3e bc 98 54 3e
       -0.09238252 -0.4083386 0.15031838 0.20761389
0002b0 f5 26 05 be 89 45 7e be 1f 44 6c 3d 3d 04 9c 3e
       -0.13003142 -0.24831213 0.057682153 0.30471984
0002c0 05 75 2c bf 63 7e 75 be 0f 09 21 be 51 ca 0f bf
       -0.6736606 -0.23973994 -0.15726112 -0.56168085
0002d0 18 ea cb be 39 f0 9e 3e f2 a0 9f be f6 31 8e be
       -0.39827037 0.3104265 -0.3117748 -0.27772492
0002e0 c3 f3 12 bf 05 58 b6 3d 1a 11 97 3d 0d c6 34 be
       -0.574032 0.08903507 0.07376309 -0.17653675
0002f0 e4 a6 fa be ed ad dd be 08 fd 4c bd 68 bb 69 be
       -0.48955452 -0.43296757 -0.050045997 -0.22825396
000300 43 fd bb 3d 04 1e 9a be 44 d5 05 bd 12 1d 03 be
       0.09179165 -0.30101025 -0.03267409 -0.12804058
000310 14 a6 01 bf de cc 9a be 2e a8 d3 3e c6 4c 94 3d
       -0.5064404 -0.30234426 0.41339248 0.07241206
000320 8c 3e 9f be 65 df 82 be 49 ea 06 bf 60 5b 30 3e
       -0.31102407 -0.25561062 -0.5270124 0.17222357
000330 2c 6e fc 3e c1 ad 09 bf c9 04 0a bf 74 01 b1 3e
       0.49302804 -0.5378075 -0.5391355 0.3457142
000340 84 00 e0 3e ce 69 03 be 36 58 00 bf a6 97 f9 be
       0.43750393 -0.1283333 -0.501346 -0.4874851
000350 b2 b8 cd 3e 34 c4 1e 3e e9 87 a6 be 7a 93 4d be
       0.40179974 0.15504533 -0.32525566 -0.20075789
000360 9b a8 ad be 20 b6 7d 3e 14 7e 80 3e e6 62 b2 be
       -0.33917698 0.24776506 0.2509619 -0.3484108
000370 a0 3d 9f bd 2e 9b 95 3d a9 51 c9 3e 28 bd db 3d
       -0.07775426 0.07304989 0.39320114 0.10729438
000380 80 b8 1f 3e ed 93 8c 3d 38 ad e4 be 5f 26 1c 3f
       0.15597725 0.06864152 -0.44663405 0.6099605
000390 ce af ef be cd 53 19 3e 38 81 05 bf df ce b6 be
       -0.46813816 0.14973374 -0.521503 -0.35704705
0003a0 83 aa 7d bc 75 c5 17 3e e1 97 03 3f 46 e8 82 be
       -0.015482548 0.14821418 0.51403624 -0.25567836
0003b0 f1 72 a1 3d 27 28 e5 3e 5d 7c 96 3e e6 ba aa 3d
       0.078832515 0.44757196 0.29391757 0.08336429
0003c0 d0 c7 7d 3d 84 db 2e be ae f2 9f 3d 80 0c a6 bb
       0.061958134 -0.17075926 0.07809959 -0.005067408
0003d0 98 45 c9 3e d5 eb 22 be f3 52 e5 3c 9d 60 b0 3e
       0.39310908 -0.15910275 0.027993655 0.3444871
0003e0 04 4f d7 be 5f ee 71 3e e4 0d dc be e0 f3 b3 be
       -0.42052472 0.23626088 -0.42979348 -0.35147
0003f0 a8 f3 8d be 30 f4 c5 3e 3d db fa 39 f7 de 0a 3f
       -0.27724957 0.38662863 0.0004784706 0.5424647

conv1.bias f4 [20]
000000 8c 41 53 3e 96 69 56 3f 41 d2 68 3f 60 0c 3b 3d
       0.20630473 0.8375486 0.9094582 0.0456661
000010 ee fa 5a 3d 8e c8 65 3f 8f e8 a5 3c 6c 37 81 3f
       0.05346196 0.8975915 0.020252494 1.0095038
000020 a7 21 03 3f bf 2f 4c 3f 3e e5 9d 3e f1 41 35 3f
       0.51223224 0.79760355 0.3083896 0.70803744
000030 5b d9 70 3f 77 f9 11 3f e7 28 7c 3f 48 97 8b 3c
       0.9408166 0.5702128 0.9849991 0.01703991
000040 98 19 67 3f ce 6d 20 3f e1 fb 29 3f 15 99 3e 3f
       0.9027343 0.6266755 0.6639996 0.74452335

conv2.weight f4 [20, 20]
000000 44 20 82 be c7 41 ac be d0 c0 92 bd e0 9a ee bd
       -0.25415242 -0.33643934 -0.07165682 -0.11650634
000010 a1 fe 92 be f6 9a e6 be 4e e6 c8 be 6c 2f 81 bd
       -0.2870989 -0.450401 -0.3923821 -0.06307873
000020 00 1c 0b 3b 38 d8 60 3e 68 e7 df 3e 80 f8 9e bb
       0.0021226406 0.21957481 0.43731236 -0.004851401
000030 78 a3 e6 3d d0 32 f7 be 8e 49 c0 be b8 d6 e5 3e
       0.11261648 -0.48280954 -0.37556118 0.4489038
000040 d8 3f ad 3d a8 cf 29 3e 08 d9 ef 3d 10 ee 9a be
       0.08459443 0.16583121 0.11711317 -0.30259752
000050 24 fd df bd b7 92 ec 3e f4 03 81 be 2f 60 9b 3e
       -0.109369546 0.46205685 -0.25198328 0.3034682
000060 4c ff 4f be eb 68 8a be c6 73 4f be 75 4d b4 be
       -0.20312232 -0.2703317 -0.20259008 -0.35215345
000070 82 02 18 be 54 57 69 be 94 78 89 be f8 c3 dd be
       -0.14844707 -0.2278722 -0.26849806 -0.43313575
000080 87 0e 46 be 1f 00 85 be 90 d3 b4 bd c1 cc b7 be
       -0.19341479 -0.25976655 -0.08829415 -0.35898402
000090 e8 55 cc bd 64 65 41 be 90 6c 16 be b0 8c 0a bd
       -0.09977323 -0.18886334 -0.14689851 -0.033825576
0000a0 3e 13 da be f6 6d 92 3e f8 10 84 bd 6e 3a 82 be
       -0.42592806 0.2859952 -0.06448549 -0.25435203
0000b0 5c c9 64 3e 90 ea ea 3e 6d f2 6f 3d 11 96 d5 bb
       0.22342438 0.45882082 0.058580805 -0.0065181335
0000c0 1c 06 20 be 49 b3 69 3d dc 67 94 3e 80 14 88 3e
       -0.1562733 0.057055745 0.28985488 0.2657814
0000d0 f4 1d 58 3c a9 cf b7 be 14 b0 03 bf 58 a0 89 3e
       0.013190735 -0.3590062 -0.5144055 0.26880145
0000e0 f8 2a 9e 3e f2 44 fe 3e 48 71 6a 3e 91 af f6 be
       0.30892158 0.49661976 0.22894776 -0.48180822
0000f0 a0 7b 2e bd 86 ae 05 3f 00 e3 b1 3c d8 a1 d4 3e
       -0.042598367 0.52219427 0.021714687 0.41529727
000100 9e e1 04 bf 6a dc 70 be ea 77 93 3e b8 4b a0 be
       -0.51906765 -0.23521581 0.28802425 -0.3130777
000110 10 12 29 3e ce 8d 0b bf 8a 8f ac 3e b0 07 3e 3d
       0.16510797 -0.5451325 0.33703262 0.04639405
000120 28 16 1e 3e 06 94 93 3e 80 95 be bb 1d b8 01 bf
       0.1543814 0.2882387 -0.0058161616 -0.5067156
000130 90 bb ff 3e 6a d9 a5 3e d8 8c 1a be 14 f6 81 bd
       0.49947786 0.32392436 -0.1509279 -0.06345764
000140 40 1c a2 3d cc d6 a0 be fe c6 59 bf 84 af 4f bf
       0.079155445 -0.31413877 -0.85069263 -0.8112719
000150 c8 31 f7 bd 30 62 b7 bd b3 11 2c be 09 57 0e 3f
       -0.12070042 -0.08954275 -0.16803627 0.55601555
000160 54 5f ae 3e 2f 47 38 3f 6a 3b 08 bf 6c ae ad 3e
       0.34057105 0.7198362 -0.5321566 0.33922136
000170 19 2a 43 3e c6 de e1 be 9a d5 5c 3e cd cc 33 be
       0.19059028 -0.44115275 0.21565858 -0.17558594
000180 34 e1 64 be a7 5c 10 3f b0 ee 43 be 98 01 95 3d
       -0.22351533 0.56391376 -0.19134021 0.072756946
000190 ac 9e 7f 3e cc 14 8d bd 64 36 cb be 47 cf d1 bb
       0.24962872 -0.06888732 -0.39689934 -0.006402883
0001a0 90 83 f2 3d 37 29 d5 be bf 63 84 3d e7 76 2a 3e
       0.118415 -0.41633007 0.064643376 0.1664692
0001b0 14 8b 03 3e 70 cc 6d 3e a4 63 a9 3e 50 89 ee 3e
       0.12846023 0.23222518 0.33083832 0.46589136
0001c0 8c c2 97 3e 91 cf 8f be ac ae 99 be dc f1 3d 3e
       0.29640615 -0.28088048 -0.30016077 0.18549293
0001d0 b0 76 8b bd 55 f8 ff be ba de 0b bf 80 8e 5e 3c
       -0.06809747 -0.4999415 -0.5463673 0.013583779
0001e0 a9 ac 03 bf f0 31 1d be c3 75 d7 3e d7 84 b4 bd
       -0.51435333 -0.15351081 0.42082033 -0.088144
0001f0 44 6a ea be 02 86 04 bf cf ed 6b be de 67 01 3f
       -0.457842 -0.5176698 -0.23039936 0.50549114
000200 08 4f b3 be 2d df 8e 3e 9f 7a 09 bf 6c 5a e3 be
       -0.35021234 0.27904645 -0.5370273 -0.44404924
000210 d6 bd d6 3d 9a 8a 14 be c8 d4 70 3e 38 3f c2 be
       0.10485427 -0.14505997 0.2351867 -0.37938857
000220 e2 69 0b 3f dc f5 0a 3e de f1 c8 be 00 7c 0f bc
       0.5445844 0.1357035 -0.3924703 -0.008757591
000230 10 5a 8f 3e e4 3b 2d bf 4b 8c 9a be a0 e8 d7 be
       0.279984 -0.6766951 -0.3018516 -0.42169666
000240 b4 fe 07 be dc 68 43 3e 74 c9 b8 bf 9c e9 00 3f
       -0.13280755 0.1908297 -1.4436479 0.5035646
000250 ac 92 ae bd 84 13 f7 bd f4 64 61 3e a0 2f e5 3d
       -0.08524069 -0.12064269 0.22011167 0.111907244
000260 1a 57 91 3e 08 d5 06 be 48 a4 08 3f a3 9b 25 3e
       0.28386766 -0.13167202 0.53375673 0.16172652
000270 c0 1b ce be eb 73 08 3f ea 1f 09 be b0 9a 4b 3e
       -0.40255547 0.53301877 -0.1339108 0.19883227
000280 c8 e3 4c 3e 30 d5 bf 3d a0 60 01 bf 00 65 33 bb
       0.20008767 0.09366834 -0.50538063 -0.0027373433
000290 3e 8b 88 3e a0 dd ae be d0 09 56 3e e3 fd 06 bf
       0.26668733 -0.3415346 0.2090218 -0.5273115
0002a0 08 52 c4 3e 88 1f e8 3e d0 af 35 be 60 f7 f6 bc
       0.38343835 0.45336556 -0.17742848 -0.030147254
0002b0 60 d3 a6 bc 7b 78 97 be d4 be fe be 60 d7 d3 3d
       -0.020364463 -0.29584107 -0.49754965 0.10343814
0002c0 e8 ac 00 3e 28 1a b0 bd 3c a5 76 3e 94 2e 1f be
       0.12565958 -0.08598739 0.2408647 -0.15545112
0002d0 d6 03 f4 be af 1a de 3e d9 5f 50 3d d1 10 70 3e
       -0.47659177 0.43379733 0.050872657 0.23443915
0002e0 18 4c f8 be f4 36 68 3e e1 10 d7 3e 7e 11 68 be
       -0.48495555 0.22677213 0.42005065 -0.22662923
0002f0 a0 ff 5b be 7a 69 22 bf 30 ff bb 3d ac d8 6d 3e
       -0.21484232 -0.63442194 0.091795325 0.23227185
000300 e6 22 8a be 70 c0 07 bf 93 ae 04 3f ac ad 31 be
       -0.2697975 -0.5302801 0.5182888 -0.17351407
000310 d8 db c1 3e 04 77 ef be 37 5b da be 8e 2c b1 be
       0.3786304 -0.4677049 -0.42647716 -0.34604305
000320 e6 73 30 be 62 9d 45 be d4 71 e0 3e f0 e3 42 3e
       -0.17231712 -0.19298318 0.43836844 0.19032264
000330 50 46 73 bd 20 c6 b9 be 96 df 61 be 60 13 c6 3d
       -0.059393227 -0.3628397 -0.22057948 0.09671664
000340 2a a4 80 be 80 09 21 bc e9 d2 0a bf b0 32 66 3e
       -0.25125247 -0.009828925 -0.54228073 0.22480273
000350 00 9c 74 3c 06 dd bd be 3c 9b e8 bd 6c 69 8f 3e
       0.014929771 -0.3708269 -0.113577336 0.28010118
000360 ac bd 06 3f 08 f1 e9 3e ac 0a 92 be aa 30 00 be
       0.52633166 0.45691705 -0.28523767 -0.12518564
000370 d0 16 01 bf 3c df a1 be 14 4a bc 3e 95 ac 95 be
       -0.50425434 -0.31615627 0.36775267 -0.29233232
000380 22 4c 19 be 6c 6d ed 3e 6c 63 8d 3e ba df 24 be
       -0.14970449 0.46372545 0.27614915 -0.1610097
000390 20 76 1f bd 48 d7 22 3e db 54 ad be 48 7f a7 3d
       -0.038931012 0.15902436 -0.33853802 0.08178574
0003a0 e4 5b 07 3e 81 86 8b be 0a dd 94 3e 2c 61 2a be
       0.13218647 -0.27251056 0.2907489 -0.1663863
0003b0 50 7d f7 be ca 8d a3 3e 58 7b 13 3e 3a 7b 2d be
       -0.48337793 0.31944114 0.1440252 -0.16941538
0003c0 34 d9 9e be 2d 67 9d be ee 26 9a 3e 42 2a 05 bf
       -0.31025088 -0.3074278 0.30107826 -0.52017605
0003d0 fc eb 0b 3e e6 94 f6 be ca 3d d3 3e 9d 79 a8 bc
       0.1366424 -0.48160475 0.4125808 -0.020565802
0003e0 68 37 91 bd 6c ce 19 3e 18 4e 4b 3e 3a 4f 5d be
       -0.07090646 0.1502015 0.19854009 -0.21612254
0003f0 38 c4 41 bb 88 6f 04 be 7f fc eb 3e 19 91 02 3f
       -0.0029566418 -0.12933171 0.46091077 0.5100265

conv2.bias f4 [20]
000000 68 63 07 3e f1 d1 84 3f 91 d4 37 3f e8 27 b5 3e
       0.13221514 1.0376569 0.71808726 0.3538201
000010 7c a9 8e 3e f3 22 38 3f ab eb 17 be e7 a4 52 3f
       0.2786368 0.7192833 -0.14835994 0.8228287
000020 86 ce 46 3f d0 19 c1 3e a0 cd 81 3e 50 c8 20 3d
       0.7765888 0.37715006 0.25352192 0.039253533
000030 5a eb 3f 3f 40 5f 20 3e e9 45 8f 3f c7 b5 c4 3e
       0.74968493 0.15661335 1.119321 0.38419935
000040 60 82 0d 3d db 10 85 3e 4f 8a 55 3f a9 73 57 3f
       0.034548163 0.25989422 0.8341417 0.8416086

conv3.weight f4 [20, 20]
000000 e8 d1 97 be 6c b4 ad 3e 22 15 03 be 00 04 3e 3c
       -0.29652333 0.33926713 -0.1280103 0.011597633
000010 1c 21 09 3e 42 62 80 be cc a5 af be 9a 15 8a 3e
       0.13391536 -0.25074965 -0.3430618 0.26969606
000020 3e 6f c5 be f4 bb a8 be be 80 27 be bc 3d 00 bf
       -0.38561434 -0.32955897 -0.16357705 -0.500942
000030 18 f0 e3 3e 58 16 df 3e 08 b0 d6 3d 74 08 4b 3e
       0.44519114 0.43571734 0.10482794 0.19827443
000040 d5 7c 06 bf 08 ac 59 3e 62 b8 97 3e 3c 36 9f be
       -0.5253423 0.21257031 0.2963286 -0.31096065
000050 72 35 04 bf d1 cd e5 bd fa ff 37 3f eb 9e 00 3f
       -0.5164405 -0.11220897 0.71874964 0.5024249
000060 86 5b 33 be 7b 37 08 be 1f 5e c1 bd 79 24 0d 3e
       -0.17515382 -0.13302414 -0.0944178 0.13783444
000070 dc f9 bc 3d 7c 6d 9c 3d 55 1a ad be 54 20 9d be
       0.092273444 0.0763807 -0.33809152 -0.30688727
000080 4a be bd 3d 64 01 f5 3e c3 d0 de 3e 18 84 a7 be
       0.092648104 0.47852623 0.43518648 -0.32717967
000090 73 5b 40 3d 47 0d c7 be fa 02 da be d2 1e d6 3e
       0.046962213 -0.38877317 -0.42580396 0.4182039
0000a0 5f a0 de 3d 83 77 8e be 02 28 80 bf ac a2 cb be
       0.10870432 -0.27825555 -1.001221 -0.39772546
0000b0 b1 cd 4d be 9e 2a c9 3d bb 28 b2 bd 97 76 37 bf
       -0.20097996 0.09822582 -0.08699175 -0.7166533
0000c0 28 52 43 bf b6 f0 c5 bd fb 2c 25 bf c6 55 a8 3e
       -0.76297235 -0.096650526 -0.6452176 0.3287794
0000d0 23 30 45 be 2a f8 1a bf 15 b6 23 bf 09 ae 4a 3f
       -0.19256644 -0.6053492 -0.6394971 0.79171807
0000e0 da 78 87 be ac 63 39 3f d6 37 96 be 5b a5 1f bf
       -0.2645939 0.7241771 -0.29339474 -0.6236169
0000f0 d7 8f 87 bc f5 b0 13 bc 54 dd cd 3e ab ff 94 3e
       -0.01654808 -0.009014358 0.40207922 0.2910131
000100 35 19 97 3c 6a f3 08 3e ee eb 84 3e 37 62 d9 3e
       0.018444637 0.13374105 0.2596125 0.42457744
000110 b3 cc b6 3e 6d a8 24 3e f5 e1 d3 3e f5 70 32 3e
       0.35703048 0.16079874 0.4138333 0.17425902
000120 fb 02 74 bd ae 79 94 3d af ea 39 3d 36 68 c2 be
       -0.059573155 0.07249771 0.045389827 -0.37970132
000130 0b a9 79 3e 89 ba 93 be 04 d2 f1 3c 27 a1 2c 3e
       0.24380891 -0.28853253 0.029519089 0.1685835
000140 fc c9 c3 bd 10 cf 30 3e 3a a6 6a be c8 70 ec bd
       -0.0956001 0.17266488 -0.22914973 -0.11544949
000150 20 9a d4 3c 0f 3f 06 bf 4c 08 79 3e 00 b7 d8 bb
       0.025952399 -0.5243997 0.24319571 -0.006613612
000160 5a 46 a0 be 9c 7d ea bd 2d 9b d3 be 64 86 fc bd
       -0.31303674 -0.11449739 -0.41329327 -0.123303205
000170 58 70 8c bd 53 ea de be 38 54 76 3e e0 b8 0f bd
       -0.06857365 -0.4353815 0.24055564 -0.03508842
000180 40 ad 01 3d f0 54 32 be 06 fe 98 be b8 8a 18 be
       0.031659365 -0.17415214 -0.29881305 -0.14896667
000190 94 54 0c be 90 ed 20 3d 04 8b a4 bd 60 b8 2b 3d
       -0.13704139 0.039289057 -0.080343276 0.04192388
0001a0 da 81 ae 3e 44 bc 03 3e f8 0f 05 3e a2 a9 a1 be
       0.34083444 0.12864786 0.12994373 -0.31574732
0001b0 40 c0 c2 3d 84 7e 88 3e 60 c2 df be 40 76 35 3e
       0.09509325 0.26659024 -0.43702984 0.1772089
0001c0 74 d2 cc 3e e4 b4 cf 3e 40 74 ad 3c 0c 7d b5 bd
       0.40004313 0.40567696 0.021173596 -0.088617414
0001d0 80 df 9a 3b 24 c2 fb be 4c 04 f7 3e 02 74 c2 be
       0.0047263503 -0.49171555 0.48245466 -0.37979132
0001e0 46 66 df bd 11 6d c6 bd 2a f8 11 3e 5c fd 2c 3f
       -0.10908179 -0.096887715 0.14254823 0.67574096
0001f0 5e b2 fe 3e 6e 33 a0 3e d0 ae 02 bc cd 92 aa 3d
       0.49745458 0.31289238 -0.007976249 0.08328781
000200 8d a7 fa be e6 e5 f0 3e bc af 17 bf 15 05 36 be
       -0.48955956 0.470504 -0.59252524 -0.17775376
000210 29 f3 2f 3e e0 f6 cf 3e 89 c0 c2 be bf e5 1c 3e
       0.17182602 0.40618038 -0.38037518 0.15322016
000220 f0 c8 0c 3f d1 d2 80 bd e9 a2 8e bd 91 3b 17 bc
       0.54994106 -0.0629021 -0.069646664 -0.00923051
000230 a6 69 47 be e2 e6 fe 3b c8 dd c4 be 91 78 70 bd
       -0.19473895 0.007778988 -0.38450456 -0.05870873
000240 a5 2c 0a bf fe 5d ec 3e 70 f9 53 3e bc f1 a0 be
       -0.5397437 0.4616546 0.20700622 -0.3143443
000250 a3 63 c4 be 72 32 f4 be 8f 9c 1f bf 87 c4 3c 3e
       -0.38357267 -0.47694737 -0.62348264 0.18434344
000260 0c 95 88 be b0 ee 71 bc 15 c5 d1 be 1e ce 1c be
       -0.26676214 -0.01476638 -0.40970674 -0.15313002
000270 0f c5 6b be fe 7d 91 3e c8 a0 87 bd 91 99 c7 bd
       -0.2302439 0.28416437 -0.066224635 -0.09746087
000280 d4 cf ac bd 70 0b 2b bd d0 18 fb 3d 84 6b f5 3e
       -0.084380776 -0.041758955 0.12260592 0.4793359
000290 a8 13 95 be ce 67 f4 be 9c ed 5c 3e c0 97 92 be
       -0.2911656 -0.47735447 0.21575016 -0.286314
0002a0 2e 72 91 be 60 e8 71 bd 28 9d fa 3d 7c 65 15 3e
       -0.28407425 -0.0590595 0.122370064 0.14589494
0002b0 c0 ac fd 3e 20 85 32 bd b8 9e 87 3d 1a 7f 0f be
       0.4954586 -0.04358399 0.0662207 -0.14013329
0002c0 e0 e0 b8 3d 00 bf 43 3d f5 d3 ce be a4 71 0a 3f
       0.090272665 0.047789574 -0.40396085 0.5407965
0002d0 9e c2 b6 3e 9e 0d e2 be b7 e2 ef be 7a 4e ee be
       0.35695356 -0.44151014 -0.46852657 -0.46544248
0002e0 5a d8 f0 3e ab fa 0b bf 31 5d 19 bf ec 95 fa be
       0.47040063 -0.54679364 -0.59907824 -0.48942506
0002f0 8e 4d 5e bd 35 3b 0a 3f ee 0b 73 3e dc a8 92 3e
       -0.05427318 0.5399659 0.2373502 0.28644454
000300 be fc cd bd 88 b6 f2 be 19 72 24 3e bd 97 3f 3e
       -0.10057972 -0.47404885 0.1605915 0.18710227
000310 8e 27 01 3e 8c e2 2c 3e 44 b0 1c bd 06 10 b3 3e
       0.12612745 0.16883296 -0.038254037 0.34973162
000320 3c 39 c3 3e ae f7 cb be 70 3d 0a 3e 54 15 87 3e
       0.38129604 -0.39837402 0.13499999 0.2638346
000330 60 2b 1f be 24 8e fc 3e e8 eb 9f 3e 4c 36 cd 3e
       -0.1554389 0.49327195 0.3123467 0.40080488
000340 70 03 14 3d 60 aa 90 bc 68 4a e2 3e ba 2b b0 be
       0.03613609 -0.017659366 0.44197392 -0.3440836
000350 a5 75 9f be 98 fd bd 3e 74 95 6a be d6 35 a4 be
       -0.31144443 0.3710754 -0.22908574 -0.32072324
000360 ce 88 e5 3e 2e 35 da 3e ac cc ba be d8 f9 95 bd
       0.44830936 0.42618698 -0.36484277 -0.073230445
000370 63 9e 85 be 78 7a 63 3e ca 1b b2 be fa ab 72 be
       -0.26097402 0.22214687 -0.34786826 -0.23698416
000380 17 03 ff be 2c 9d 84 3e 92 3e 06 3f 30 ac 58 be
       -0.49807045 0.25901163 0.52439225 -0.21159434
000390 12 66 dc 3e e6 4c 35 be c0 f5 0d be 98 08 8d 3e
       0.43046623 -0.17705116 -0.13863277 0.2754562
0003a0 a8 9a 99 be 0c e1 27 3e 98 a4 b9 be 7a c1 a0 3e
       -0.30000806 0.16394442 -0.36258388 0.3139761
0003b0 38 a2 08 3f ee dd fb be 7a 81 ae be 6c 3b b0 bd
       0.53372526 -0.49192756 -0.34083158 -0.08605084
0003c0 ee 35 d9 3e 87 38 6f 3d 16 fd 89 3e e0 15 62 3e
       0.42423958 0.058403518 0.26950902 0.22078657
0003d0 3b 14 ff be ce 06 9e be 50 d2 ca 3e b0 04 90 3e
       -0.49820122 -0.30864567 0.3961358 0.28128576
0003e0 c4 28 06 3f a9 5c 92 be b6 c4 cb 3e 2b 7a c8 bc
       0.52405953 -0.2858632 0.39798516 -0.024472317
0003f0 d8 ec ef 3d 5b 28 84 be bb 2a 09 bd 63 80 dd 3d
       0.11715096 -0.2581204 -0.033488017 0.108155034

conv3.bias f4 [20]
000000 e0 ab 89 3e bb 3f 53 3f 1d 19 87 3f 2d 49 98 3e
       0.26888943 0.8251912 1.0554539 0.2974333
000010 e3 bb 65 3e 34 ef f1 bc 14 e1 ce 3e 9f 51 62 3f
       0.22434954 -0.029533006 0.40406096 0.88405794
000020 2f 00 80 3f 04 af 6f be 1c b9 8d 3f 36 9a 31 bd
       1.0000056 -0.23406607 1.1072116 -0.043359958
000030 97 a3 cd 3c a6 f3 e6 3e b7 55 58 3f 46 ca 0c bf
       0.02510242 0.45107764 0.8450579 -0.54996145
000040 3f 6d b0 3e d1 9f a8 be b9 10 02 3f 73 2d 3a 3e
       0.34458348 -0.3293443 0.50806767 0.181814

linear.0.weight f4 [20, 20]
000000 26 67 c4 bd 48 43 1a bd d8 b2 50 bd 1a 3e 19 3e
       -0.095899865 -0.03766182 -0.05095181 0.14965096
000010 88 c6 97 3d 40 03 b1 bb 54 a5 83 3d 9c 30 d5 3d
       0.07410914 -0.0054019988 0.06428018 0.10409662
000020 44 95 96 bd c3 05 55 be c8 d9 39 3d 81 31 63 be
       -0.07352689 -0.20802979 0.045373708 -0.22186853
000030 4a a6 4b 3e e8 4a 6c 3d 84 bb 5a 3e 58 d6 a9 bd
       0.19887653 0.057688624 0.21360594 -0.08292836
000040 de 10 ce bd 84 7e db bd c0 e9 c7 3b 40 10 24 3e
       -0.10061811 -0.1071749 0.006100863 0.16021824
000050 a7 bf 17 3c 44 69 b7 bd 68 0d 55 bd 97 22 48 3e
       0.009262002 -0.08955625 -0.05201474 0.19544445
000060 90 23 95 bc bd 0b bf 3d 1b 4a b1 bd d0 f9 e9 3e
       -0.018205434 0.09328411 -0.086567126 0.45698404
000070 53 db 65 3d 75 1e 0d 3e e8 af cd 3b 36 a3 ad bd
       0.056117367 0.1378115 0.006277073 -0.08478396
000080 1e e9 a2 3d 76 9a 6e bd 76 c9 63 3d e6 8e 67 bc
       0.0795462 -0.058252774 0.05561205 -0.014133191
000090 4a 8c 34 bd ff 86 6f bb db 85 e5 bd d0 5c d3 3c
       -0.044079103 -0.003654897 -0.112071715 0.025801092
0000a0 b6 51 a7 bd 41 68 59 be 1f cd eb be a1 69 93 ba
       -0.08169882 -0.21231176 -0.46054932 -0.001124669
0000b0 36 ed 5a 3e 84 0e c7 3e e3 bb f0 be 17 8d 0a bf
       0.21379551 0.38878262 -0.47018346 -0.54121536
0000c0 f2 8c bf bf 1f ec b0 3d a7 c8 b6 bf b7 34 68 3e
       -1.4964888 0.086387865 -1.4279984 0.22676359
0000d0 54 f0 99 3e 71 00 b6 bd 6d c4 24 be d3 69 9b 3e
       0.30066168 -0.08886803 -0.16090555 0.30354175
0000e0 ff b7 d8 3c d6 65 ca 3d 4e ea c5 3d 02 8e 37 be
       0.026454924 0.09882705 0.09663831 -0.17925265
0000f0 89 cf f6 3c 5a 46 1b be 20 e6 80 bc ec 4a 54 be
       0.030128257 -0.15163556 -0.015734732 -0.20731705
000100 db 62 3d 3e 23 85 4e 3c c1 40 0f bd 4d 5e bb 3b
       0.18494742 0.012604984 -0.034973864 0.0057180286
000110 21 40 44 be 11 08 57 bd 91 b4 31 be 53 71 39 be
       -0.19165088 -0.052497927 -0.17354037 -0.18109636
000120 4c c1 b0 bd 76 2a eb bc 73 47 15 3e 7d b4 3f 3e
       -0.086306185 -0.02870677 0.14578037 0.18721195
000130 84 4c a8 3c 34 60 1b 3e 57 5c 1b 3e 9e 2e 09 bc
       0.020544298 0.15173417 0.15171944 -0.008372931
000140 8a af c4 bd 7a 2d d7 3d 51 71 37 3d 28 0d ef bd
       -0.09603794 0.10506721 0.0447858 -0.11672431
000150 d6 31 58 be 84 eb 53 3c c0 cf 37 bd a8 55 1e 3e
       -0.21112761 0.012934569 -0.04487586 0.15462363
000160 82 21 f6 3d 81 ba 18 be 4c a3 6f 3d 60 c2 b7 bd
       0.1201811 -0.14914896 0.05850534 -0.08972621
000170 08 27 23 3e 4c 43 f0 3d de f4 1b be a8 d1 44 3d
       0.15932858 0.11731586 -0.15230128 0.048051506
000180 bb b3 25 3e 76 38 c9 bd 3a 13 2d 3e 13 44 13 be
       0.16181843 -0.09825222 0.16901866 -0.14381437
000190 f5 5a 61 3e 29 e4 20 be 89 26 24 be d4 8b 56 3d
       0.22007354 -0.15712036 -0.16030325 0.052379444
0001a0 44 b1 86 3e 8c 1d 2c 3e 1b ac 4a 3d d8 82 1a bf
       0.26307118 0.16808146 0.04948054 -0.603559
0001b0 3e a3 66 be 59 17 87 bd 05 a4 f3 be 3b 9b 19 3e
       -0.2252321 -0.0659625 -0.47586074 0.15000622
0001c0 09 12 bb 3d 4a 6b 93 be 0b 56 9c be 79 83 7a 3b
       0.09134299 -0.28792793 -0.30534396 0.0038225336
0001d0 fd cf 78 bd ca 0f 88 3e 45 3f 44 3d 53 53 44 be
       -0.060745228 0.26574546 0.0479119 -0.1917241
0001e0 0b c2 63 bd 77 5d a1 3d dc 89 fa bd 03 bf d9 bd
       -0.055604976 0.07879155 -0.12233326 -0.10632136
0001f0 55 b6 d2 3c 44 db ab bd c6 f8 9e be b1 81 23 3e
       0.025721708 -0.08391431 -0.31049174 0.15967442
000200 6f e9 91 be 95 cf 1f bd 51 27 72 bc 04 03 1d bc
       -0.28498408 -0.039016325 -0.014779882 -0.0095832385
000210 f8 51 06 be a2 19 0a 3e 8c a6 40 bd 7e 4c 2c 3e
       -0.13117206 0.1348634 -0.04703383 0.16826054
000220 79 e8 50 3e e4 94 ff 3d 44 cf 8e bd cb 1f ad bc
       0.20401181 0.124795705 -0.069731265 -0.021133324
000230 6a 49 ea 3d 38 da 85 bd 35 b1 f0 be 62 98 b1 bd
       0.11439784 -0.065357625 -0.47010198 -0.08671643
000240 f0 6c de 3d 70 c9 d9 3e 57 8e cc be 09 06 40 bf
       0.10860622 0.42536497 -0.39952347 -0.7500921
000250 7d a2 b1 bd 8c 41 95 3e 9c 73 1b be f6 34 ca 3d
       -0.0867357 0.2915157 -0.1518082 0.09873383
000260 1a 72 b0 bd e5 1f 26 be bf 7e 9d be 33 19 f8 3d
       -0.08615513 -0.16223104 -0.30760762 0.12114181
000270 56 b8 ef bb 46 55 14 bd 17 8b 04 be 2b f2 b3 bd
       -0.0073156757 -0.036214136 -0.12943684 -0.08786424
000280 44 b1 78 bd 4c 32 cf 3d c4 bd bb bd 5c d1 25 3e
       -0.06071593 0.10117015 -0.09167054 0.16193146
000290 68 6d 9b bd 20 a4 f2 3c 30 f0 6a bd 23 71 ca bd
       -0.07589227 0.029619277 -0.057357967 -0.0988486
0002a0 68 a0 af bc 30 f3 98 bd 10 81 48 3e 28 33 66 bd
       -0.021438792 -0.07468259 0.19580483 -0.05620113
0002b0 b0 ce 6f bd 8c a4 c8 3d 00 81 8a 3d c4 e6 1c bd
       -0.058546722 0.0979701 0.06762886 -0.038306013
0002c0 8a d2 14 be de 37 0d 3e 98 b6 a4 3d a6 c8 91 bd
       -0.1453344 0.13790843 0.080426395 -0.07118349
0002d0 0d 8d 48 bd bf f6 e0 b9 6b 5a 15 be 8e f0 1a be
       -0.04896264 -0.0004290845 -0.14585273 -0.15130827
0002e0 92 47 1d 3c dc bb 6d be f2 6d b5 bd c4 51 48 bd
       0.009599583 -0.23216194 -0.08858861 -0.048906103
0002f0 6d f2 6a bb 26 91 b2 bd 21 20 7e 3d 86 10 85 3d
       -0.0035850063 -0.08719091 0.06204236 0.06497292
000300 18 1c 94 bc 0b 98 a6 3d df 25 30 3e 2a 89 b4 bd
       -0.018079802 0.08134469 0.17201947 -0.088152245
000310 a5 b5 de 3d bd 3f 92 bd 91 77 6f 3e 5a 9f d9 3c
       0.1087449 -0.07141063 0.23385455 0.026565243
000320 1c 60 51 3e 10 a3 2a 3d 00 c8 2d 3c 38 8c 2d be
       0.20446819 0.041659415 0.010606766 -0.1694802
000330 c8 90 b6 bd 06 a8 a6 bd 78 99 0c 3e 90 ed 99 bc
       -0.089143336 -0.08137517 0.13730419 -0.018790036
000340 f8 16 5f bd 90 dd 16 3c 00 7b 5a bc f8 2f 09 bd
       -0.054465264 0.009208098 -0.01333499 -0.033493012
000350 80 cf 03 bc a0 42 4b bc 18 8e 38 3d 8c 0e ca 3d
       -0.008045077 -0.012406021 0.045057386 0.09866056
000360 94 12 ff 3d 44 fc 4f 3e e8 ea 0c 3e f0 30 6f bc
       0.12454715 0.20311075 0.13761485 -0.01459907
000370 c5 4d e5 3c 1e 2d 2f bc 4c 67 41 3e d5 f0 02 3c
       0.027991185 -0.010691909 0.18887061 0.007991989
000380 06 18 6e be 9e d3 ee bc 9b 3e ee bd 83 e7 f0 bd
       -0.23251352 -0.029153641 -0.11633035 -0.11762907
000390 31 6e c2 3d 30 85 fa 3c 04 c5 30 3e 2c 4c 52 be
       0.094936736 0.030581087 0.17262655 -0.2053687
0003a0 ea 82 aa 3d 2e 73 9a 3d 19 b8 ef 3d 07 11 1a be
       0.08325751 0.075415 0.11705036 -0.15045558
0003b0 b4 3e aa 3d 83 b0 01 3d 78 e5 5b bd bb 18 dd 3d
       0.08312741 0.031662475 -0.053685635 0.107957326
0003c0 3e 30 48 3d f3 1f 33 3e 83 85 1d 3c b8 6c ad 3d
       0.048874132 0.17492656 0.009614351 0.08468002
0003d0 0f 52 09 3e 70 04 e9 3d 46 75 d8 bd b1 ad bf 3d
       0.13410209 0.113777995 -0.10569243 0.09359301
0003e0 3b 4a 9a 3d 7c d8 99 bd f1 b5 ee 3c 42 74 fa 3d
       0.075336896 -0.07511994 0.02913949 0.12229206
0003f0 4f 01 e1 bd 8f e4 19 3e ad 97 bb bd 81 09 e9 bd
       -0.10986578 0.15028594 -0.09159789 -0.11378766

linear.0.bias f4 [20]
000000 e8 3f d6 3d 5f b2 b1 bc 5a 4f b3 3e 40 58 73 3d
       0.10461408 -0.0216915 0.35021478 0.059410334
000010 f3 1a 4f 3e e1 6f 58 3e 46 b9 54 3d 48 4e 51 3d
       0.20225124 0.21136428 0.051934503 0.051100045
000020 90 3d fc 3c 3c 19 13 3e 0d 0e 1c be 54 67 03 3e
       0.030791074 0.14365095 -0.15239735 0.12832385
000030 9d 68 90 3d 73 49 01 3e 7c 5d 11 bd 76 6f aa bd
       0.070512034 0.12625675 -0.035489544 -0.08322041
000040 85 31 49 be 27 e7 22 3e e8 0a 30 bd 65 f6 11 3e
       -0.19647796 0.1590849 -0.04297915 0.14254148

linear.2.weight f4 [4, 20]
000000 16 38 3d 3e 52 9d 0b be ae a5 f6 3e 9b 8c 30 be
       0.18478426 -0.13634232 0.4817328 -0.17241137
000010 e9 83 d8 bd 85 ef 5b 3e 17 19 6d be 66 f2 df 3d
       -0.10572035 0.21478088 -0.23154102 0.10934906
000020 56 77 52 3e 80 18 10 3e 58 1a fd bd 3f 79 30 be
       0.20553336 0.14071846 -0.1235854 -0.17233752
000030 7e 3a 1a bd 3e 77 08 3f 58 6b c3 3d ce b9 cf bc
       -0.03765344 0.5330695 0.095419586 -0.025357153
000040 54 1c 37 3e 93 6a 13 3e a6 a3 96 3e ce 26 91 3d
       0.178819 0.14396124 0.2942173 0.070874795
000050 40 b4 5a 3e e1 ff 20 be 1c df 11 3f 92 fd 45 3e
       0.21357822 -0.1572261 0.5698106 0.1933501
000060 8a 69 33 be cb b1 e2 3d 7d aa c6 bc 14 db b4 3d
       -0.17520729 0.110690676 -0.024251217 0.08830848
000070 40 4b fc 3b 44 6b 33 be 9f 86 dc bd 58 91 56 bd
       0.0076994 -0.17521387 -0.107678644 -0.052384704
000080 9e 12 b3 bc f2 8c c8 3e cc cc 56 bd 75 f6 79 bd
       -0.021859463 0.39170033 -0.052441403 -0.061026055
000090 85 be 49 be db 4f 06 be 44 e8 ef bc f8 35 7d 3e
       -0.19701584 -0.131164 -0.029285558 0.24727619
0000a0 20 30 13 3d b3 f0 2f be d4 91 9d 3e 0c d1 bb bd
       0.035934567 -0.17181663 0.3077532 -0.09170732
0000b0 30 1b c4 bd 1d ff 03 3e 41 10 90 3d 4d 26 70 3d
       -0.09575498 0.12890287 0.0703435 0.058630276
0000c0 40 35 b3 bc 4e c4 fa bb 36 91 34 3e 3c f5 bc bd
       -0.021875978 -0.007652796 0.17633519 -0.09226462
0000d0 c9 7a 0e 3e 4c 6c cc 3e 3f 07 3b be fa 15 1f bd
       0.13914026 0.39926374 -0.18264483 -0.038839318
0000e0 9d 41 56 be ef 8b 39 3d 44 ab 8e be a3 a8 5a bd
       -0.20923467 0.045299467 -0.2786504 -0.05338348
0000f0 32 ca 34 be 96 86 ec 3d 79 89 c6 bf e3 3f 7d 3c
       -0.17655256 0.11549108 -1.5510703 0.015457126
000100 bf 1c 56 3d 20 96 5e be e6 a0 20 bf 67 8b a8 be
       0.05227351 -0.21736956 -0.6274551 -0.32918856
000110 80 5a 28 be 86 33 c3 3d 1e cc 10 be 6b 15 12 be
       -0.16440773 0.09531312 -0.14140365 -0.14265983
000120 fd 04 b9 3d 56 b9 f0 bf 4e 29 2b 3e 74 a4 6e be
       0.090341546 -1.880656 0.16714975 -0.23304921
000130 d1 e2 24 be 31 1d 3c bd 0a 6b 11 bf bf 7c 97 3d
       -0.16102149 -0.045926277 -0.56803954 0.0739684

linear.2.bias f4 [4]
000000 83 ba a8 3c 55 71 fc 3d 3c 31 52 3d 46 48 60 be
       0.020596748 0.12326304 0.051316485 -0.2190257
