src/k_clustering/output/BA_Shapes/model.pkl (torch, 11099 bytes, 12 tensors)

conv0.weight f4 [1, 20]
0.5220031 0.2359109 -0.7175721 -0.0734424 -0.55973095 -0.4783522 0.17912233 0.12692954
-0.31245482 -0.31548473 -0.6455277 -0.41552985 0.00030073724 0.031996675 0.42055652 0.5767005
0.6791088 0.12208408 -0.5593269 -0.15760565
00000000: ffa1 053f a192 713e ceb2 37bf f868 96bd
00000010: 874a 0fbf 94ea f4be d86b 373e d1f9 013e
00000020: 14fa 9fbe 3787 a1be 4e41 25bf 54c0 d4be
00000030: 45ac 9d39 f20e 033d 2f53 d73e a5a2 133f
00000040: 13da 2d3f 3807 fa3d 0c30 0fbf 6063 21be

conv0.bias f4 [20]
0.103214085 0.46436307 0.7175642 0.5111017 0.79372764 0.8552461 0.71776676 0.34962755
0.9551604 0.7932662 0.12892503 0.64733565 0.73908985 0.64797306 0.95181865 0.19352736
0.5506444 1.0041708 0.18642789 0.34144703
00000000: e861 d33d ffc0 ed3e 4ab2 373f 90d7 023f
00000010: bc31 4b3f 69f1 5a3f 90bf 373f 6202 b33e
00000020: 6485 743f 7e13 4b3f ec04 043e cab7 253f
00000030: fe34 3d3f 90e1 253f 63aa 733f 092c 463e
00000040: 08f7 0c3f ab88 803f f4e6 3e3e 25d2 ae3e

conv1.weight f4 [20, 20]
0.39362508 0.19356938 0.4453061 -0.029331181 0.32467067 -0.5339391 -0.34737417 0.113815546
-0.3886882 -0.009435236 -0.17390591 0.47085628 -0.163636 0.2213551 0.075307064 0.46540433
0.014042587 0.2598838 -0.4663593 -0.42189246 0.32872123 0.29163006 -0.25890934 0.4007626
0.18061298 -0.37410986 0.23052017 0.5787811 -0.1403969 0.42541957 -0.15290956 -0.55860656
-0.4327866 -0.1642165 0.48616874 0.16544096 0.4916232 0.25943047 -0.081761025 -0.3692663
-0.61348796 -0.31994152 -0.3096459 0.3794856 -0.13229677 -0.13840301 0.15801422 0.61557627
-0.056359112 0.28722942 -0.5038103 -0.62035275 -0.08403382 0.33052492 0.4716414 0.42602864
0.59614867 -0.49948952 0.022071194 0.69518834 -0.2539098 0.36720744 -0.43485877 0.23264144
0.28555232 0.41174585 -0.099594474 0.019724825 -0.32907188 0.5021839 -0.037539914 -0.15518676
0.035779595 0.28090283 -0.31883317 -0.5087384 -0.10843752 0.1665149 -0.008346253 -0.11023651
0.07879388 -0.012545462 0.4065697 -0.4505676 0.5281962 -0.07386497 0.3836133 0.34506005
-0.41195816 0.39288086 -0.25826883 -0.40304813 0.23970449 0.11771083 -0.2601765 -0.23189488
0.50968504 -0.56315136 0.020312555 0.13765752 -0.33615714 0.27546135 -0.47170025 -0.14975946
-0.11559659 0.24234246 -0.19462954 -0.43695617 -0.041690707 0.43124825 -0.33980393 0.48062778
0.30488247 -0.10765415 -0.09169192 0.3789858 0.016674282 0.104949266 0.011203391 0.12385619
-0.42060897 -0.35622808 0.5226034 0.2512678 0.028509498 0.45243996 -0.24868745 0.27293324
-0.2866978 0.42343396 0.31169987 0.150576 -0.03275335 0.39064282 0.26522684 0.21639837
-0.17379846 0.0012185072 -0.20314203 -0.3170228 0.17922696 0.4218033 0.34440055 -0.17696369
0.3131076 -0.104364425 0.48199996 -0.50664485 0.14750278 -0.4836893 0.28523988 0.3534474
0.41991806 -0.16382901 0.01052816 0.07806501 -0.17443565 0.49641743 0.30269364 0.26229164
-0.11701503 0.38913378 -0.25935704 -0.58308864 -0.17153129 -0.11747151 0.2782685 0.28184444
0.19742501 -0.1660262 0.39448574 0.52687895 -0.47192186 0.46329448 0.047906183 0.10890445
0.23133783 0.33441925 -0.04295001 -0.08641009 -0.07279855 -0.33400086 0.00018034174 -0.44841775
0.32686102 -0.4599023 0.39429855 -0.42102167 0.45610595 0.062042296 -0.54749775 0.17321964
-0.35263118 -0.47186613 -0.045979463 -0.24547553 0.14957008 0.45270678 -0.5495542 0.6066984
-0.30371764 -0.10823542 0.35504037 -0.22878394 -0.27605534 -0.12814459 0.21408647 -0.02371937
0.49897242 0.23648065 -0.49979803 -0.3942861 0.043158412 -0.020984054 -0.1664482 0.18012846
0.22986454 -0.31792134 -0.109267116 0.19610447 0.24889278 -0.026945902 0.25034586 0.046050534
-0.51406693 -0.60268396 0.009333217 0.30055484 -0.39045054 -0.2820638 -0.5923612 0.08620043
0.39698768 0.49063125 -0.46794945 0.43842143 -0.18809679 -0.48010337 0.28039145 0.5605317
0.044870704 -0.18486878 0.08845861 0.15263526 0.25329518 -0.3430237 -0.021814922 0.19594678
0.0793463 0.113884985 0.12761697 0.12102973 0.29648012 -0.27310959 0.41364324 -0.21216811
00000000: 3a89 c93e 0d37 463e 29ff e33e f247 f0bc
00000010: 3c3b a63e 3cb0 08bf 07db b1be 2018 e93d
00000020: 2402 c7be 4096 1abc 6414 32be 1314 f13e
00000030: 3290 27be e9aa 623e 973a 9a3d 7a49 ee3e
00000040: e112 663c 7d0f 853e a5c6 eebe 4a02 d8be
00000050: 264e a83e 8950 953e c48f 84be c130 cd3e
00000060: 9cf2 383e 548b bfbe 7b0d 6c3e 002b 143f
00000070: 34c4 0fbe 98d0 d93e 5394 1cbe d700 0fbf
00000080: 3596 ddbe 5f28 28be 1ceb f83e 5b69 293e
00000090: 09b6 fb3e 12d4 843e 5372 a7bd 7910 bdbe
000000a0: 8c0d 1dbf 60cf a3be e889 9ebe f04b c23e
000000b0: ce78 07be 85b9 0dbe 7bce 213e 6896 1d3f
000000c0: d0d8 66bd bc0f 933e b6f9 00bf 70cf 1ebf
000000d0: ec19 acbd 903a a93e fb7a f13e 6d20 da3e
000000e0: 339d 183f 17bd ffbe a6ce b43c ddf7 313f
000000f0: 7700 82be 9d02 bc3e cfa5 debe 8f39 6e3e
00000100: ea33 923e 5ad0 d23e 30f8 cbbd f595 a13c
00000110: 1c7c a8be 208f 003f 74c3 19bd 47e9 1ebe
00000120: a08d 123d 7fd2 8f3e 1a3e a3be ae3c 02bf
00000130: 7e14 debd e282 2a3e b9be 08bc aec3 e1bd
00000140: b05e a13d 7b8b 4dbc e729 d03e ccb0 e6be
00000150: de37 073f 8446 97bd f668 c43e b6ab b03e
00000160: 2eec d2be ae27 c93e d03b 84be 535c cebe
00000170: 1875 753e 6012 f13d db35 85be da75 6dbe
00000180: b87a 023f b02a 10bf 8466 a63c 18f6 0c3e
00000190: ca1c acbe 4509 8d3e b282 f1be 8b5a 19be
000001a0: e8bd ecbd 9f28 783e f74c 47be b8b8 dfbe
000001b0: e0c3 2abd 92cc dc3e c8fa adbe d814 f63e
000001c0: 8e19 9c3e c779 dcbd f9c8 bbbd 6d0a c23e
000001d0: 8198 883c a4ef d63d 6d8e 373c 50a8 fd3d
000001e0: 0f5a d7be 8763 b6be 56c9 053f 2ca6 803e
000001f0: c08c e93c 36a6 e73e eca7 7ebe e8bd 8b3e
00000200: 0eca 92be 56cc d83e 2097 9f3e 9830 1a3e
00000210: 6028 06bd 5602 c83e d0cb 873e 8997 5d3e
00000220: 39f8 31be 51b6 9f3a 7704 50be d050 a2be
00000230: 4687 373e 9af6 d73e 4555 b03e f835 35be
00000240: a44f a03e 04bd d5bd b3c8 f63e 7ab3 01bf
00000250: f80a 173e 20a6 f7be f60a 923e 0ff7 b43e
00000260: 80ff d63e cbc2 27be 4e7e 2c3c 8ce0 9f3d
00000270: 429f 32be 6d2a fe3e a9fa 9a3e 174b 863e
00000280: 93a5 efbd 8b3c c73e 72ca 84be 4c45 15bf
00000290: e6a5 2fbe e794 f0bd 3579 8e3e ea4d 903e
000002a0: c829 4a3e c602 2abe 09fa c93e 8ae1 063f
000002b0: be9f f1be ef34 ed3e 4639 443d 4c09 df3d
000002c0: d3e3 6c3e 0039 ab3e 5aec 2fbd c6f7 b0bd
000002d0: 6817 95bd 2902 abbe 1e1a 3d39 0397 e5be
000002e0: 545a a73e 5078 ebbe 80e1 c93e 2790 d7be
000002f0: b886 e93e 1020 7e3d d028 0cbf 7d60 313e
00000300: 138c b4be 7098 f1be f654 3cbd f05d 7bbe
00000310: e628 193e 2fc9 e73e 96af 0cbf 9650 1b3f
00000320: e180 9bbe 88aa ddbd dac7 b53e 5646 6abe
00000330: 2057 8dbe 5638 03be 7c39 5b3e 204f c2bc
00000340: 5079 ff3e fc27 723e 87e5 ffbe dedf c9be
00000350: e0c6 303d c0e6 abbc 6671 2abe 9873 383e
00000360: 9c61 6b3e 96c6 a2be 70c7 dfbd 9ccf 483e
00000370: c0dd 7e3e a7bd dcbc 552d 803e 7c9f 3c3d
00000380: e499 03bf 7f49 1abf 59ea 183c 53e2 993e
00000390: 22e9 c7be ab6a 90be fca4 17bf da89 b03d
000003a0: f841 cb3e 0534 fb3e 1297 efbe c678 e03e
000003b0: 729c 40be 1cd0 f5be 788f 8f3e 017f 0f3f
000003c0: 58ca 373d 3e4e 3dbe ca29 b53d 6b4c 1c3e
000003d0: e8af 813e cda0 afbe 35b5 b2bc 46a6 483e
000003e0: 5080 a23d 883c e93d 06ae 023e 6fde f73d
000003f0: 3ecc 973e 05d5 8bbe 0cc9 d33e 9942 59be

conv1.bias f4 [20]
0.6456229 -0.005099978 0.255033 0.31366774 0.49163938 0.61939967 0.79830915 0.6702706
0.1575489 0.003132403 0.9222965 0.48261338 0.05565226 0.35358143 0.6509431 0.46481273
0.8810983 0.39820328 0.51204383 1.088157
00000000: 8b47 253f b71d a7bb af93 823e 0f99 a03e
00000010: 28b8 fb3e fa90 1e3f fd5d 4c3f db96 2b3f
00000020: 8054 213e 0049 4d3b a01b 6c3f 1a19 f73e
00000030: a0f3 633d a008 b53e 35a4 263f effb ed3e
00000040: a88f 613f 4de1 cb3e 4e15 033f bb48 8b3f

conv2.weight f4 [20, 20]
-0.48641208 0.04430815 -0.47365022 -0.40152302 -0.5591347 0.17251194 -0.06373939 0.11347584
0.12131692 0.081423424 -0.4601426 -0.09709462 -0.19245529 -0.42743573 0.15777574 0.34429592
-0.2895321 -0.4337269 -0.34950715 -0.51063865 -0.3565134 -0.16098985 0.054593407 -0.2575146
-0.52099246 0.20488566 0.4637279 -0.044332936 -0.03447195 -0.3307835 0.17860651 0.1280602
-0.27893677 0.34850615 0.2701683 0.45992827 0.30656338 -0.374848 0.41284573 -0.010837615
-0.5038682 0.33719596 -0.40030333 -0.34089538 0.08095485 0.2643587 0.12964612 -0.56120926
-0.2818271 0.086103715 -0.15015051 0.29478404 0.40685916 -0.39269337 -0.5769376 -0.15527976
-0.15277368 -0.26205632 0.47836354 -0.32749176 0.31730217 0.20213984 0.50889033 -0.5125658
0.3816087 -0.294298 -0.13694938 -0.012227812 0.38976005 0.19808884 -0.31770682 0.19898851
-0.033584725 0.15216072 -0.04797994 -0.10738822 0.13603906 0.45156437 0.26138973 -0.18033373
0.0074748397 0.10425627 -0.3183856 0.46455634 0.28918028 0.23735172 0.5072651 -0.07207632
0.4133513 -0.06422588 0.44149637 -0.3294168 -0.5356362 0.28274024 0.18860608 -0.5196202
0.2378841 -0.11702928 0.22290343 0.49740708 0.4420935 0.019641757 0.26252848 -0.46895236
0.0090157045 0.15577227 0.27322334 0.18318744 0.3826441 0.023093276 0.17829657 -0.51438427
-0.23090297 0.22807418 0.17675863 0.23337027 0.19892012 -0.473966 0.16163889 -0.16400817
-0.08868787 -0.052976776 0.43032166 0.5063224 0.20248106 -0.27599433 0.19238684 0.03572147
0.44797555 -0.054204084 -0.5162454 0.21458611 -0.3714751 0.045995813 0.3275092 0.17229833
0.46904206 0.42981467 -0.56373453 0.013487816 0.15812892 -0.11855199 -0.3152791 0.5480648
-0.38007864 -0.614855 -0.4357946 -0.48782358 0.10083854 0.25786027 -0.034151614 -0.4102257
0.48687693 -0.06997368 -0.27984938 -0.01624251 0.15421763 -0.20544426 0.1390859 0.22897017
-0.36094424 0.49251795 0.36295587 -0.026065886 0.3528875 -0.15125117 -0.11706343 0.22885036
-0.40629366 -0.13260207 -0.36443633 -0.046972513 -0.2163373 -0.18113193 -0.119702786 0.42158675
0.13471806 -0.52900183 -0.37925017 -0.042660058 0.18098587 0.34085906 0.5007404 -0.36950436
0.5175445 0.3678664 -0.43583706 -0.45060068 -0.42755607 0.010656238 -0.118754864 -0.53516096
-0.15556428 0.34309548 -0.03913915 -0.43709934 -0.35982576 0.20448214 0.17140341 -0.23772722
-0.4485088 0.22255264 -0.26824012 -0.44123656 0.560336 0.089136735 -0.04504703 -0.028615942
0.50087947 -0.5722655 -0.10896513 -0.11063499 -0.5364584 0.43501973 -0.61021626 -0.3464294
0.18268424 0.40613127 -0.090946645 0.4536836 -0.011186123 -0.5157298 -0.5911197 -0.2811135
-0.0634698 0.382573 -0.22670153 -0.23513582 0.4555137 -0.23471807 0.23729926 0.033160217
-0.26334414 -0.38330048 0.44918287 -0.3361485 0.010248074 0.033475157 0.030980634 -0.044253767
-0.10585892 -0.23052701 0.1892811 -0.15972531 0.20414501 0.28211278 0.19416964 -0.25778756
-0.37661594 -0.14961654 0.17513937 0.05902767 0.53540754 0.36999422 -0.25625363 0.39348984
00000000: 010b f9be 767c 353d 4882 f2be 6d94 cdbe
00000010: 7423 0fbf f8a6 303e cc89 82bd 0566 e83d
00000020: 0175 f83d 53c1 a63d d097 ebbe 8bd9 c6bd
00000030: 0013 45be dbd8 dabe f78f 213e 8e47 b03e
00000040: 8d3d 94be 7411 debe 9af2 b2be 37b9 02bf
00000050: ed88 b6be 86da 24be 569d 5f3d f4d8 83be
00000060: c35f 05bf 8ccd 513e be6d ed3e 7496 35bd
00000070: 7632 0dbd 745c a9be a0e4 363e 3722 033e
00000080: cdd0 8ebe 666f b23e 8053 8a3e b87b eb3e
00000090: e0f5 9c3e 14ec bfbe 8460 d33e 4090 31bc
000000a0: 82fd 00bf f3a4 ac3e 8ff4 ccbe d789 aebe
000000b0: a8cb a53d 065a 873e f4c1 043e 69ab 0fbf
000000c0: a44b 90be 2557 b03d 0ec1 19be efed 963e
000000d0: d84f d03e 1b0f c9be 2fb2 13bf a801 1fbe
000000e0: b470 1cbe 3f2c 86be 11ec f43e 00ad a7be
000000f0: 6e75 a23e bffd 4e3e a346 023f 8337 03bf
00000100: 3762 c33e 3aae 96be 753c 0cbe 2957 48bc
00000110: a18e c73e cdd7 4a3e 78aa a2be a5c3 4b3e
00000120: 2390 09bd 05d0 1b3e 9d86 44bd 5bee dbbd
00000130: d34d 0b3e 7233 e73e e0d4 853e 68a9 38be
00000140: 80ef f43b 5084 d53d 7003 a3be 54da ed3e
00000150: 700f 943e 540c 733e 20dc 013f c09c 93bd
00000160: c8a2 d33e dc88 83bd d00b e23e 52a9 a8be
00000170: 741f 09bf 54c3 903e f421 413e d405 05bf
00000180: e497 733e 0cad efbd cc40 643e 24ac fe3e
00000190: 145a e23e c0e7 a03c 226a 863e 861a f0be
000001a0: 9bb6 133c c482 1f3e eee3 8b3e 7d95 3b3e
000001b0: ede9 c33e 1c2e bd3c 6093 363e b0ae 03bf
000001c0: d471 6cbe 478c 693e 3700 353e 9ef8 6e3e
000001d0: b7b1 4b3e acab f2be aa84 253e c2f1 27be
000001e0: fca1 b5bd 2dfe 58bd 1f53 dc3e 589e 013f
000001f0: 3257 4f3e 214f 8dbe 0e01 453e ad50 123d
00000200: 0d5d e53e 1a05 5ebd a928 04bf 76bc 5b3e
00000210: fc31 bebe 1b66 3c3d 49af a73e f96e 303e
00000220: 4826 f03e ab10 dc3e e850 10bf 00fc 5c3c
00000230: 8cec 213e 63cb f2bd 436c a1be fa4d 0c3f
00000240: ab99 c2be 2367 1dbf 7820 dfbe 03c4 f9be
00000250: 7084 ce3d 4306 843e 90e2 0bbd 1a09 d2be
00000260: ef47 f93e 5c4e 8fbd 6b48 8fbe 030f 85bc
00000270: 3aeb 1d3e fb5f 52be 896c 0e3e 2877 6a3e
00000280: afcd b8be 502b fc3e 5ad5 b93e 2088 d5bc
00000290: acad b43e 96e1 1abe f4be efbd c057 6a3e
000002a0: b905 d0be d6c8 07be 6697 babe 4066 40bd
000002b0: 8687 5dbe a67a 39be bc26 f5bd 38da d73e
000002c0: 88f3 093e aa6c 07bf 142d c2be 50bc 2ebd
000002d0: 5c54 393e 1485 ae3e 8630 003f ad2f bdbe
000002e0: cc7d 043f fc58 bc3e 0926 dfbe 22b5 e6be
000002f0: a1e8 dabe 8097 2e3c c035 f3bd 4f00 09bf
00000300: 3e4c 1fbe 36aa af3e 6050 20bd 7ccb dfbe
00000310: 153b b8be c463 513e 6084 2f3e c46e 73be
00000320: f2a2 e5be d7e4 633e c556 89be c2e9 e1be
00000330: 2e72 0f3f 528d b63d 3c83 38bd fb6b eabc
00000340: a339 003f fe7f 12bf 1c29 dfbd 9994 e2bd
00000350: 5655 09bf e8ba de3e 2237 1cbf 325f b1be
00000360: 9411 3b3e 70f0 cf3e 3c42 babd 3849 e83e
00000370: 0046 37bc de06 04bf 9f53 17bf 1cee 8fbe
00000380: 74fc 81bd 9ce0 c33e 7224 68be 72c7 70be
00000390: 1739 e93e ef59 70be 94fe 723e 02d3 073d
000003a0: 0bd5 86be f63f c4be 4cfb e53e a81b acbe
000003b0: 8ae7 273c 3f1d 093d 19cb fd3c 7043 35bd
000003c0: 90cc d8bd 460f 6cbe e8d2 413e 088f 23be
000003d0: 640b 513e 1671 903e 68d4 463e bbfc 83be
000003e0: ced3 c0be 1435 19be bc57 333e 00c7 713d
000003f0: 7810 093f e26f bd3e ad33 83be 8077 c93e

conv2.bias f4 [20]
0.5268819 0.5311827 0.6218059 0.50552493 0.8213894 0.8261099 0.42350975 0.7481681
0.60310924 0.7665016 0.90784425 0.4102604 0.50565267 0.27504182 0.3676759 -0.025046999
0.27264535 0.82640684 0.8277544 0.26410568
00000000: bbe1 063f 97fb 073f ac2e 1f3f 156a 013f
00000010: 9346 523f f07b 533f 45d6 d83e f287 3f3f
00000020: 5e65 1a3f 7339 443f 7b68 683f a70d d23e
00000030: 7472 013f 48d2 8c3e 0440 bc3e 5d2f cdbc
00000040: 2c98 8b3e 668f 533f b6e7 533f dc38 873e

conv3.weight f4 [20, 20]
0.30978853 0.049118698 0.021677554 0.211492 -0.30681026 -0.057955712 0.41778225 0.35485893
0.30875164 -0.076857775 0.055258095 0.35554326 0.09536606 0.30161953 0.27752304 0.24022293
0.25766814 -0.36694413 -0.48139596 -0.5427351 0.4301246 -0.30500647 -0.42993328 0.06929619
-0.10480679 0.17337005 -0.14225699 0.4233821 -0.5188735 -0.5399541 0.47056174 -0.23695843
0.13396509 0.19998927 0.086015984 -0.34678712 0.05893819 -0.3572463 0.46218848 0.08541938
0.422573 0.40252876 0.17598082 0.03268241 0.12821001 -0.3627601 0.5002025 -0.2258176
0.2280299 -0.02885146 0.18250532 0.41387904 -0.058123153 -0.06734264 0.15859516 -0.72072005
0.051779184 -0.021531178 -0.43652105 0.007475232 0.22915529 -0.6002562 0.41517833 0.13531479
0.46834043 -0.3029721 -0.38951546 0.08481821 0.3993203 -0.4451252 -0.39746 -0.12710224
0.3227478 -0.059599563 -0.769035 -0.48436517 -0.26753816 0.5788746 -0.46667504 0.51412356
0.29122308 0.04068849 -0.20629448 0.13625534 -0.44365022 -0.24473853 0.66646445 -0.38256693
-0.24054942 0.6194893 -0.4726467 0.3057953 -0.12803188 -0.14383732 0.62953323 0.27417487
-0.00727825 -0.014751328 0.36977926 -0.11380517 0.24881622 -0.34495234 -0.4521982 0.25027758
0.18822803 -0.41909817 -0.25281456 0.39559028 0.1375566 0.34447303 0.31671247 -0.3864739
0.026465986 0.43508977 -0.5648698 0.1950517 0.2845174 0.0144404685 0.4932468 -0.2055499
-0.102061614 -0.43466946 0.37550116 -0.54780656 0.38507164 -0.4077472 0.31843835 -0.42358893
0.29599854 -0.42317963 -0.39028063 -0.2628991 -0.61515653 0.533151 0.021236954 -0.5048932
-0.3015776 -0.059895065 0.154202 -0.21144982 0.40457878 -0.19070238 0.035990756 0.22013588
-0.5699037 -0.48297065 -0.4282178 -0.14159662 0.075247355 -0.2362779 -0.055013515 0.4041864
0.25127986 0.3617481 0.2777898 -0.0768965 0.10103554 0.49582165 -0.017376656 0.26103416
-0.12127974 0.40457118 -0.5862146 -0.31961414 -0.7499268 0.087062985 -0.30108857 -0.26100188
-0.6181589 0.120253645 0.3373796 0.2955565 0.2574133 -0.5435871 0.27423093 0.32580867
0.21258311 -0.514874 -0.4263883 -0.4729047 0.17815137 0.57290316 0.31047305 -0.41040742
-0.3605446 0.08087312 -0.07565553 -0.20878386 -0.20825662 -0.02300784 0.16232629 0.15163787
0.3909177 -0.27173483 0.6438895 0.25185522 -0.39402324 0.15961322 -0.07905614 0.35037962
0.39592105 -0.2943121 -0.31151956 -0.39818203 0.3975774 -0.45876524 -0.34099996 0.49343216
0.2822584 0.37595898 0.4719032 -0.47787642 -0.13626993 -0.046178043 0.50663567 -0.15477702
-0.03667295 0.31065887 0.2853158 -0.35747397 -0.48769692 -0.24137463 0.16285382 0.37712407
0.020536432 0.21373221 -0.002993117 0.06083346 -0.2828372 0.40719214 0.023495315 -0.06555559
0.20397818 0.30534554 -0.020738997 -0.24949805 -0.06294588 -0.28192544 -0.2954613 0.5102644
0.5878888 -0.30355358 0.4788404 -0.3871826 -0.2443727 0.0795433 -0.32941574 -0.61304545
-0.25605157 -0.21291053 0.11010991 -0.10065704 -0.63068825 -0.3657261 0.47048983 -0.011074742
00000000: 9a9c 9e3e b030 493d 2095 b13c 5c91 583e
00000010: 3c16 9dbe f862 6dbd 8ee7 d53e 12b0 b53e
00000020: b214 9e3e 9c67 9dbd 5056 623d c409 b63e
00000030: 484f c33d e06d 9a3e 8017 8e3e 00fd 753e
00000040: 14ed 833e 1ae0 bbbe 8879 f6be b0f0 0abf
00000050: 4b39 dc3e cf29 9cbe 3720 dcbe 29eb 8d3d
00000060: f1a4 d6bd eb87 313e d1ab 11be 8ac5 d83e
00000070: e5d4 04bf 6f3a 0abf 78ed f03e 3ba5 72be
00000080: 252e 093e fdc9 4c3e 2629 b03d 158e b1be
00000090: 2c69 713d fde8 b6be f8a3 ec3e 5bf0 ae3d
000000a0: 7d5b d83e 4018 ce3e 5134 343e fedd 053d
000000b0: 7c49 033e b1bb b9be 450d 003f bb3c 67be
000000c0: ac80 693e e659 ecbc ade2 3a3e f4e7 d33e
000000d0: 8b12 6ebd f0ea 89bd c566 223e 1c81 38bf
000000e0: 6916 543d 2762 b0bc b07f dfbe caf2 f43b
000000f0: afa7 6a3e 64aa 19bf 4192 d43e f68f 0a3e
00000100: 51ca ef3e 291f 9bbe 926e c7be 2bb5 ad3d
00000110: b673 cc3e 73e7 e3be e17f cbbe 1727 02be
00000120: 333f a53e ac1e 74bd 7adf 44bf b6fe f7be
00000130: c3fa 88be 2031 143f 08f0 eebe 9a9d 033f
00000140: 311b 953e f9a8 263d dc3e 53be 8586 0b3e
00000150: 1f26 e3be bd9c 7abe 6a9d 2a3f d0df c3be
00000160: 9652 76be da96 1e3f c0fe f1be 3491 9c3e
00000170: ca1a 03be 174a 13be 1729 213f a660 8c3e
00000180: 637e eebb 8eaf 71bc b553 bd3e af12 e9bd
00000190: aec9 7e3e 989d b0be 8686 e7be 6224 803e
000001a0: d9be 403e 0994 d6be e970 81be cf8a ca3e
000001b0: a3db 0c3e c55e b03e 2328 a23e e8df c5be
000001c0: 32cf d83c 16c4 de3e 4f9b 10bf a2bb 473e
000001d0: 44ac 913e b797 6c3c d88a fc3e ac7b 52be
000001e0: ae05 d1bd ff8c debe b041 c03e 0d3d 0cbf
000001f0: 1c28 c53e 3ec4 d0be 5a0a a33e a6e0 d8be
00000200: 1f8d 973e 00ab d8be ddd2 c7be b69a 86be
00000210: e67a 1dbf 957c 083f 1ff9 ad3c ae40 01bf
00000220: 6168 9abe 8754 75bd 21e7 1d3e 4d86 58be
00000230: f324 cf3e 7c47 43be 0b6b 133d 4d6b 613e
00000240: 35e5 11bf ee47 f7be 5d3f dbbe b4fe 10be
00000250: 491b 9a3d d5f2 71be da55 61bd 85f1 ce3e
00000260: c1a7 803e 0c37 b93e 773a 8e3e ea7b 9dbd
00000270: b9eb ce3d 56dc fd3e 7d59 8ebc 45a6 853e
00000280: 8361 f8bd f423 cf3e 2912 16bf 77a4 a3be
00000290: 34fb 3fbf 144e b23d 4828 9abe 0aa2 85be
000002a0: a93f 1ebf 8b47 f63d 05bd ac3e 2e53 973e
000002b0: adcb 833e 8628 0bbf ff67 8c3e 65d0 a63e
000002c0: 63af 593e c8ce 03bf 914f dabe 9120 f2be
000002d0: 506d 363e c8a9 123f 53f6 9e3e ec20 d2be
000002e0: 4d99 b8be cea0 a53d 49f1 9abd 70cb 55be
000002f0: 3941 55be f07a bcbc dd38 263e f546 1b3e
00000300: 5d26 c83e d420 8bbe f1d5 243f 2bf3 803e
00000310: 6abd c9be a671 233e 2fe8 a1bd f564 b33e
00000320: 2ab6 ca3e 13b0 96be 7e7f 9fbe 84de cbbe
00000330: 448f cb3e 47e3 eabe 8c97 aebe 24a3 fc3e
00000340: 2c84 903e b27d c03e 4c9d f13e 38ac f4be
00000350: 588a 0bbe 3025 3dbd e0b2 013f de7d 1ebe
00000360: 6036 16bd ae0e 9f3e ea14 923e d406 b7be
00000370: 69b3 f9be e92a 77be 27c3 263e 6816 c13e
00000380: 053c a83c 9edc 5a3e 2c28 44bb 822c 793d
00000390: 0ad0 90be 7d7b d03e 3f79 c03c 0242 86bd
000003a0: a8df 503e 4056 9c3e d4e4 a9bc 6b7c 7fbe
000003b0: c5e9 80bd 8858 90be b446 97be b0a0 023f
000003c0: e17f 163f 606b 9bbe 922a f53e cc3c c6be
000003d0: d63c 7abe 99e7 a23d 2ea9 a8be 8cf0 1cbf
000003e0: 3119 83be 3805 5abe 4e81 e13d 4725 cebd
000003f0: c974 21bf 7440 bbbe 0be4 f03e d672 35bc

conv3.bias f4 [20]
0.73305744 0.8641658 0.60085666 0.68538994 0.8440268 0.5270989 1.216933 0.645447
0.45052448 0.80711967 -0.12382053 0.8621386 0.81563437 0.8011745 0.57135874 0.23090027
0.18346788 0.75565034 0.5867295 0.79154176
00000000: a7a9 3b3f f839 5d3f bed1 193f b775 2f3f
00000010: 2412 583f f4ef 063f 76c4 9b3f 043c 253f
00000020: 25ab e63e 659f 4e3f 9e95 fdbd 1eb5 5c3f
00000030: 6acd 503f c619 4d3f 9144 123f 1f71 6c3e
00000040: 01df 3b3e 4d72 413f e833 163f 7ba2 4a3f

linear.0.weight f4 [20, 20]
-0.15186572 0.3075448 -0.30998504 0.07597009 -0.6692505 -0.028198542 -0.38564974 0.36357683
-0.3539214 -0.09774742 0.43969065 0.014597242 0.14073028 -0.32477358 0.22163655 0.3280434
0.20941977 -0.5723812 -0.23802687 -0.02134808 -0.5451836 0.26476428 -0.3523702 0.52728486
-0.080815606 0.4697035 -0.19071908 0.35757038 0.050645735 0.19042733 0.5472943 0.436924
0.4491635 0.03492174 0.07999434 0.3989357 0.25325158 -0.1547876 0.021984598 -0.25546733
-0.36496404 -0.037865918 -0.08307787 0.51781416 0.13204825 0.4436885 -0.3475511 0.71752167
0.006587345 -0.39093277 0.42041934 -0.33046842 0.17703344 -0.35881603 -0.0983676 0.1228768
0.2417597 -0.44406304 -0.377064 -0.32889694 -0.2582549 0.48839748 -0.44973743 0.4216456
-0.47370914 0.26961094 -0.38697284 0.44631317 -0.4061772 0.45386752 0.3639621 -0.031926252
0.22470358 -0.19841354 0.39107633 0.3859054 0.53488296 -0.4997603 -0.10930135 -0.33247688
-0.150289 -0.21297386 0.20994456 -0.64544946 0.12599334 -0.2617108 -0.39446446 -0.38808477
0.17044047 -0.44102752 -0.26324522 -0.1441168 -0.29804873 -0.2710668 -0.19170105 -0.16044272
-0.4685928 0.14519413 -0.12195904 -0.2511971 -0.1885084 0.16357197 -0.5142573 0.27450478
-0.28526488 0.3940174 -0.123192534 0.058042396 -0.003637794 0.22013968 0.5749997 0.28627962
0.43667153 -0.28561494 0.5898168 0.27501804 0.21619466 -0.569704 0.076951444 -0.37865672
0.41744706 -0.21111284 0.51200163 -0.11683467 0.042987637 -0.26311725 0.122578725 -0.036577374
0.40427464 -0.44977427 -0.32191044 0.033378966 0.015541154 -0.16454113 0.16868316 -0.1857872
-0.20219629 0.5265276 -0.33830237 0.18267271 -0.517189 0.4965572 -0.23168488 0.18211229
-0.59060663 0.17948192 -0.03437673 0.25751585 -0.6686498 0.60719794 0.5375922 0.16822599
0.29516974 -0.0038511928 0.54747254 0.39538836 0.46172315 -0.5385539 8.562852e-05 -0.43150055
-0.18354759 0.41383007 -0.34242246 0.3472302 -0.58047754 0.006124107 -0.49103612 0.43942088
-0.6023676 0.22011386 0.56247383 -0.15640578 0.40476385 0.026358824 0.23286189 0.39331695
0.5256117 -0.79147637 -0.23182525 -0.24729978 0.07010341 -0.15264013 -0.18412584 0.21429631
-0.10538692 -0.21811156 0.09822801 -0.1149812 -0.07803869 -0.078424886 0.20640802 0.08509377
0.21910462 -0.079025865 0.16207835 -0.18144965 0.13541153 0.009151563 0.0083503425 0.1904473
0.01951132 -0.48849866 0.13305788 -0.47468206 0.0044237506 -0.15221891 -0.52811533 -0.47602847
0.3225901 -0.5116186 -0.53137124 -0.16832009 -0.3956709 -0.25914833 -0.15213408 -0.09858365
-0.51408094 0.29835802 -0.0067561097 -0.048161596 0.5914191 0.6698198 0.35168177 0.11587271
0.45553368 0.24932602 0.47928303 0.26323465 0.06138706 0.5310547 -0.21480097 0.5899316
0.13718633 0.44240022 0.44178477 0.2778779 -0.1275022 0.4249497 0.17016849 0.44847766
-0.3441459 -0.34965423 0.2958924 -0.4362585 0.28802344 -0.35833335 -0.60470164 -0.4123275
0.40233663 -0.6402366 -0.21926448 -0.40700197 -0.27916476 -0.31891036 -0.41177166 -0.32417825
00000000: b082 1bbe 8376 9d3e 5cb6 9ebe 3596 9b3d
00000010: 0054 2bbf a100 e7bc e273 c5be be26 ba3e
00000020: 3035 b5be cd2f c8bd 221f e13e 4529 6f3c
00000030: 991b 103e b948 a6be b1f4 623e 4ef5 a73e
00000040: 2372 563e 9387 12bf 51bd 73be 2be2 aebc
00000050: 2791 0bbf 2f8f 873e de69 b4be 24fc 063f
00000060: a782 a5bd fa7c f03e dd4b 43be 7713 b73e
00000070: e771 4f3d 62ff 423e 7b1b 0c3f 81b4 df3e
00000080: c2f8 e53e 190a 0f3d 13d4 a33d 4d41 cc3e
00000090: 31aa 813e a480 1ebe 0b19 b43c 9dcc 82be
000000a0: 91dc babe 4b19 1bbd bb24 aabd 788f 043f
000000b0: a837 073e 242b e33e 38f2 b1be 80af 373f
000000c0: a8da d73b 5728 c8be 3441 d73e 2833 a9be
000000d0: 4148 353e bcb6 b7be f474 c9bd d5a6 fb3d
000000e0: db8f 773e 3b5c e3be 880e c1be 2e65 a8be
000000f0: fc39 84be 3c0f fa3e fc43 e6be efe1 d73e
00000100: 018a f2be 720a 8a3e 4e21 c6be 2983 e43e
00000110: 75f6 cfbe 5361 e83e 3e59 ba3e 1ac5 02bd
00000120: b218 663e eb2c 4bbe 283b c83e 6595 c53e
00000130: 17ee 083f 95e0 ffbe 63d9 dfbd 693a aabe
00000140: 5ce5 19be d215 5abe b5fb 563e 2d3c 25bf
00000150: 6604 013e f5fe 85be 3ff7 c9be 0cb3 c6be
00000160: f287 2e3e 5cce e1be 14c8 86be 5b93 13be
00000170: d899 98be 45c9 8abe 484d 44be 194b 24be
00000180: 65eb efbe c5ad 143e a9c5 f9bd e89c 80be
00000190: 5908 41be 697f 273e 5ea6 03bf e48b 8c3e
000001a0: 3d0e 92be a6bc c93e 5e4c fcbd ddbd 6d3d
000001b0: 0e68 6ebb 4c6c 613e 2e33 133f 3e93 923e
000001c0: 6993 df3e 1f3c 92be 3cfe 163f 2acf 8c3e
000001d0: 2262 5d3e 1fd8 11bf b898 9d3d 4bdf c1be
000001e0: 9fbb d53e f72d 58be 8a12 033f 0447 efbd
000001f0: ce13 303d 4eb7 86be 8e0a fb3d 28d2 15bd
00000200: 16fd ce3e d048 e6be 72d1 a4be 62b8 083d
00000210: 53a0 7e3c 787d 28be 47bb 2c3e 003f 3ebe
00000220: 8b0c 4fbe 83ca 063f f835 adbe 8e0e 3b3e
00000230: 8066 04bf bf3c fe3e cd3e 6dbe a57b 3a3e
00000240: ff31 17bf 1cca 373e 9dce 0cbd 1ed9 833e
00000250: a22c 2bbf 5371 1b3f a49f 093f 6f43 2c3e
00000260: 7d20 973e 4b64 7cbb 2927 0c3f 5870 ca3e
00000270: fa66 ec3e abde 09bf 7693 b338 a4ed dcbe
00000280: e6f3 3bbe 89e1 d33e ff51 afbe 28c8 b13e
00000290: 2d9a 14bf bcac c83b 1669 fbbe c6fb e03e
000002a0: c334 1abf 8765 613e 49fe 0f3f d628 20be
000002b0: 353d cf3e 76ee d73c 5973 6e3e d760 c93e
000002c0: 7d8e 063f 329e 4abf 9963 6dbe 273c 7dbe
000002d0: 6092 8f3d b24d 1cbe 7c8b 3cbe 7e70 5b3e
000002e0: 19d5 d7bd a358 5fbe c42b c93d 437b ebbd
000002f0: c0d2 9fbd 3a9d a0bd a05c 533e a445 ae3d
00000300: f65c 603e 50d8 a1bd def7 253e f0cd 39be
00000310: 52a9 0a3e 70f0 153c e0cf 083c 9e04 433e
00000320: 34d6 9f3c 7f1c fabe 5340 083e 8709 f3be
00000330: 1cf5 903b 46df 1bbe 9132 07bf 01ba f3be
00000340: 882a a53e 70f9 02bf f207 08bf 1a5c 2cbe
00000350: 6095 cabe 17af 84be 09c9 1bbe 3ae6 c9bd
00000360: cf9a 03bf 62c2 983e 5b62 ddbb 1845 45bd
00000370: 3e67 173f 4f79 2b3f a20f b43e ac4e ed3d
00000380: b63b e93e 524f 7f3e 9664 f53e b1c6 863e
00000390: ff70 7b3d 33f3 073f c9f4 5bbe c205 173f
000003a0: 937a 0c3e 4882 e23e 9d31 e23e 0346 8e3e
000003b0: f08f 02be 0293 d93e a640 2e3e dd9e e53e
000003c0: e433 b0be e105 b3be 357f 973e 465d dfbe
000003d0: cf77 933e 7877 b7be bacd 1abf 971c d3be
000003e0: 11ff cd3e 8ce6 23bf de86 60be 9062 d0be
000003f0: afee 8ebe 3848 a3be bcd3 d2be b1fa a5be

linear.0.bias f4 [20]
0.053560253 0.36757532 0.38044116 0.30677372 0.0063855685 0.3584009 0.34104854 0.33220312
0.122678 -0.1939043 0.31865034 0.28471735 0.2720318 0.3143559 0.3180688 -0.23979947
0.4233431 0.034776136 0.5715682 0.15972872
00000000: ff61 5b3d d532 bc3e 2fc9 c23e 7211 9d3e
00000010: 083e d13b 5380 b73e ea9d ae3e 8716 aa3e
00000020: 9a3e fb3d d98e 46be 2326 a33e 79c6 913e
00000030: c147 8b3e 42f3 a03e ead9 a23e fe8d 75be
00000040: 6dc0 d83e 6c71 0e3d 4b52 123f ed8f 233e

linear.2.weight f4 [4, 20]
0.25795418 0.29182753 0.3365933 0.37257785 -0.060086917 0.31644478 -0.3894131 0.33162487
0.44165227 0.17936876 -0.34031206 -0.4003316 -0.37424847 -0.47503674 -0.3308722 -0.037978683
0.3550501 0.17119348 0.2671636 0.32221428 -0.48423633 0.05412954 -0.37980828 -0.29912415
-0.43668112 -0.03931204 0.17094171 -0.10002076 -0.29816222 -0.055058867 -0.2516721 0.6301854
-0.5442062 0.37137344 0.13389294 -0.07239626 0.09564493 0.18774368 0.23048273 -0.3877352
-0.18621458 -0.033849295 0.36585325 -0.3141811 -0.19969437 -0.26153296 0.025015036 -0.23586906
-0.31792465 -0.037541196 0.041434094 -0.115957126 0.10436736 0.0061765965 0.3030808 -0.05389604
-0.029638669 -0.11533837 -0.33575922 -0.029721558 -0.27049562 -0.56723285 -0.01795002 -0.50857645
0.31932673 -0.40577522 0.31476638 -0.4700182 -0.4046393 -0.048636705 0.48410702 -0.21870875
0.48474854 -0.049392916 -0.11658754 0.15243627 -0.64835835 -0.60219157 -0.3585165 -0.55416745
00000000: 9212 843e 6b6a 953e f555 ac3e 86c2 be3e
00000010: b31d 76bd 0d05 a23e 2761 c7be bcca a93e
00000020: 3f20 e23e 72ac 373e 623d aebe 43f8 ccbe
00000030: 7f9d bfbe 0438 f3be 1568 a9be 898f 1bbd
00000040: 20c9 b53e 584d 2f3e abc9 883e 45f9 a43e
00000050: d3ed f7be f0b6 5d3d 3b76 c2be cd26 99be
00000060: ab94 dfbe a905 21bd 580b 2f3e afd7 ccbd
00000070: b8a8 98be 6885 61bd 2adb 80be d553 213f
00000080: 1951 0bbf a924 be3e 3b1b 093e 7e44 94bd
00000090: 7de1 c33d e13f 403e aa03 6c3e 3a85 c6be
000000a0: 09af 3ebe 8fa5 0abd 1e51 bb3e 58dc a0be
000000b0: ae7c 4cbe a6e7 85be 55ec cc3c a987 71be
000000c0: 05c7 a2be ccc4 19bd ccb6 293d ee7a edbd
000000d0: 8ebe d53d 0c65 ca3b 682d 9b3e 18c2 5cbd
000000e0: cbcc f2bc 8636 ecbd a2e8 abbe a07a f3bc
000000f0: 677e 8abe 2c36 11bf ec0b 93bc 1132 02bf
00000100: cb7e a33e c5c1 cfbe 0f29 a13e 3aa6 f0be
00000110: e22c cfbe 4837 47bd e0dc f73e 30f5 5fbe
00000120: f630 f83e 3a50 4abd 73c5 eebd 4118 1c3e
00000130: d0fa 25bf 3a29 1abf 7a8f b7be ebdd 0dbf

linear.2.bias f4 [4]
-0.119291335 0.18833262 -0.13662802 -0.1499098
00000000: 044f f4bd 44da 403e 37e8 0bbe f481 19be
