src/k_clustering/output/BA_Community/model.pkl (torch, 33533 bytes, 18 tensors)

conv0.weight f4 [10, 30]
00000000: bdef a63e dd34 01bf 0af3 513f 8bc3 15be
00000010: 9815 c2be ffaf fcbb cb64 b4be 33a6 e6be
00000020: c2c4 413e f4c6 61bd 72c2 d2be e171 043f
00000030: 3f6a 1e3f 6c42 04bd ba71 aabe 9596 103f
00000040: 8663 53be 8d02 9cbe a2ab b6bd e842 a8bd
00000050: 2925 5f3f e8ab febd 3a7e c9be 2421 85bd
00000060: dbe4 403e 5b3f c23d db44 e6bd 5a5a 7dbe
00000070: 5bef 30be d2fd fc3e 8c1a 89be 7949 283e
00000080: 4ae0 353e d6ad c23e f0de 063e ec7a 19bb
00000090: 80fc 203e a09f 3a3e 5ebe 88be 183d f73c
000000a0: 8529 da3d faea a6be fd3e 37be dda3 e53d
000000b0: 80e9 acbe f113 043f 68eb 8d3e 4f3b 34be
000000c0: 7962 57be c5b0 713e 909b 903e 0257 b7be
000000d0: 0777 b63e 6bd2 293f 395b c93e 89e7 c3be
000000e0: d5e5 213f 8a3a f2bd d7ab b5be d524 2b3f
000000f0: 9058 1bbf 23ef de3e bef8 1a3f a037 99be
00000100: 8c93 ad3e 00d0 14bd 668a 20be dc52 36bd
00000110: ed11 513e 576a d7be a105 e63e 668f bc3e
00000120: d3a6 adbe c451 9e3e 18dd 2c3e bcde 853e
00000130: 156f 82bd 68ab da3d 8f2f 98bd e0aa 043f
00000140: cd43 433e fc52 e03e 2a9d 0f3d 75f0 223e
00000150: 8d7e 05be c81c 623d 4f67 23bf 1268 4d3e
00000160: 4cb5 72be 6614 e03e 6c95 aebe d944 573e
00000170: fe7f cfbe 854c 2b3e fe5c 24bf 1185 e5be
00000180: 0a84 08be 972c 30be 791a de3e 4204 0c3d
00000190: 97a5 8b3e 65f7 5abe 7940 0bbe cb5f de3e
000001a0: 50f6 473c d5c8 14bf ac66 11bd 0c6e 89be
000001b0: 0ae3 13bf 2128 323e aff7 903e 07ae e5bd
000001c0: 8185 de3e 042c 223f ce03 8f3e 950d 6b3d
000001d0: 339e 53be 2a10 b03e 602f 83be c642 ea3e
000001e0: eefe d1be 30aa e3be 86a7 a6be 7517 0e3f
000001f0: 8699 82bd edc0 de3d 3b68 42bf 7d85 adbc
00000200: f2b0 c93e c04e 253e 5ff8 61bd a00d fdbe
00000210: 7035 143f 311e cc3d 87da 933e 143b bd3e
00000220: 797e e23d a8d0 383d 6f8d 683d 63d7 c23e
00000230: 27c0 363e ba9c 183c 23f0 bc3e dcf9 93be
00000240: 1f9e b83e 6add 39be 7c71 18be eb8a 45bf
00000250: 9148 6dbe 53ea e8bd 5e78 273f 3290 6d3e
00000260: 077a 24be d2e2 d0be 39c2 a5be 58bf 853e
00000270: d437 52be 6ddc 9bbd 50a8 c9be 2eb8 74bd
00000280: b9d8 f4bd 5ef5 9d3e 49d8 233c 3abe 2f3f
00000290: 8390 acbe 82ba b4be b4d6 0c3e a25f 773e
000002a0: cdde 75be abbf a03d 0e0c 9dbe 54f6 acbe
000002b0: afbb 0e3e 078d 58be 8c2a 46be ac2e 5b3d
000002c0: 8a1c 263f 6199 d83e be71 28bd cd97 80be
000002d0: ce68 36be 149d 2d3e c0f4 6fbd 5ea8 26be
000002e0: e09f ffbd 0b17 2fbd 3115 8abe eba1 8a3e
000002f0: 4426 c2be 419d d3be a39f f9be 9d89 a4bd
00000300: 2197 1bbf c919 f93d 55ca 41bf de94 1cbe
00000310: 436c e7be d01b 22bf ead9 a33c b8e5 8a3d
00000320: 9974 e63b d338 d93a 4ea8 083e 0bca d5bd
00000330: fa5c 8a3d 3fe2 803d 33c1 183f 232d a6bd
00000340: 2d77 1d3e eedf 46bf 6c2f e2bb 8aff e4be
00000350: 2d2d 433f 0eab b7bd 1134 94be 7420 5b3c
00000360: 43a0 de3e d03a c6be 503e e2be 2123 bf3e
00000370: c01b c2be 0796 c6be 87dc 3bbe 1a17 373f
00000380: 26e3 4bbd 39e3 d3be b0db e3bd 3d76 c33e
00000390: 9840 22bf 5858 ac3d fa57 82bd a7e8 193f
000003a0: 55ff bdbe 52ce 313d 115f fd3e f4e8 53bc
000003b0: e975 19be 320b 5b3c 524e 7f3e c9be 83be
000003c0: a2b3 5ebe 11cd dd3d ca78 243f 6712 1cbe
000003d0: 9bd0 efbd e553 8ebd baa0 fcbe 5e1e 393e
000003e0: c771 4b3e 467b 5dbc 9981 913d c1b6 233e
000003f0: a08d 3abd 0d07 2c3e 4186 0b3e 6a03 8a3e
0.3260478 -0.5047129 0.82011473 -0.14625375 -0.379071 -0.00771141 -0.3523315 -0.45048675
0.18922713 -0.055121377 -0.41163975 0.51736265 0.6188087 -0.032289907 -0.3328989 0.5647977
-0.20643434 -0.30470696 -0.08919455 -0.08215886 0.87166077 -0.12435132 -0.39354116 -0.06500462
0.18837301 0.0948474 -0.11243602 -0.24741498 -0.17278807 0.494124 -0.26778066 0.16434278
0.1776134 0.3802325 0.13170981 -0.0023419214 0.15721321 0.18224955 -0.2670774 0.030180499
0.106524505 -0.32601148 -0.17895122 0.11212895 -0.33771896 0.5159293 0.27718663 -0.1760075
-0.21033658 0.23602588 0.28243685 -0.3580857 0.35637686 0.663367 0.3932741 -0.38262585
0.6324132 -0.11827572 -0.35482666 0.66853076 -0.6068201 0.43541822 0.605358 -0.2992525
0.33901632 -0.036331177 -0.15677795 -0.044512615 0.20416994 -0.42073318 0.4492617 0.36828154
-0.3391634 0.30921757 0.16881216 0.26146495 -0.063688435 0.106772244 -0.07430946 0.51823235
0.19068833 0.43813312 0.035061993 0.1591204 -0.13036557 0.05520323 -0.6382951 0.20059231
-0.23701972 0.43765563 -0.34098375 0.21022357 -0.40527338 0.16728409 -0.64204395 -0.44828084
-0.13331619 -0.1720451 0.43379572 0.034183748 0.27274773 -0.21383436 -0.13598813 0.4343246
0.012204722 -0.58118945 -0.035498306 -0.26841772 -0.5776831 0.1739812 0.28313968 -0.11214834
0.4346123 0.6334841 0.2793259 0.057386 -0.20665817 0.34387332 -0.25622082 0.4575407
-0.41014808 -0.4446578 -0.32549685 0.5550454 -0.063769385 0.108766414 -0.75940293 -0.021181816
0.3939281 0.16143322 -0.055168506 -0.49424458 0.5789404 0.09966696 0.2887766 0.36959136
0.11059279 0.045120865 0.056775507 0.38054952 0.17846738 0.00931471 0.3690196 -0.28901565
0.36058137 -0.18150869 -0.14887041 -0.77165097 -0.23172213 -0.11372819 0.6541804 0.23199537
-0.16062175 -0.4079805 -0.32374743 0.26122546 -0.20529109 -0.07610402 -0.39386225 -0.05974596
-0.11955399 0.30851263 0.010000297 0.6864964 -0.33704004 -0.35298544 0.13753778 0.24157575
-0.24010773 0.07849058 -0.3067326 -0.33781683 0.13938783 -0.21147548 -0.19352168 0.053511307
0.648873 0.4230452 -0.041124098 -0.25115815 -0.17813417 0.16954452 -0.05858302 -0.16275164
-0.124816656 -0.042746585 -0.26969293 0.2707666 -0.3791982 -0.41330913 -0.48754606 -0.0803406
-0.6077748 0.12163121 -0.7569936 -0.15291163 -0.45199785 -0.6332369 0.02000137 0.067820966
0.0070329425 0.0016572721 0.13345453 -0.10438927 0.06756015 0.06293153 0.596698 -0.08114078
0.15377493 -0.7768544 -0.006902626 -0.4472621 0.7624081 -0.08968173 -0.28945974 0.013374437
0.43481645 -0.38716745 -0.44188166 0.3733149 -0.37911797 -0.38786337 -0.18345843 0.71519625
-0.049777173 -0.41384295 -0.111258864 0.38176146 -0.6337981 0.08415288 -0.063644364 0.60120624
-0.37108865 0.043409653 0.49486592 -0.012933958 -0.14986385 0.013369368 0.2493222 -0.25731495
-0.21748212 0.10830129 0.6424681 -0.15241395 -0.1170971 -0.06949595 -0.49341375 0.1807799
0.19867621 -0.01351816 0.07104797 0.15987684 -0.04554522 0.16799565 0.13625433 0.2695573

conv0.bias f4 [30]
00000000: 6f92 953e df75 353c d36f de3d dce5 643f
00000010: 9318 f03e 777a 3b3f e943 8cbd 48d2 c73e
00000020: f9c2 023d 2b92 063f a81e 663f 7171 4a3f
00000030: a051 a23e d0e3 8f3d 6222 973d c12c b63e
00000040: 7b23 2f3f 9321 c73e c041 363f 7e7f 813e
00000050: 7aab 673f a64d a73e 32c8 cd3e e791 473f
00000060: 1827 473f 1595 573f cb5b 3e3f 8d20 13bd
00000070: d22a 433f 0a9d 8d3e
0.29213282 0.011075466 0.108611725 0.8941324 0.4689375 0.7323374 -0.0684889 0.3902762
0.03192422 0.52566785 0.8989053 0.7907935 0.317029 0.07025874 0.07379605 0.3558102
0.68413514 0.38892803 0.71194077 0.2529258 0.9049603 0.3267643 0.401918 0.77957004
0.7779403 0.84211856 0.74358815 -0.035919715 0.76237214 0.27658874

conv1.weight f4 [30, 30]
00000000: 1a4b c23e e5fa b33e fe46 45bd 290f 0c3e
00000010: ae32 cfbc 3244 813e 6df9 ce3e f8b0 d33d
00000020: d804 48be b57b 73bd e994 1f3e f43a 3fbe
00000030: afe3 8e3a 19ae 68be 311c 9c3d 501a dc3e
00000040: 2f00 4f3d 8bac 733e 05af c3bc 04ce 073f
00000050: 7eed ac3e f1eb b9be eb6b a2be d3d4 b53c
00000060: 8b50 d73e da2c 2cbe 0fe8 c5be 5852 b43e
00000070: 74aa 723e 3f0d a13e b2a9 c83d 6f54 343e
00000080: ce92 e93b fb9b d8be 2b55 d6be 675a dbbe
00000090: 0afd a8be e03a 833e c3cc 99bd b6c0 8fbe
000000a0: 510e c73d 103a 82bb 53f0 8bbe f66f 1fbf
000000b0: d3fb 103d 2bfa 503d 3482 57be 794c 8fbe
000000c0: 632a 36bd 9d7f 3a3e ef22 aabe b2b0 efbd
000000d0: a37d a9be dd43 9c3e 3f0e c0bd f6c0 483e
000000e0: 468a 30bc ddd9 49be 947f 8c3e a289 fcbe
000000f0: d5a2 c83e 4abf 143f cbc0 723e e445 8b3e
00000100: 4ff5 eebe 5372 fa3e 85da c9be 97fd aa3e
00000110: ed3b 043e dce8 0b3c 89e4 043e 9de4 babe
00000120: edf5 113f f655 023e f320 df3e bcc4 5dbe
00000130: 2f70 a8bd 5e56 7a3f 0955 843d 5088 10bf
00000140: 58d1 3ebe 3895 30bf ef22 8dbe a373 40bd
00000150: b1e3 8dbd dd79 d7be e5ce 353e 1506 71bd
00000160: 3eb2 33bf 9e11 dc3d 0449 ed3d 6047 bc3e
00000170: 9ca2 62bd 6105 ef3e 738a 9fbe 740b 093e
00000180: adef fdbe 638f db3e 6129 13be e927 6c3e
00000190: 54a7 c1bd 7c13 7dbe 30ad 9dbd 498c 8bbe
000001a0: a910 ad3e 5fae 8e3e 15df ce3e b335 26be
000001b0: e277 74be 787e f3bd 0e74 cbbd b1db 90bc
000001c0: 68ef 243d 84e5 51be 663a 0e3e c637 2d3d
000001d0: 4fd1 a6be 9dbe 23be 2ee8 47bd bdd5 e2be
000001e0: 078b b33d 286f ec3d 51ac e63c 8fbc 53bc
000001f0: 48c8 8abd 7cb3 f13d 6f2d 80be 3858 c8bd
00000200: 771c 663e eec1 06be 94f0 0ebe 1827 d9be
00000210: cd66 b3be f8cf 29be 73c7 41be b311 c13e
00000220: e8ef 00be 6754 03bf a3c9 bf3e f032 d8be
00000230: 3ffb b13e 3a85 aabd 6b09 0d3e 9d46 04bf
00000240: fcf5 c93e 203f 6fb6 ac55 6dbe f491 c6be
00000250: 1db2 203d 1594 17bf 4bf9 d43e acad ed3d
00000260: b731 e03e a01d e43e ae8f 80be c51b 453c
00000270: 3405 8f3e 911b b73e bf1b ec3e a288 71be
00000280: 7298 d93d dc0b 2e3d e912 813e e8f5 5dbe
00000290: d204 c63e dd9b 58be 4b0c 503e 7c6a 453e
000002a0: 2be6 febe bbd5 883e 9c44 4cbe 4ff9 3c3e
000002b0: 5de8 c93e f1b1 c3bc 78f8 44be bbb9 81be
000002c0: c30d 613e ae91 19bd 92ea 87be fcba 993e
000002d0: e62e b33e 3669 87be f2e5 913d f888 053d
000002e0: 4c69 fe3e 607b a83e cd19 393e 16bd b43d
000002f0: 327d 193e 5997 67bd cefd 8abd 051b e0bd
00000300: a6ce 963d a6ff f03d 37b0 61be a1b3 efbe
00000310: 1710 d1be 0f60 1f3e e775 46bd d395 3abf
00000320: e5c2 eb3e 8686 b3be 1775 d83e bb6d bf3d
00000330: 7e19 a03d 725e 883e 4517 5d3e aa4d bebe
00000340: 0f46 eabd ff92 863d d39d 2b3e 5d11 98be
00000350: 80ae adbe 11b5 dd3e b988 90be 12dd 05bf
00000360: f9ca 3f3e 9c94 9ebe 53ec 1ebe 3c75 efbd
00000370: 65ee 923e 5c9d ad3d 9bad cb3e 4153 84be
00000380: 7755 a43e ef7f bcbe 6f59 573e a9c8 52bd
00000390: 995d e43c 7e2c 6b3e ecf0 ac3c ab49 59be
000003a0: 77b7 6abe 7265 0ebd 62d5 10be d6c4 3c3e
000003b0: e749 c6be 8fbb e6be 32d9 a13e 6333 f4be
000003c0: efb0 09bf b220 833e e3bb 00be 1444 5b3e
000003d0: 39a4 be3e 2266 223e cbac 9bbe 5aac d6bd
000003e0: 3f35 7c3e 2d22 383e c6b2 613e 748d b53e
000003f0: f179 353d a677 afbe fa8e f13e 9819 d13e
0.37947923 0.35152355 -0.048163407 0.13677658 -0.02529272 0.2524734 0.40424672 0.103364885
-0.19533098 -0.059444148 0.15584148 -0.18674833 0.0010901595 -0.22722663 0.076225646 0.42988825
0.050537284 0.23796289 -0.023887167 0.5304873 0.33774942 -0.36312822 -0.3172296 0.022196209
0.42053637 -0.16813985 -0.3865361 0.35219073 0.23697835 0.31455418 0.09797992 0.17610334
0.007128096 -0.42306504 -0.41861853 -0.4284241 -0.33005553 0.25630856 -0.07509758 -0.28076714
0.097195275 -0.0039742067 -0.2733179 -0.62280214 0.03539641 0.05101983 -0.21045762 -0.27988032
-0.044474017 0.18212743 -0.33229777 -0.11703624 -0.33103666 0.30520526 -0.09377717 0.19604859
-0.010775154 -0.19712014 0.27441084 -0.49323756 0.3918673 0.58104384 0.23706357 0.2720176
-0.4667153 0.48915347 -0.3942453 0.333966 0.12913485 0.008539405 0.12977804 -0.36502543
0.5701588 0.12728104 0.43579826 -0.2165708 -0.08224522 0.97788036 0.06461532 -0.56457996
-0.18634546 -0.6897769 -0.27565715 -0.04698528 -0.06928194 -0.42085162 0.17754705 -0.05884369
-0.7019385 0.10745548 0.11586192 0.36773205 -0.055330858 0.4668379 -0.31160316 0.13383275
-0.4959692 0.42882833 -0.14371254 0.230621 -0.094557434 -0.24714464 -0.076990485 -0.27255467
0.33801773 0.2786741 0.40404573 -0.16231422 -0.23873857 -0.118893564 -0.09934245 -0.017682882
0.040267378 -0.2049771 0.13889465 0.042289518 -0.32581565 -0.15990682 -0.04880541 -0.44303694
0.08766752 0.11544639 0.028158339 -0.012923374 -0.06776482 0.11801812 -0.25034663 -0.097824514
0.22471796 -0.13159916 -0.13958961 -0.4241264 -0.35039368 -0.1658324 -0.1892374 0.37708816
-0.12591517 -0.5130066 0.37458524 -0.42226362 0.34761998 -0.08326192 0.13773124 -0.5167025
0.39445484 -3.5650519e-06 -0.23177212 -0.38783228 0.039232362 -0.5921033 0.41596445 0.11605391
0.4378793 0.44553852 -0.2510962 0.012030547 0.27933657 0.3576322 0.4611492 -0.23587278
0.1062478 0.04249178 0.2520974 -0.21675837 0.38675553 -0.21153207 0.2031719 0.19278902
-0.4978498 0.26725563 -0.19948047 0.18454479 0.39435092 -0.02388856 -0.19235408 -0.25337014
0.21977906 -0.037492447 -0.2654615 0.3002547 0.34996718 -0.26447457 0.07123937 0.032601327
0.4968971 0.32906628 0.18076248 0.08825128 0.14989164 -0.05654082 -0.06786691 -0.109426536
0.07363634 0.11767511 -0.22039877 -0.46816733 -0.40832588 0.15563987 -0.048452284 -0.72884864
0.4604713 -0.3506357 0.42276832 0.09347101 0.07817362 0.26634556 0.21590908 -0.37168628
-0.11439144 0.06571006 0.16759424 -0.29700747 -0.33922195 0.43302205 -0.2822931 -0.5229045
0.18729772 -0.30972755 -0.15519838 -0.116922826 0.28697506 0.084772795 0.39780888 -0.25844768
0.32096455 -0.36816356 0.2103021 -0.051460896 0.027876662 0.22966191 0.021110974 -0.21219508
-0.22921549 -0.034764715 -0.14143899 0.18434462 -0.38728258 -0.4506497 0.3161102 -0.47695455
-0.53785604 0.25610882 -0.12571673 0.21412688 0.37234667 0.15859273 -0.30405268 -0.10482092
0.24629687 0.17981787 0.22040853 0.35459483 0.044305746 -0.34270972 0.47179395 0.4083984

conv1.bias f4 [30]
00000000: eb00 9d3e b98f 303f 9fa7 533e a79f 9d3e
00000010: e79c 4e3f 569c 253f fa0c 9c3e b1a8 603f
00000020: e0a2 103f f265 4d3f b730 233e e9c0 3c3f
00000030: e55b 253f 1884 3a3f 499e 793f 92aa 3f3f
00000040: 4823 783f 8587 1f3e d6e1 123e 76d6 0d3f
00000050: c807 053f 4947 c33e 3c96 173d 2e83 0d3f
00000060: bb58 233f 3cd4 413f 31cc 283f 767b 2d3f
00000070: 09aa 4c3f 70ae 1f3f
0.30664763 0.68969303 0.20669411 0.30785868 0.80708164 0.64691675 0.3047865 0.877574
0.5649853 0.8023368 0.15936552 0.7373186 0.64593345 0.7285781 0.9750715 0.74869645
0.96928835 0.1557904 0.14343962 0.55405366 0.51965 0.38140324 0.03700851 0.5527829
0.63807267 0.7571447 0.6593657 0.6776651 0.79946953 0.62375546

conv2.weight f4 [30, 30]
00000000: 6d20 bf3e e3a5 e3be 7a6b 14bd 0e22 14be
00000010: 870d 683e 08a0 f3bd d1b7 acbe f420 91bd
00000020: 73b1 89bd 7733 ac3e 9318 833e 57fb e0be
00000030: a9c7 97be c179 9cbe 5cbb 863d 494f 403e
00000040: c29a 80bd 6864 f13e 2e25 0dbd ed3f 2a3e
00000050: bd0d f0bd 5cf5 593e 7577 5f3e 5156 f6bd
00000060: 949c 4abd 1506 7e3e 5bee 733d 7aea 98be
00000070: b90b 0cbe da1e 94be 2ab6 fe3d 568b af3e
00000080: ca1d 98be 5cf2 3a3e 9ba6 acbe 8b20 3d3e
00000090: 6750 f3be eded 91bd 1758 afbd c957 58bc
000000a0: 3e29 973e 1d14 55be e1af 4e3d 532d 833e
000000b0: 56ba 813c f324 babe 2284 14be 4939 49bd
000000c0: d03c f4bd c9c4 bd3d 3b42 da3e 4492 7f3d
000000d0: 1f68 b1be 6f5e 0abf 88ba c13e 62e2 143d
000000e0: e24a adbe 7c00 2abe 61b1 233e aed3 61bc
000000f0: e985 8d3e b89f 613c 73cb 8fbc e785 d93e
00000100: 0a9f c8be 006c af3d 74be e8be b2f0 72be
00000110: 157f 03bf 70bc 393e 1bb9 c4bd 8600 113e
00000120: af15 943b 44d8 433e 4f75 dabe 1fb9 a2bd
00000130: f418 84bd 4d04 86be eda1 133e 0713 363e
00000140: c53d 6e3c a70f cabe 4bfe 33be aab5 07bf
00000150: 8bd6 b2be e0b6 01be 6c2d 743d fe95 e5be
00000160: 34da e3be 96f8 373e 584a b13e a8b1 b3bc
00000170: 890d 4fbd a9a0 31be 83ff c83d 2192 eabc
00000180: 1aff 09be c216 b63e c9a9 4b3e 06a1 993e
00000190: 353c 9e3e 9909 9dbe ccf9 9d3e ddb0 2abd
000001a0: f8ec 34bf de78 843e ed57 9bbe 26cb 51be
000001b0: 39fc cfbc 8cf0 7d3e 003b 8d3d 4f63 d3be
000001c0: 8090 c5be f7cd 483d a569 f6bd 3e8b fd3d
000001d0: 3c0e d73e 5f92 c4be 103e e5be 7cf5 67be
000001e0: 05de 323e b3d6 41bf 6e5a 0e3f 0c90 d1bd
000001f0: 0429 b43e fb7a 0ebf 422c 093f 467c fcbe
00000200: 94f3 873e 87ed cb3e 0157 99bd f48f d5be
00000210: 8d75 ea3d 380a 48be f545 50bb 1317 0a3e
00000220: 6517 6f3e eed5 0a3e 1ff5 52be f393 eabe
00000230: e6a8 e93d 5a37 473f 1252 973d 20b6 0dbe
00000240: 4562 aebd 143b 413e 1027 aabe a377 e83e
00000250: 9af9 00bf f4af 633e 60ae d93d e93e b2be
00000260: e2c0 473e d5d0 f3bd a229 f23e 6a5a b5be
00000270: 1713 f1be e60f db3e 2ca3 413e 5596 30bf
00000280: 3b50 62bd 39e9 15be bd52 113f 06d9 a83e
00000290: 3456 1b3f 3eb8 ac3d 64ab 9cbe f639 1bbf
000002a0: 9664 863e 4576 073e eb7e febe 0fbe a93d
000002b0: 77cf c13e 228f adbd 0ff7 923d 639e 1fbf
000002c0: 429f 2e3e 674a ddbe db48 023e 32f2 9b3e
000002d0: d22c 4abd 7c78 0dbf 9750 5a3e 3b6c ebbd
000002e0: 9320 cc3d a38f 8dbd 00a8 d83e 4d92 003f
000002f0: a54a 1c3e 1d19 8abe 29bc 103e 2a06 383e
00000300: a526 b93e c5b0 833d 1ad4 683d 255f 8b3e
00000310: 483d 46bf c026 edba 45e2 483e eb2e 463e
00000320: 65bd f33d ec44 573e 91c9 b6be 5929 b1bd
00000330: 0138 8f3d d4f3 14be 4e43 16be 0ef2 ae3e
00000340: 59a5 f6be f942 1ebf 096d e0be 35ae 89be
00000350: d6eb e43c b8f2 a13e 0d1a 4fbd d783 b9be
00000360: faf8 933e f86b 9d3c a4e8 63be ffe4 77bc
00000370: dbd9 7f3e b7d0 0bbd 34e1 a33d 0b90 153e
00000380: 9f47 82be 8e26 e03e da0b 9d3e 2658 fc3c
00000390: 1b3f 213e 31e9 35be 731d 73bd b720 ef3d
000003a0: e6fe 90be f4db 55be 7621 a4be 9db9 f8bb
000003b0: 76c6 22be 9f67 e9bd 926d 2dbe 698e 693e
000003c0: f729 6c3d e309 febe 0dd1 a0be 9589 39bd
000003d0: 55cc dc3d 9c71 703e f06f b53e 6c92 86be
000003e0: a971 b33e f206 8d3e cdc5 92be ccbd b1be
000003f0: 7737 e3be 89e1 a3bd bde4 8d3c ff8b c4be
0.37329426 -0.444625 -0.03623531 -0.14466116 0.2266141 -0.11895758 -0.3373399 -0.070863634
-0.06723299 0.33633015 0.25604686 -0.43941757 -0.29644516 -0.3056164 0.06578705 0.18780245
-0.06279518 0.47146916 -0.034459285 0.16625948 -0.1172137 0.21285003 0.21822913 -0.12028182
-0.04946573 0.24807008 0.059553485 -0.2986639 -0.13676347 -0.28929788 0.12437089 0.34285992
-0.29710227 0.18256515 -0.3372086 0.18469445 -0.4752228 -0.07125459 -0.08561724 -0.013204523
0.29523653 -0.20808454 0.0504607 0.25620517 0.015835922 -0.36356315 -0.1450353 -0.049126897
-0.119256616 0.092660494 0.42628655 0.06239535 -0.3464975 -0.54050344 0.37837625 0.036348708
-0.33846194 -0.16601747 0.15985633 -0.0137833785 0.27641228 0.01377099 -0.017553067 0.42484972
-0.39183837 0.08565521 -0.45457804 -0.2372463 -0.51365787 0.1813829 -0.096056186 0.14160356
0.0045191864 0.19125468 -0.42667624 -0.07945465 -0.06450072 -0.26175156 0.14417239 0.17780696
0.014541094 -0.39465067 -0.17577474 -0.5301157 -0.34929308 -0.12667418 0.05961363 -0.44840997
-0.44502413 0.17965922 0.34627032 -0.021935299 -0.050550018 -0.17346443 0.0981436 -0.028634133
-0.1347622 0.35564238 0.19888987 0.30005664 0.3090531 -0.30671385 0.30854642 -0.041672576
-0.70674086 0.25873464 -0.3034052 -0.20487651 -0.025388824 0.24798793 0.06896019 -0.41286704
-0.38586807 0.04902455 -0.12031869 0.12380074 0.42003047 -0.38392922 -0.44773912 -0.22652239
0.17467506 -0.7571823 0.55606735 -0.10232553 0.35187542 -0.55656403 0.5358316 -0.49313563
0.26553023 0.39829656 -0.07487298 -0.4171139 0.11448202 -0.19535148 -0.003177998 0.13485365
0.23348768 0.1355817 -0.20601319 -0.45816 0.11409168 0.77818835 0.073887005 -0.13839006
-0.08514837 0.18870193 -0.33232927 0.45403776 -0.5038086 0.2223509 0.106289625 -0.34813622
0.19507173 -0.11905066 0.47297388 -0.35420543 -0.47084877 0.42785567 0.18909901 -0.6897939
-0.055252295 -0.14639749 0.56766874 0.32978076 0.6067841 0.08433579 -0.3059951 -0.60635316
0.26248616 0.1322871 -0.49706206 0.08288204 0.37853596 -0.08474566 0.07176029 -0.62351054
0.1705294 -0.43220827 0.12723105 0.30458218 -0.04935915 -0.5526197 0.21319805 -0.11495253
0.099671505 -0.06912162 0.42315674 0.5022324 0.1526285 -0.26972285 0.14134277 0.17971101
0.36162296 0.064302005 0.0568429 0.27221027 -0.7743726 -0.0018093213 0.19617565 0.19353835
0.119013585 0.21022385 -0.35700658 -0.086504646 0.06993104 -0.14546138 -0.14674112 0.34169048
-0.48173025 -0.6182094 -0.43833187 -0.26890722 0.027944487 0.31630492 -0.050561953 -0.36233398
0.28900892 0.019216523 -0.22256714 -0.0151302805 0.24985449 -0.034134593 0.080019385 0.1460573
-0.25445268 0.43779415 0.30673105 0.030803751 0.15746729 -0.17764737 -0.059354257 0.11676162
-0.28319472 -0.20884687 -0.3205678 -0.007590486 -0.1589602 -0.11396717 -0.16936329 0.22808231
0.05765721 -0.49616918 -0.31409493 -0.045297224 0.10781161 0.23480839 0.35436964 -0.26283586
0.35047653 0.2754436 -0.28666535 -0.34715116 -0.44378254 -0.08002002 0.017320985 -0.3838806

conv2.bias f4 [30]
00000000: dd60 f23d 3ef6 133f dd45 463f 18d7 293f
00000010: 7d4a 5f3f ae68 ec3d 0bd6 7b3f f0f0 db3e
00000020: f3e9 be3e b5d8 5f3e 8922 ef3d b2f0 0a3f
00000030: ef36 883e d5fb fe3e 926f e13d 2c60 c23e
00000040: af22 203f 039c 363e 67ad 4f3f 95df 1b3e
00000050: fc92 903e 5c8f 613f aaff 5d3f 1401 1c3f
00000060: fb81 453f 7baf 973d 13e2 1f3f 5684 173f
00000070: 7da4 9f3c f384 003f
0.118348815 0.5779761 0.7745035 0.6634383 0.87223035 0.115434036 0.9837348 0.42957258
0.37287864 0.21860011 0.11676509 0.5427352 0.2660441 0.49801508 0.110076085 0.37963998
0.6255292 0.17832951 0.81123966 0.15222009 0.2823714 0.88109374 0.8671824 0.60939145
0.7715146 0.07406517 0.62454337 0.59186304 0.019487614 0.50202864

conv3.weight f4 [30, 30]
00000000: 9637 d73d 73b9 a5be 6fde 30bc ca78 7b3e
00000010: 8986 b23e 6254 edbe 1ef5 ec3e b520 c7bd
00000020: f3bf b83d 538e c5be 8738 cfbe 0a84 abbe
00000030: 4343 19be 42d3 9c3e 201a 853e 473d 903d
00000040: 0113 683e fe5c a1be 6d07 613e ce83 acbe
00000050: ebb0 d2be 7871 443e 5146 31be 729c 89be
00000060: 9844 72be 58b0 1abe f4a6 8c3e 1f48 8e3e
00000070: 4d58 3cbf b991 43bd 7598 d2be ec6b 90be
00000080: d640 12bd a13c 9fbe a94e 4b3e fed1 b13e
00000090: 23d9 933e bc6d a63e 0128 c03c c886 22bd
000000a0: 3521 62be 284a acbe 15df 953e efac 16bf
000000b0: ead5 a33e 9d9d c03e b371 303f 64a3 26bf
000000c0: ae32 46bf 3d8c 4f3e a803 39be dc67 343e
000000d0: a8e0 ab3d 651b 0abc 40ce 303e c4d9 b1be
000000e0: be1a ecbe c32a 5d3e 95fe 713e a9ab 70bd
000000f0: 11b4 00be 3e90 593e b8a8 173f 3ac6 623d
00000100: 35af 043e ba24 0d3e 7457 b7be d7cc 2abf
00000110: bc11 92be a976 c3be 361a c1be 211e 75be
00000120: 9ae3 1bbd 7093 223c c047 41be d3f9 b9be
00000130: e7d9 8bbd 8ef7 543e 1481 823e 7a7f af3e
00000140: bd97 413e d2f7 833e 1238 40bd 6e96 53be
00000150: faab 3e3e 6280 9a3e 9c70 44be e034 29bd
00000160: 2ac5 95bf fbda 8b3e 33d4 d5be 9036 6dbe
00000170: 6834 a7be 443d 8ebe 5c27 3cbd 8874 8bbe
00000180: 3137 ff3e 05a2 c3be ef1e 443e 97db dabe
00000190: 87cd 5d3d 4f4a 883e 903c 95be c2ad 1dbe
000001a0: 83a9 d33b 8551 cebc ec22 133e 6455 a93e
000001b0: bef9 08be 5480 223e fc51 c8be dd9c a9be
000001c0: 4343 c2be 02e8 263e 0497 013e fccb bb3e
000001d0: 8939 f43d 4e5f 8bbc b6c0 21bf 9e74 7dbd
000001e0: 2f9e 88be 010c 9f3d 3baa d7bd a9a3 6dbe
000001f0: 3eda a53b 7133 633d 8373 f7bd 90ea 3c3e
00000200: 15bb bdbe bc51 1cbe 0334 d5be 23a5 c93e
00000210: 0869 9c3e 3619 c1be 6945 c6be fdfd a2be
00000220: fe87 643e 0fc0 bc3d 53b7 d0be 550a 2ebe
00000230: 56cf cc3e 0aba 5dbd 284f d7be 32eb ff3d
00000240: b158 e83e d46d b43e e76c 7c3d eea0 74bd
00000250: 4297 e93e e2b3 b33e ece7 0d3e fdf8 88be
00000260: fba1 bb3e 6a39 633e 0bd7 dabe 7784 a0be
00000270: 0eef 1f3e 1782 2d3f a11a 333f 3080 fc3d
00000280: d48a a33e 1f85 8f3d 8413 ae3e cea8 a4be
00000290: 066c 3f3e 5d53 75be 07e4 2cbe 0b96 f1bd
000002a0: 4ab0 bc3c fbd2 f6be c6c7 213e 194b 73be
000002b0: eb8e 85be 3712 e93e f850 603e cb15 5c3e
000002c0: 5fc8 edbd f5ed 41be 9c9d 483e 36e4 95be
000002d0: c139 1e3e 241a b53e 1a9f 653e 1502 debd
000002e0: 45ed bb3e 35ce ddbd 8b8b fdbe b737 adbe
000002f0: 1ab3 16bf 9437 b2bd ba12 883e e508 b9bd
00000300: b33b 0bbe 3c0c 6e3d 9757 c0bd 6e5a 82bd
00000310: 9222 eebd 7407 213d 825e 5a3c acb9 92bd
00000320: 11eb a5bd 2c7a 973d 48ac 62be 7739 6bbc
00000330: 5fa2 c53b 8ec1 553e 49c2 113e ec26 4b3e
00000340: 9762 60be 2e2a babe e08f 0ebd 43ca 82be
00000350: ae6b e23c 4edf f33e cb83 3bbe e6a9 523e
00000360: 2b21 18bf b9d0 993e 8a0b 8b3e f681 47be
00000370: fc6e 6fbe a3b4 3bbe 16cb 3a3e 46bd d23e
00000380: b849 02bf f284 0bbe 9fdf 253e da84 67bb
00000390: 1db8 8cbe 21bb 91be 8b55 993e e939 9cbe
000003a0: 4ef7 4ebd bdc0 0d3e 9c77 323e 31b7 93be
000003b0: 5711 e23e fec8 5bbc 83d5 5c3f e5ba 873d
000003c0: 0969 67be c410 bb3e bd58 b4be 60b9 383e
000003d0: 86e8 63be deac 4cbe 9a1a 953e 4057 14bf
000003e0: 30a1 d8bd 7073 1bbe ee3d 963e c4b8 d9be
000003f0: 16c1 18be 1f92 5fbc 5a77 5c3e 44d5 fd3e
0.10508649 -0.3236805 -0.01079522 0.24557796 0.34868267 -0.4635344 0.4628076 -0.09723035
0.090209864 -0.38585147 -0.40472814 -0.33499175 -0.14967065 0.30629927 0.25996494 0.07042938
0.226635 -0.3151626 0.21975489 -0.3369431 -0.41150603 0.1918391 -0.1731198 -0.2687717
-0.23658979 -0.15106332 0.27471125 0.277894 -0.73572236 -0.047746394 -0.4113194 -0.28207338
-0.035706364 -0.31100944 0.19854225 0.34730524 0.288766 0.32505596 0.023456575 -0.03967932
-0.2208298 -0.33650327 0.2927176 -0.58857626 0.3199914 0.3762025 0.6892349 -0.65093064
-0.7742108 0.2026834 -0.18067801 0.17617744 0.08392459 -0.008429383 0.17266178 -0.34736454
-0.46114153 0.21598344 0.23632272 -0.058757458 -0.1256869 0.2124643 0.5924182 0.055364825
0.12957461 0.13783541 -0.3580891 -0.6671881 -0.28529155 -0.38176468 -0.3771531 -0.23937275
-0.038058855 0.009922847 -0.18875027 -0.36323413 -0.06828671 0.2079756 0.25489104 0.34276944
0.1890554 0.2577501 -0.046928473 -0.20662853 0.18620291 0.30176073 -0.19183582 -0.04131019
-1.1700795 0.27315506 -0.41763458 -0.23165345 -0.3265717 -0.27781117 -0.045935974 -0.27237344
0.49846795 -0.3820955 0.19152425 -0.4274566 0.054151084 0.26619193 -0.29147768 -0.15398315
0.0064594164 -0.025185356 0.1436879 0.3307296 -0.13376519 0.15869266 -0.3912505 -0.3312749
-0.37941942 0.16299441 0.12655264 0.36679065 0.119250365 -0.017013218 -0.6318468 -0.061878793
-0.26683185 0.077659614 -0.10530516 -0.23206963 0.005061417 0.05546898 -0.12082579 0.18448853
-0.37056795 -0.15265554 -0.41641244 0.39383802 0.30548882 -0.37714547 -0.3872483 -0.31834403
0.22317502 0.0921632 -0.40764865 -0.16996129 0.40001935 -0.0541325 -0.4205258 0.12496032
0.45380166 0.35240042 0.061627295 -0.059723787 0.45623213 0.35098177 0.13858002 -0.26752463
0.3664702 0.2218987 -0.4274219 -0.31351063 0.15618536 0.67776626 0.6996251 0.12329137
0.31941855 0.07007813 0.33999264 -0.32160038 0.18693551 -0.23957582 -0.1688386 -0.117961966
0.02303328 -0.4820784 0.15798864 -0.23759116 -0.260856 0.4552171 0.21905887 0.21492688
-0.116104834 -0.1893843 0.19591373 -0.29275674 0.15451719 0.35371506 0.22423974 -0.10840241
0.3670446 -0.108303465 -0.49520525 -0.3383157 -0.5886704 -0.08702007 0.26576787 -0.090348996
-0.13596992 0.058117136 -0.093917064 -0.06364904 -0.116276875 0.03931375 0.0133281965 -0.0716432
-0.08101476 0.07396349 -0.22136033 -0.014356962 0.006031319 0.20874617 0.1423427 0.19839066
-0.21912609 -0.36360306 -0.03480518 -0.25544938 0.027639236 0.47631305 -0.18311994 0.20572624
-0.5942561 0.30042055 0.2715724 -0.1948317 -0.23382181 -0.18330626 0.18241534 0.4116003
-0.50893736 -0.13624933 0.16198586 -0.0035326988 -0.27484217 -0.2846308 0.29948077 -0.30512932
-0.050528817 0.13843055 0.1742844 -0.288507 0.44153854 -0.0134146195 0.86263293 0.06627444
-0.22598661 0.3653623 -0.35223952 0.18039465 -0.2225667 -0.19987819 0.29121858 -0.5794563
-0.10577619 -0.15180755 0.29344124 -0.42523777 -0.14917406 -0.013645678 0.21529904 0.4957677

conv3.bias f4 [30]
00000000: 8f0e b03e 79e5 893f 05f7 8c3f 1174 f33e
00000010: 7edf 353e d394 e13d 4816 f53e 290e 513f
00000020: 0f5b a83d 0c11 243f e477 153f 477e 7e3f
00000030: c60e 8d3e d556 383e d818 063f 815c 4a3f
00000040: 4a1c 5a3f cba3 8f3f 4eb0 d13e 89c6 683f
00000050: 613e 523f 1346 7e3f 2c29 073f f4ca ca3e
00000060: af27 fc3e aeb8 9b3e 1b65 153e 8f13 943e
00000070: 1a1c bc3f 467a 103f
0.34386107 1.0773154 1.1012884 0.4754949 0.17761037 0.11014714 0.47868562 0.8166223
0.08220493 0.6408851 0.58386064 0.99411434 0.27550334 0.18001874 0.5238166 0.790474
0.85199416 1.1221861 0.40954822 0.9092794 0.8212643 0.99325675 0.527972 0.39607966
0.49249026 0.30414337 0.1458935 0.28921172 1.4696076 0.56436574

conv4.weight f4 [30, 30]
00000000: c890 9b3d 4049 313d 909c c53d 3b6d b5be
00000010: 72f6 d1bd b81b c6bd 15f0 16be 3d76 94be
00000020: 77d3 95bd 4709 45bd e9db 37be bae9 e4bd
00000030: 139e a2bd 0eb4 e7bd 03cc b6be ecf9 bb3e
00000040: 2cbe 49be a486 6e3e b253 aebe 5282 7fbd
00000050: 1817 29bd 508e 9ebe 203f be3c 8a7f bebe
00000060: 5a86 ed3d 5be5 833e c298 ecbd 778d 9dbb
00000070: 6635 65be f03a 073e 7157 b1be 81a5 9b3e
00000080: d05d cebc 7a74 1ebe e9ac b73e 656c 29bf
00000090: 192c a3be 888a b63d 95f6 97be 132c bbbd
000000a0: 1cea 943c fc74 09bf 8199 54be e171 c2be
000000b0: 4bab f3be f175 ef3d e1f0 c13e f6dc e7be
000000c0: b7ba a63d 72a5 e6be 2472 983e ebd7 853e
000000d0: 0222 dabe 0a71 7cbe 3953 0cbf b0cd 9bbe
000000e0: fd13 883b 695b 96be af59 f9bd f57f 36be
000000f0: 7cbf d4be d223 9cbe b42d 7ebe ca89 103f
00000100: 4d57 75bf ff45 53bf ed10 52bf 789d a33e
00000110: 8ba0 6d3e af1b 1fbe be37 55bd 980c a3be
00000120: e0ce 973b e7d9 843e 783a f93d 1728 8ebf
00000130: 063b b9bb 51f7 153e 92c8 f73d 4d47 863e
00000140: 59b4 04bc 9068 aebd b213 703e f282 37be
00000150: 5b1e 433e ec17 163f f043 6fbc 26fb 033d
00000160: 31a2 123f 6e4b 633e b367 b8be 3366 a2bd
00000170: 5643 e33e 4610 55bf c1fc 4a3f e89f 53be
00000180: 0ad5 1ebd 37b5 8c3e add3 c03e af61 c3be
00000190: cc42 a0be 4d84 6c3e d719 403f cae8 1ebf
000001a0: a016 46bf 83f7 093e 9860 fd3e 3687 08be
000001b0: 224c 213e cd2b 42bf 13eb f03e a4d2 da3d
000001c0: d6b8 cdbe 6998 5a3e 5eec 9dbd 8f78 8ebe
000001d0: e5ea de3e aac1 1d3e 7558 6abf b627 c33e
000001e0: bcc9 a33e 02c1 0c3d fe19 c6be 4b75 d23d
000001f0: 5d1a 853e 5312 b1be bb49 ddbe 2920 6dbd
00000200: 2e26 aebe c4d0 83be 871d 9f3e 88a9 da3c
00000210: 0f55 6d3e 9901 e03d 80f8 fa3e 5be5 f33d
00000220: eef3 cdbc 6215 8f3e d3b8 3fbe d1a9 d23e
00000230: 6fe8 9d3d bd5f 9f3e cd74 97be 4611 abbe
00000240: be85 ab3e b534 a9be 66be a73d ebb9 b33e
00000250: e48a c03d 022e 70be 1154 10be 834d 8abe
00000260: 4c4b 9bbe 725c a43e 177c 9ebd 79a9 693e
00000270: 00b4 92bc aed0 7a3e d2ea c13d f9a4 e63e
00000280: 6c8d 783c 87de 0fbe bc05 133e ce7b 8a3d
00000290: 3253 d73e e89a 023f 50f3 0ebe 5d03 2ebe
000002a0: 353e ddbe 4722 e63e 7189 29be 4174 ddbd
000002b0: 93fe 90be a51c bbbe e125 0b3e 4751 323e
000002c0: 72f4 febe afc3 0bbf c267 aa3e 1852 9fbe
000002d0: 8359 d93e c480 d7be 8884 49be 24f4 f33d
000002e0: 24c6 993d c8d1 94be 2861 95be 9d20 9b3d
000002f0: 4cbd cbbe c5f4 9d3d 3ef1 86be 2e9b 04bf
00000300: b30e acbe bac6 8d3e 7ba5 f6be 0db3 373f
00000310: eb8c 1cbf 5f6b 2abe 1a6c fc3c c20d 603e
00000320: 88c0 0abf bcf3 56be 2865 f0be bf49 ebbe
00000330: 1002 183e 4a1b b03e 6831 3e3e 35bb 4abf
00000340: a041 c0be a4d6 54bd 04eb 30bf 7b34 0b3f
00000350: 18b2 9c3e c69b da3d bd22 e5be 4b4b 04be
00000360: d281 c73e fd45 78be 792a 4cbf f30c 94be
00000370: 4dec 8cbe b0c4 573e f99f 9f3e b89b a03e
00000380: 5762 af3e 9b6a 23bd 889c 9bbd 585b afbe
00000390: f670 4f3f 5ce9 383d 3136 9a3e 4298 a1be
000003a0: 4c3e c5bd f10c 83bd 03dd 2cbe 6a72 94be
000003b0: dbb6 583e 5f9f 4abf b5c6 d73e 0696 3f3e
000003c0: 9074 b0be a38c babd cff6 6fbe daae c7bd
000003d0: ee75 87be 380c 9e3e 235f bb3d db05 66be
000003e0: 0871 adbe bfd8 b8bc 9be1 943d 96ac 8bbe
000003f0: eb4e a5be b6be dcbe b0b9 cebd bc23 5c3e
0.07595974 0.043282747 0.096490026 -0.354349 -0.10252084 -0.09673256 -0.14740022 -0.2899646
-0.07315724 -0.04810455 -0.17954983 -0.11177392 -0.079403065 -0.113136396 -0.35702524 0.36714113
-0.19701451 0.23293549 -0.3404823 -0.062380143 -0.04128179 -0.3096795 0.02322346 -0.3720668
0.11597891 0.25760922 -0.11552574 -0.0048081237 -0.22383651 0.13206077 -0.34637025 0.30399707
-0.025191218 -0.1547412 0.35874107 -0.6618102 -0.3186958 0.089131415 -0.29680315 -0.09139266
0.018178038 -0.5369413 -0.20761682 -0.37977508 -0.47591624 0.116924174 0.3787909 -0.45285767
0.08141082 -0.450481 0.29774582 0.26141295 -0.4260407 -0.24652496 -0.5481449 -0.30430365
0.0041527734 -0.29366615 -0.12175309 -0.17822249 -0.4155234 -0.3049608 -0.24822122 0.5646025
-0.95836335 -0.8252868 -0.82057077 0.31956077 0.23205774 -0.15537904 -0.052055113 -0.31845546
0.0046328157 0.25947496 0.12169355 -1.1105984 -0.005652788 0.14645125 0.120988026 0.26226273
-0.008099639 -0.085160375 0.23445013 -0.17921045 0.19054548 0.5863025 -0.0146036 0.032221936
0.57278734 0.22196743 -0.36016616 -0.07929649 0.4438731 -0.83227956 0.7929192 -0.20666468
-0.03877739 0.27482006 0.37661496 -0.38160464 -0.31300962 0.23097344 0.7503943 -0.6207396
-0.77378273 0.13473324 0.49487758 -0.13332829 0.15751699 -0.75848085 0.47054347 0.10684708
-0.4018008 0.21347202 -0.07711099 -0.27826354 0.43538585 0.15405908 -0.91541225 0.38116235
0.3198985 0.034363754 -0.38691705 0.10276278 0.25996676 -0.34584293 -0.43220314 -0.057892
-0.34013504 -0.25745213 0.31077215 0.026692167 0.23176979 0.10937805 0.49017715 0.119089805
-0.025140729 0.27946 -0.18722849 0.41145185 0.07710349 0.3112773 -0.295813 -0.33411616
0.33500475 -0.33048025 0.081906125 0.35102782 0.09401491 -0.2345505 -0.14094569 -0.27012262
-0.30330884 0.3210178 -0.07738512 0.22818555 -0.017908096 0.24493667 0.094686165 0.4504774
0.015170436 -0.14049731 0.14357656 0.06761895 0.4205566 0.5101762 -0.13960004 -0.1699347
-0.43211523 0.44948027 -0.16556336 -0.10813189 -0.28319225 -0.36545292 0.13588668 0.17413817
-0.49795872 -0.54595464 0.33282286 -0.3111732 0.42451105 -0.42090428 -0.19679463 0.119118005
0.075084955 -0.290663 -0.29175687 0.0757458 -0.3979286 0.07712702 -0.26355928 -0.51799285
-0.33604965 0.2769068 -0.48173127 0.71757585 -0.61152524 -0.16642521 0.030813266 0.21880248
-0.5420003 -0.20991415 -0.46952176 -0.459547 0.14844537 0.3439582 0.18573534 -0.79191905
-0.37550068 -0.05196251 -0.69108605 0.54376954 0.30604625 0.10674243 -0.44753066 -0.12919347
0.38966233 -0.24245448 -0.7975231 -0.2891613 -0.27524033 0.21071124 0.31176737 0.31368804
0.34254715 -0.03989659 -0.07598215 -0.34249377 0.8103174 0.045144424 0.3011947 -0.31561476
-0.09631023 -0.06398953 -0.16881184 -0.2899354 0.21163504 -0.7914943 0.4214379 0.18709573
-0.3446393 -0.091088556 -0.23433994 -0.09750147 -0.2645716 0.30868697 0.09149005 -0.22463171
-0.33875299 -0.02256429 0.07269593 -0.2728011 -0.32286772 -0.4311425 -0.10094011 0.21498007

conv4.bias f4 [30]
00000000: f5d4 483f e544 5a3f e048 933d 3e7e 613f
00000010: f08a 193f 0755 a73e b666 653f 4cb2 773f
00000020: 69ac 913f ead0 e23d e2f7 3b3f c964 233f
00000030: ff70 efbd 6fcd 233f bce9 573f 9d13 563f
00000040: 05ec 733f a03c 633f a941 823f c8a0 803f
00000050: 5778 283f 002b 133e 6805 393d 54cc 7c3f
00000060: 4fc6 023e ea24 aa3f c85d 363f 17fa 873f
00000070: d7ac 0e3e fdbe 5c3f
0.78449947 0.85261375 0.07191634 0.88083255 0.59977627 0.32682058 0.8960985 0.96756434
1.138074 0.110750034 0.73425114 0.6382566 -0.11691474 0.6398534 0.84341025 0.8362368
0.9528201 0.8876438 1.0176288 1.0049067 0.65808624 0.14371872 0.04517117 0.9874928
0.12770961 1.3292515 0.7123685 1.0623196 0.1393312 0.86228925

conv5.weight f4 [30, 30]
00000000: 94c2 e1be 1302 c5be 675d eabe 6786 873e
00000010: da17 ebbd cfee b93b 1d2a a63d 527e b73d
00000020: e8a2 77bd 2497 b1be 3bfd 343e 497f 7b3e
00000030: 9a21 b3be 959f 76be 2943 e5be 3b87 29be
00000040: 7fc4 73be edd6 86be b053 95be 1192 a93d
00000050: 9df0 0c3e a5ae 60be b523 e33d bb95 6abe
00000060: 31f6 9bbe 034a 6f3e 54db 51bd cd60 38bd
00000070: 5ce4 07be dc39 3b3d d7e3 4d3e 0758 13bd
00000080: 645a 7e3e 540e 12be 30ad b73e 04e5 1ebe
00000090: de18 54bd 7444 d83e cd35 98be 596e f8bd
000000a0: 301e b1be 7f60 f33d 2e95 96bd 5e01 c0bd
000000b0: f59d 0d3f 0be9 afbc f13c 473e 82d1 2d3e
000000c0: 74d7 01be a926 443d ba43 c5be 746f 9a3e
000000d0: 707a 053e 99fb 493d e57d c83e b097 973e
000000e0: 1e2d f33e 41d6 113f a67f cfbe 6211 8dbe
000000f0: 62b6 02be 16c3 c73e 4e6a abbe 4c59 473e
00000100: 1802 383e d6df d23e 5842 5dbd 20ad 46be
00000110: 923a de3e 30cc a1be 40aa a53b aa78 8cbe
00000120: 760d a43e 887a 983e c8bf 73be b025 02bd
00000130: 801e 8ebb c89b d5be fa9a d23e 78a2 3e3e
00000140: 00e0 69b8 b486 c13e 503a 663e c86f 4d3e
00000150: 608f 3c3e be17 1fbe 1a69 b8be 48dc 293e
00000160: 58e5 0cbd e804 683e 9660 59bf 7fbc 8ebd
00000170: 8427 7f3f 6002 353f 6a70 6ebf be00 643f
00000180: 4c9d f93e 4181 7ebe 77cd 143f 8735 5f3f
00000190: 6c91 4d3e 68b5 713c 49a8 e83e b1a7 793f
000001a0: 4155 483e a5f9 00bf 2209 213f 584a f73d
000001b0: f6e0 183f f9ec 5e3f 361a c43e ed54 63be
000001c0: 4e25 cd3e ca28 233f 2251 92be 4fca e43e
000001d0: 25f1 09bf 11f8 b3be 87a6 583f 9c64 993f
000001e0: 9347 363e 72d6 76be fb73 a0be 98c4 74bd
000001f0: 1439 c03e 7547 fabe d70f 95be 5b3c 893e
00000200: 71b5 c5be 0b42 4f3d 5eaf 323d bca0 f63d
00000210: 7ac7 a8be 0558 01be f46b 42be 9f96 5f3e
00000220: 3866 993e 7c03 cbbd aa62 e5be 5f25 11bf
00000230: e23e 6d3e 691c 98be 1b8c 313e 2b44 aebe
00000240: 19b0 35be e551 1b3e 7726 e43d 72c2 70bd
00000250: ec4e 9ebe 38a2 06bf 2936 cd3d 1401 433e
00000260: 0bf7 b9be 8857 96bd 4ab1 873e 8818 bfbd
00000270: f634 87be 8a25 463e 43fe 9b3e ff47 8ebe
00000280: d3af 8c3e fbcc d03e 8f75 943d 8310 b4be
00000290: ff7b e3be 8299 8d3e 164e 61be 25cf 9e3e
000002a0: 8c1e d53c 9ceb 94be 7062 733e 2edb ffbe
000002b0: 92a1 6abe 65e8 debe 991d 953d 4826 86be
000002c0: 4d6d 42bd 9398 03bf 0127 2fbe b180 623e
000002d0: fc7a 603e 234b be3e a25f d0be c51b 13be
000002e0: 93e1 c93e f846 93be 9e09 19be 6d74 4c3e
000002f0: 4dc1 49be 9e94 59bd 170f e63c 19b1 7bbd
00000300: 674f 0ebe 9545 1c3d 7040 643d f72d 99bd
00000310: f58d 25be 6960 6e3d 0f6b 68be fa34 64be
00000320: 0796 f3bd 11df 81bd f587 373d c32d bdbc
00000330: f721 3c3e adee 0a3d 9cfb 7a3d fe2b a93d
00000340: 4e8e d1be 2c7f 6d3d 3a38 2fbe dad2 98be
00000350: 6071 ca3d 1cca 2e3d ce2b 81be 5c86 b33e
00000360: fef6 debc 60d9 273d 3152 ec3d 5d7c b9bc
00000370: 1987 4abd e70b c5be d9fe 543e 0bf0 70bd
00000380: 68b0 88bd 925d 04be 7c2e 183e 2963 06be
00000390: 00a2 2abe 69ca f03d d598 873e 7a8f c03d
000003a0: 8005 803e eafc d53d caed 5bbe e417 a13e
000003b0: 9ef5 c5be b2a4 9bbe 00e6 9d3e 5d70 933e
000003c0: d971 50be eb3e e93e a774 a33e 39fc 8a3d
000003d0: fff4 0f3e c99c 9abe a0dc d53e 2af0 24bd
000003e0: e3df eabd 4ae7 c73e 6597 553d 3380 913e
000003f0: be42 d73d b60f 153f 9b33 433e 22bd 813d
-0.44093764 -0.38478145 -0.45774385 0.26469728 -0.11479159 0.00567422 0.08113501 0.089596406
-0.060458094 -0.34685624 0.17674725 0.24560274 -0.34986573 -0.24084313 -0.44777802 -0.16555493
-0.23805426 -0.2633585 -0.2916541 0.08279813 0.13763662 -0.21941622 0.11090795 -0.2290868
-0.30461267 0.23368077 -0.05123456 -0.04501419 -0.13270706 0.045709476 0.20106445 -0.03597262
0.24839169 -0.14263278 0.3587432 -0.1551705 -0.051781528 0.42239726 -0.29728547 -0.12130422
-0.34593344 0.118836395 -0.073526725 -0.09375261 0.5531915 -0.021473428 0.19456841 0.16974452
-0.12679845 0.04788843 -0.38528234 0.30163157 0.13034987 0.049312208 0.3915855 0.29607916
0.4749536 0.5696755 -0.40527076 -0.27552325 -0.12764886 0.39016026 -0.33479542 0.19467658
0.17969549 0.41186398 -0.05401835 -0.1940198 0.4340406 -0.31601095 0.005055696 -0.2743581
0.3204152 0.29780984 -0.23803627 -0.031774223 -0.004337132 -0.41720414 0.41133863 0.18616664
-5.5760145e-05 0.37798083 0.22483182 0.20062172 0.18414068 -0.155364 -0.36017686 0.16587937
-0.034398407 0.22658122 -0.84913003 -0.069695465 0.9966967 0.7070675 -0.9314028 0.8906363
0.4875282 -0.24853994 0.58126014 0.8719105 0.20075005 0.014752723 0.4544089 0.975215
0.19563772 -0.5038093 0.6290456 0.12074727 0.59718263 0.8708034 0.38301247 -0.22200365
0.40067524 0.63734114 -0.28577524 0.446856 -0.5388358 -0.35150197 0.846291 1.1983829
0.17800741 -0.24105242 -0.31338486 -0.0597578 0.37543547 -0.48882642 -0.29113647 0.2680386
-0.3861499 0.050600093 0.043624274 0.120423764 -0.3296469 -0.12631233 -0.18986493 0.21834801
0.299608 -0.09912774 -0.44801837 -0.5669765 0.23168519 -0.29709175 0.17338602 -0.34036383
-0.17742957 0.15167959 0.11140149 -0.058779188 -0.30919588 -0.52591276 0.10020096 0.1904338
-0.3632129 -0.07340914 0.26502448 -0.09330851 -0.26407593 0.19350258 0.30467424 -0.27789304
0.27477893 0.40781388 0.07248985 -0.35168847 -0.4443054 0.2765618 -0.22002444 0.31017414
0.026015542 -0.29086006 0.2376802 -0.49971908 -0.22913197 -0.43536678 0.07281036 -0.2620108
-0.04746752 -0.51404685 -0.17104723 0.22119404 0.21921915 0.371667 -0.40697962 -0.14366062
0.39429912 -0.28765082 -0.14945075 0.19966288 -0.19702645 -0.053120248 0.028083367 -0.06144819
-0.13897477 0.038152296 0.055725515 -0.0747947 -0.16167434 0.058197413 -0.2269709 -0.22285834
-0.1189385 -0.06341375 0.044807393 -0.02309311 0.18372332 0.033919025 0.06127511 0.08260344
-0.40928882 0.05798261 -0.17111292 -0.29848367 0.09884906 0.042673215 -0.25228733 0.35063446
-0.027217384 0.04097879 0.11539114 -0.022642309 -0.049445245 -0.38485643 0.20800342 -0.058822673
-0.06674272 -0.12926319 0.14861482 -0.13123764 -0.1666336 0.11757357 0.2648379 0.09402366
0.25004196 0.1044863 -0.21477428 0.3146354 -0.38663954 -0.3039909 0.3083954 0.28796664
-0.2035593 0.45555815 0.31924936 0.06786389 0.14058302 -0.30197743 0.41769886 -0.0402681
-0.11468484 0.39043647 0.052146334 0.2841812 0.10510777 0.582271 0.19062655 0.06334902

conv5.bias f4 [30]
00000000: f807 9e3e 516f 423f 8682 573f 57f0 e13d
00000010: 9d29 a43e a490 1f3f 78f0 853d d02d 263d
00000020: ef27 723f 82a9 393f 3991 81bd 6f9b 963e
00000030: 3c46 8e3f b4cd c03e 38f8 3b3e 7fdf 2dbc
00000040: a64d 763f fd34 883f 1947 c73e 7383 843f
00000050: cbb9 673f 5cb6 f1bd d8e4 fa3e 00b5 773e
00000060: e3c2 343f 6a14 5f3e 4bed 73be bb04 78bd
00000070: 31ad 033e 60bd 943f
0.30865455 0.75951105 0.8418354 0.11032169 0.32062998 0.6233008 0.065400064 0.040571034
0.94592184 0.72524273 -0.06326527 0.2941546 1.1115184 0.3765694 0.18356407 -0.010612368
0.9621223 1.0641171 0.3892143 1.0352615 0.9051787 -0.118023604 0.4900272 0.2419014
0.70609874 0.21785131 -0.23820989 -0.060551386 0.12859036 1.1620293

linear.0.weight f4 [30, 30]
00000000: 6000 7f3f 4134 d03d 24d0 2ebf 7342 95bf
00000010: c39d 943e 779c 81bf 7943 de3e 799f 363f
00000020: fc80 91bf cc7b 05bf aa6e 27be e6b6 bd3d
00000030: 803f 00bf 86f6 f23e 118f 863f 72cd e93e
00000040: 2704 01bf b930 aabe 8f0d f6be 67bc 51bf
00000050: 45f4 4dbf 702c a33f cb70 93be 5a68 d83e
00000060: 8d58 f53e 4275 91be 690b 653f 49a7 963f
00000070: 0c90 95bf fa10 bebf fefd 333e 739d b3bf
00000080: 0ec7 eb3f a11f 0abe 172b 273d 0c1b dfbe
00000090: b573 223f 8595 08bf 0c1b 1bbe 44d5 f63f
000000a0: 5781 37bf 9296 a4bf bdda c43f bc86 fc3f
000000b0: 42ed d63f 7146 77bf e246 f93f bf03 31bf
000000c0: eb06 e5bf fbda 933f feac d63e 3d03 c53f
000000d0: 54f2 da3f bb34 f93f 6b3d debe b473 ef3f
000000e0: 558c f83e 2ca2 d13f dce1 66be f34d 89bf
000000f0: dde3 843e 8193 963f 0139 c53e 5504 58be
00000100: 5f70 203f 1fe4 d43e 6b98 b93e 0b0b 8a3f
00000110: fba7 aa3f 5cd1 c83e 655f 213f a6ef b63f
00000120: 9703 ac3f bcb8 123f 67da 24bf d153 883f
00000130: 286b fb3e 36e6 613f e720 193f ece3 3d3f
00000140: cec6 d83e fa0e 84bf a57f 32bf 8a84 9dbe
00000150: 8480 a13f 5054 0bbf df98 74bd ba7d 64bf
00000160: 60a5 09bf 82d6 bb3f a19e 6cbf 73f6 88bf
00000170: 9289 f7bf 4171 2c3f 8c55 1bbf cc36 673f
00000180: 75d9 88be a93d c3be b05c 493f b799 bfbf
00000190: 1931 273f cdf0 28bf b071 523e e655 a5bf
000001a0: da00 e9bf 7aa0 29bf bffb d9bf d8ca b7be
000001b0: 7e48 5bbe ee79 97be 73c8 503f c371 a8bf
000001c0: b483 06be fbf3 a8bf 35a1 84bf 625c 54bf
000001d0: 196e 82bf e4c0 cfbf 4892 3b3f bfaf 7d3f
000001e0: 6e62 5bbf b6c1 bebf 643e df3f 57f1 643f
000001f0: 82cf e7be e0fc e03d 944a 8e3f 8766 99bf
00000200: d939 67bc 398e b63f 5947 153e 1302 aebf
00000210: 326b 933f d1ec 093f 832d b73f d5bb babf
00000220: 55b3 c53f 5d5e 55bf c08a bfbf dbf5 c13f
00000230: 35ca 0d3f 9458 453f 934a d13f aa0b ad3f
00000240: cd8c 8abf 9302 f33f 460a 12bf 61f7 773f
00000250: f003 a53e 2f0d b33d 6173 443f 71cd fa3d
00000260: ae80 5fbf 7214 6ebf 6c44 f03e 6cbe 89bf
00000270: dbef 713e 82f7 413f b5ed 83bf e263 0abf
00000280: 2856 5cbe 602f 6c3e 59a2 3bbf f501 b93e
00000290: ac21 8c3f 1171 833e a311 2abf ca95 55be
000002a0: 88fb 23bf f0c6 29bf c813 33bf 0a6b 783f
000002b0: 15fc 73be cf6b 9b3e ca1b 493f ae60 e9be
000002c0: c027 543f 1d07 b63f bcb8 a0bf 02d4 acbf
000002d0: 54b9 033f 59a7 5c3f d7cf b3bf ce6d 1b3d
000002e0: 0da8 493f b5f6 ba3e 5e2c 13bf a17a 673f
000002f0: 7d51 9b3f 4ea1 9bbf b7de 3c3f e344 873f
00000300: 6fb8 253f 5d30 63bf 7dfe eabf b57b 153f
00000310: 1d8b d0bf 8f48 113f 975d 1c3f ec3c 8ebf
00000320: d133 773f 9d85 f6bf 6bc1 8ebf e873 a9bf
00000330: d9e0 963e c687 a2bf dbb4 9fbe bae2 edbf
00000340: 460b 0a3f ed19 db3f 265d 803f 4752 853f
00000350: 3232 99be 73ff 0ebf c954 b33f a077 36bf
00000360: acca 753c fcc7 df3f 7c1d bb3f 2117 9c3d
00000370: 5b6c 333f 2ddb b33f e08c 523f 4ea9 903c
00000380: d360 59bf 8933 403f 129e 963d 73b4 973f
00000390: d847 713f ae93 6abe ca02 473e b998 cebf
000003a0: a607 99bf af7e 86bf 431d 963f 667c 88bf
000003b0: 579b 913f 145c a7bf 7b97 76bf f5d0 dc3f
000003c0: f77b 433e 4dcf a4bf a799 5b3f 3cd2 87be
000003d0: ad33 063f e876 0dbf 24e1 debd 951e 7f3d
000003e0: ef2b 903d 1b5e 353f 749a 4abf b0ba 8abf
000003f0: 5248 273f ea86 cbbe 5e3a 973f 39b6 81bf
0.9960995 0.10166217 -0.6828635 -1.1660904 0.29026613 -1.0125874 0.43410853 0.71337086
-1.1367488 -0.52142024 -0.16350809 0.09263401 -0.50096893 0.47453707 1.051241 0.45664555
-0.5039696 -0.33240297 -0.4805722 -0.81928104 -0.8045085 1.2747936 -0.28796992 0.42267114
0.4791912 -0.28409773 0.89470536 1.1769801 -1.1684585 -1.4848931 0.17577359 -1.4032425
1.8420122 -0.13488628 0.040812578 -0.43575323 0.63457805 -0.5335315 -0.15147036 1.9283834
-0.7168173 -1.285845 1.5379254 1.9728618 1.6791155 -0.9659186 1.9474757 -0.6914634
-1.7892736 1.1551203 0.41928858 1.5391613 1.7105203 1.9469217 -0.43406233 1.8707185
0.48544565 1.6377616 -0.22547096 -1.0726913 0.25955096 1.1763765 0.38520053 -0.21095403
0.62671465 0.41580293 0.36249098 1.078462 1.3332514 0.3922223 0.63036186 1.4291885
1.3438596 0.5731313 -0.64395756 1.0650579 0.4910519 0.882419 0.5981583 0.74175906
0.42339176 -1.031707 -0.6972602 -0.30765182 1.2617345 -0.54425526 -0.0597161 -0.89254344
-0.5376797 1.4674838 -0.9242955 -1.070021 -1.9338858 0.6736031 -0.6067741 0.9031799
-0.26728407 -0.3813298 0.78657055 -1.4968785 0.6530929 -0.6599243 0.20551181 -1.2916839
-1.8203385 -0.6626049 -1.7029952 -0.35896945 -0.21414372 -0.29585212 0.8155586 -1.3159717
-0.13136178 -1.3199457 -1.0361696 -0.82953465 -1.0189849 -1.623074 0.7327008 0.9909629
-0.85697067 -1.4902866 1.7440915 0.89430755 -0.45275503 0.10985732 1.111651 -1.1984414
-0.014112913 1.4262153 0.14577998 -1.3594383 1.1517088 0.5387698 1.4310764 -1.4588572
1.5445353 -0.8334711 -1.4964218 1.5153154 0.5538667 0.77088284 1.6350883 1.3519185
-1.0824219 1.898516 -0.57046926 0.96861845 0.32229567 0.08742749 0.76738554 0.12246216
-0.87305725 -0.9299995 0.46927202 -1.0761237 0.23626654 0.7576829 -1.0306917 -0.5405866
-0.21517241 0.23064947 -0.732946 0.36134306 1.0947776 0.256722 -0.6643316 -0.20857921
-0.6405568 -0.6631918 -0.6995206 0.9703833 -0.2382663 0.3035569 0.7855803 -0.45581573
0.82873154 1.4220921 -1.2556376 -1.35022 0.51454663 0.8619285 -1.4047803 0.037946515
0.7877205 0.36516348 -0.57489574 0.9042149 1.2134243 -1.2158601 0.73777336 1.0567898
0.6473455 -0.8874567 -1.8358914 0.58391887 -1.6292454 0.5675134 0.61080307 -1.1112342
0.9656344 -1.9259526 -1.1152776 -1.3238497 0.2946842 -1.2697685 -0.3119267 -1.8584816
0.5392345 1.7117287 1.0028427 1.0415734 -0.29921108 -0.55858535 1.4010249 -0.71276283
0.015001934 1.7482905 1.4618373 0.07621599 0.7008721 1.4051262 0.8224621 0.017658856
-0.8491337 0.75078636 0.07354368 1.1851944 0.9425025 -0.22907898 0.19434658 -1.6140357
-1.1955459 -1.0507411 1.172768 -1.0662963 1.1375531 -1.3074975 -0.9632489 1.7251269
0.19090258 -1.2875763 0.8578133 -0.26527584 0.524226 -0.5525956 -0.10882786 0.062285025
0.0703963 0.7084672 -0.79141927 -1.0838223 0.6534473 -0.3975137 1.1814687 -1.0133735

linear.0.bias f4 [30]
00000000: 4259 e53e b4d3 f63e 8338 c1bd fa26 863f
00000010: ef78 2d3f a76e c23e 57f5 a03f 8ce9 1e3f
00000020: 5327 513f 4efe 4a3f 5702 313f 9883 e63e
00000030: 4011 723f 19f9 e03e a0e9 30bc af55 073f
00000040: b193 973e 1d8b a73f 1fc4 2e3f 7794 ad3f
00000050: 0b15 123f da38 e43e 6cab df3e 44ab aa3f
00000060: cb44 d73e b4cb 133f 7a59 773f bb01 433f
00000070: 9a80 d23e 8a88 1f3f
0.4479466 0.48208392 -0.09434607 1.0480645 0.67762655 0.37975046 1.2574872 0.62075114
0.8170063 0.7929429 0.69144195 0.45022273 0.9455757 0.43940046 -0.010797888 0.5286512
0.29604867 1.3089329 0.6826801 1.3560933 0.5706336 0.44574624 0.43685472 1.3333516
0.42044672 0.577327 0.96620905 0.76174515 0.4111374 0.6231772
